arena_navigation/arena_local_planner/model_based/crowdnav_ros/scripts/crowd_nav/data/output/il_model.pth (torch, 112519 bytes, 7 tensors)

value_network.0.weight f4 [150, 13]
000000 b2 31 0c 3d 71 c6 81 be 49 a7 9e 3c f2 72 34 3e
       0.03422708 -0.2534671 0.019366877 0.17621973
000010 3d 6a 1e 3e f2 f7 19 be f3 79 42 3e 72 8b 1f bd
       0.15470214 -0.1503599 0.18991832 -0.038951345
000020 be ab 63 bd 4c a9 e9 bd 9e 30 59 be 75 eb 2e 3d
       -0.055583708 -0.11409244 -0.21209952 0.042705018
000030 c1 49 cc bd 08 27 d8 3d 42 27 b7 3d 5e b2 8d be
       -0.09975005 0.105543196 0.08943035 -0.27675146
000040 ed 20 54 3d 2a 84 8a bd 28 c4 87 bd 37 50 89 3d
       0.051789213 -0.067634895 -0.06629211 0.06704753
000050 3e e3 04 3e d2 8f a5 3d 2a 7c fe 3d 0e 7d 03 be
       0.12977311 0.08084072 0.12426026 -0.12840673
000060 4d 54 73 be 84 f6 1c 3d 57 1b a2 3d 63 28 7f 3d
       -0.23762627 0.038321033 0.07915371 0.062294375
000070 2e 7e ab 3d 01 5d 85 be b1 94 d3 3d 31 7c 56 bd
       0.08373676 -0.2604752 0.10331095 -0.052364532
000080 50 0a 98 3c f6 04 69 be 4a ca 36 be 63 14 52 be
       0.018559605 -0.22755799 -0.17850605 -0.2051559
000090 8a 71 31 3e e1 e8 49 be 55 39 07 3e 87 f4 3f bd
       0.17328468 -0.19717743 0.13205464 -0.04686406
0000a0 4c 20 05 3e 5a d3 6f be 88 2c 1e 3e 7b 2a 5f be
       0.13000602 -0.23420468 0.15446675 -0.21793549
0000b0 d3 8e 03 3e be ae 7b bb 47 59 53 3c b1 14 dd bd
       0.12847452 -0.0038403715 0.012899703 -0.10794962
0000c0 56 f9 3c bd 8b 61 56 3e 8e e5 4f be e1 78 86 3e
       -0.046136223 0.20935647 -0.20302412 0.26264098
0000d0 c6 ee 8a bd 22 4f 2a bd da b0 66 3c 90 f4 36 bd
       -0.06783824 -0.041579373 0.014080251 -0.044666827
0000e0 ea 20 70 3e 94 7a 5d be 36 d7 1b 3e f4 61 52 be
       0.23450056 -0.21628791 0.15218815 -0.20545179
0000f0 4f b6 c0 3d 65 0f 38 be 6a 9e 0f be ed e3 1e be
       0.094097726 -0.17974623 -0.14025274 -0.15516634
000100 37 63 2f be 40 20 48 3e a7 b9 89 be a1 f9 4d 3d
       -0.17127691 0.19543552 -0.26899454 0.050286893
000110 75 a5 58 3e 8b eb 2a 3c 61 00 5d 3e ba e8 6a be
       0.21156867 0.010432134 0.21582176 -0.2294034
000120 2b 4d 87 be ce 45 3d 3e 8c 56 3c bc 24 19 6d 3e
       -0.26426062 0.1848366 -0.011495244 0.23154122
000130 e2 60 0a bd 91 73 39 3e d4 47 b8 bd de 2e eb bd
       -0.0337838 0.18110491 -0.08998075 -0.114835486
000140 2b 91 24 bd 22 aa a2 3d 20 01 4c 3e dc a0 fa bd
       -0.040177505 0.079426065 0.19922304 -0.12237713
000150 f2 c3 08 3e 9e 90 23 3e 45 b7 70 3e ec b6 29 be
       0.13355997 0.15973136 0.23507412 -0.16573685
000160 1b 5e 3a be 5b 3e c4 bd 91 34 61 3e c5 f5 ba bd
       -0.18199961 -0.09582206 0.21992709 -0.09128908
000170 80 0c 8c 3d f2 7c 88 be e3 ea 2d 3e 9c 38 29 be
       0.06838322 -0.26657826 0.16984133 -0.16525501
000180 37 4a b4 bc b4 b4 95 bd 8e dd 85 be a5 0d 9b bd
       -0.022008045 -0.07309857 -0.26145595 -0.07570962
000190 fd 86 3a bd 46 97 10 3e b6 4a 49 3e 71 44 96 3c
       -0.04553889 0.14120206 0.19657406 0.018343182
0001a0 7a aa 49 bd a0 64 3f 3e 88 58 90 3d 32 77 8b be
       -0.049234845 0.18690729 0.07048136 -0.27239376
0001b0 15 15 27 3e 73 4a ba bd b6 d1 66 bd 9d c0 e3 bc
       0.16316636 -0.09096231 -0.05635234 -0.027801806
0001c0 be 4f 6f be 70 d6 73 bd fd c0 86 3d 76 3e 5d 3d
       -0.23370263 -0.059530675 0.06579778 0.054014646
0001d0 99 d3 4e be d3 05 2f 3e f0 e1 c2 bd 1f ee 76 be
       -0.20197906 0.17092066 -0.095157504 -0.24114273
0001e0 50 73 1a be ba d1 cb 3d 48 42 58 3e 60 7b 39 bd
       -0.1508305 0.099521115 0.21119034 -0.045283675
0001f0 2b b9 44 be a3 6e 33 3e e6 a2 cd bd 3d 99 70 bd
       -0.19211261 0.17522673 -0.10040836 -0.05873989
000200 ff a7 8f be 7a 54 10 3e 9a f7 fa 3c 8d 75 4f be
       -0.28057858 0.14094725 0.030635644 -0.20259686
000210 f7 75 9f 3d c6 2a 0d be 7b 3e bb 3c c7 a2 25 be
       0.07786172 -0.13785848 0.022856941 -0.16175376
000220 95 f3 07 3e 4e 8b 41 3e 06 35 3e 3e 44 46 e6 bd
       0.13276513 0.18900797 0.18574914 -0.11243871
000230 a5 16 f7 bd 6c d5 30 bd ef 46 98 3b 56 0c 12 3d
       -0.12064866 -0.043172285 0.004647128 0.035656296
000240 89 14 d5 3c d3 01 63 3d bb 22 74 3d 12 a8 88 3d
       0.026010768 0.05542166 0.059603434 0.06672682
000250 b7 f1 97 be 60 8d af 3d 05 8f 81 3d 17 cd 8a bd
       -0.296766 0.08571887 0.06326107 -0.06777399
000260 62 00 14 3e f0 12 06 3e 4e 04 89 3e 5c 5f 8c be
       0.14453271 0.13093162 0.26761097 -0.27416503
000270 e3 92 69 3e 23 6d 99 3c 6b 2c 30 3d b7 51 58 be
       0.22809939 0.018728798 0.04301111 -0.21124922
000280 2a cf 48 3e 1c 87 c4 3d f4 5a 55 3e ed a5 0d be
       0.19610277 0.095960826 0.20835477 -0.13832827
000290 90 5d 53 be 7c 45 07 be 79 79 b6 bd 2a 67 21 3e
       -0.2064116 -0.132101 -0.08909888 0.1576201
0002a0 20 be 56 3e 0f 46 12 3e 93 f6 8f be 6a d7 11 3d
       0.20970964 0.14284538 -0.2811781 0.035605825
0002b0 1c 50 8d be 84 29 12 be fb 30 78 3e b7 8d 50 3e
       -0.2760018 -0.1427365 0.24237435 0.2036656
0002c0 7d b3 71 3e 23 6e 6e 3e 75 df 63 be 93 17 11 be
       0.23603626 0.23284201 -0.22253211 -0.14169149
0002d0 22 25 57 3e 0c 11 aa 3d 63 bb 0f bc f4 b5 69 be
       0.21010259 0.08304033 -0.008772704 -0.22823316
0002e0 5c 1b 25 be 19 de 38 be ce a4 16 3d 5f 35 74 be
       -0.16123718 -0.18053474 0.036778264 -0.23848484
0002f0 ca ae f5 bc 98 d9 81 3e 66 6e da 3d 8a 07 80 be
       -0.029990572 0.25361323 0.10665588 -0.25005752
000300 30 04 5c 3d 9e 5c 7a be 07 73 67 3e 6a f9 26 bd
       0.05371493 -0.24449393 0.22602473 -0.040765204
000310 8d 4e 82 3e ad 08 9e 3d fe 9d 1a 3d 22 86 69 be
       0.25450554 0.077164985 0.03774833 -0.22805074
000320 23 0f 6f 3e 54 ab 76 be 34 fb 2c 3d 12 b4 64 3e
       0.23345618 -0.24088794 0.042231753 0.22334316
000330 79 24 ae 3c f8 fb 35 3a 29 a9 d2 3d 20 83 04 3d
       0.021257626 0.00069421483 0.10286171 0.032351613
000340 cf 25 10 3d 45 ea 7e be cc 2f 07 be dc 75 77 be
       0.035192307 -0.24894054 -0.13201827 -0.24166054
000350 d4 d7 71 be 77 2e 24 be 24 2f fa bd e2 6e 4a 3e
       -0.23617488 -0.1603335 -0.122160226 0.19768861
000360 bc e1 82 be 5a 95 80 3e 6b 5b 30 3e 63 0b 22 be
       -0.25562847 0.25113946 0.17222373 -0.15824656
000370 3d dd e9 3d 30 40 eb bd 47 ef 85 be ce 0c 66 3e
       0.11419151 -0.11486852 -0.26159117 0.22465822
000380 37 dd 44 be 63 08 53 3d 7e 62 04 be 57 88 22 bd
       -0.19225012 0.05152167 -0.12928197 -0.039680805
000390 38 95 b4 3b 9d 3b 88 3c cd f9 32 bc 93 a5 d0 3c
       0.0055109523 0.016629988 -0.010923815 0.025469577
0003a0 eb 4f 38 3e 4f ff 0a 3e 54 0f 11 be 5c fd 10 3e
       0.17999236 0.13573955 -0.14166003 0.14159149
0003b0 61 3a 76 3e bd e6 09 3d a5 6f 50 be d4 2b e4 bd
       0.24045707 0.033667315 -0.20355089 -0.11141172
0003c0 e9 c2 d6 bc 6c 36 db 3d 4d 92 60 3e 2a 22 ee bd
       -0.026215987 0.107037395 0.2193081 -0.1162761
0003d0 c9 62 e8 3d 2c 57 21 3e 44 14 4e 3e 9f aa 41 bd
       0.11346967 0.1575591 0.20124918 -0.047281858
0003e0 1d 25 c8 3d 31 d3 93 3d 8c 14 85 3e 0b f3 6a 3e
       0.09772704 0.07218016 0.2599224 0.22944276
0003f0 a1 b6 61 3e 69 01 1e 3d 7d 8f 0a 3d c1 82 37 3d
       0.22042324 0.038575564 0.033828247 0.04480243

value_network.0.bias f4 [150]
000000 ae 38 d6 3d 80 e6 1f 3e 14 ee 36 be 13 21 8f 3e
       0.104600295 0.15615273 -0.17864257 0.2795492
000010 5f 38 3d 3e 7d 8a 9c bd 25 14 ae bc 25 eb e5 3c
       0.18478535 -0.07643602 -0.02124984 0.028066227
000020 f3 05 4b bd 52 6f 59 3e b2 4d 4b be 7c cb 5c 3e
       -0.04956622 0.21233872 -0.19853857 0.21561998
000030 34 ea 5a be 16 c4 7a 3d 7f 83 43 be 1a 32 4c be
       -0.21378404 0.06122216 -0.1909313 -0.19940987
000040 f7 ca 82 3d f0 90 eb 3d d2 ca 1a be fe bd 07 bd
       0.06386369 0.11502254 -0.15116432 -0.033140175
000050 2a 08 df 3d 37 73 0c be ed 07 3e bd c5 35 a3 3d
       0.10890229 -0.13715826 -0.046394277 0.0796924
000060 7a 8a a2 bd 7d 5d 6a be 9d 53 74 be 5e e7 4a be
       -0.079365686 -0.22887225 -0.23860021 -0.19814822
000070 c0 dc 19 3e 2f b6 f1 bd 32 ce 49 3e 99 28 82 be
       0.15025616 -0.11802327 0.19707564 -0.254216
000080 46 26 02 3e 11 bb 0d 3e 15 f8 f8 bc ff fc 30 3e
       0.12709913 0.13840891 -0.030391732 0.1728401
000090 4e b8 b1 3d 94 2f dc 3d d5 b8 ca 3d 20 0a 71 3e
       0.086777315 0.10751262 0.09898535 0.23539019
0000a0 78 fb 2a be 16 e8 18 3e 5f 08 04 be 7e f0 70 3e
       -0.1669749 0.14932284 -0.12893818 0.2352924
0000b0 f4 b0 e5 3d 31 7e 1d be a0 a0 78 3e c3 9b 8d 3d
       0.11215392 -0.1538017 0.24280024 0.06914475
0000c0 80 49 b4 bd d8 7c 16 3e 66 84 25 be d5 fd af 3d
       -0.088030815 0.14696062 -0.16163787 0.085933365
0000d0 6f bd 5b 3e 85 a9 3e 3e ed d8 30 3e 60 87 53 be
       0.21458982 0.18619354 0.1727025 -0.2065711
0000e0 85 51 b6 bd a3 13 3c 3e 97 fe 70 be e3 b9 e1 bd
       -0.08902267 0.18366866 -0.23534618 -0.11021783
0000f0 51 e5 b4 bd 0d 82 7d 3d 25 a3 96 3c ef 69 fa 3d
       -0.08832801 0.061891604 0.01838834 0.122272365
000100 5e 14 32 be 36 1a 00 be 22 8a 0b 3e 22 72 2a 3e
       -0.17390582 -0.12509999 0.13626912 0.166451
000110 5a 4b 52 be 8a 1b a0 bd d2 18 bd 3d ce 79 4d 3c
       -0.20536557 -0.07817753 0.0923325 0.0125412475
000120 9c c0 69 be 32 6a 22 be 1c 00 02 be 41 7b 64 3e
       -0.22827381 -0.15860823 -0.12695354 0.22312643
000130 ef 87 04 be b2 ab 47 be cf be 21 3e f9 42 8b be
       -0.1294248 -0.1949909 0.15795444 -0.27199534
000140 3a 41 1c 3e bf 6c 33 3c 70 26 55 3e 93 fe 6b 3e
       0.15259257 0.01095122 0.20815444 0.23046331
000150 fd 8c 1c be 8f dd 4b 3e 7b cd 15 3e a0 d2 0e be
       -0.15288158 0.19908737 0.14629166 -0.13947535
000160 6a f0 19 be ad 78 24 be 3c c9 db bd d7 7e 46 3d
       -0.15033117 -0.16061659 -0.10731742 0.048460808
000170 84 60 11 3e b7 44 0b be b7 05 5e 3e 04 53 11 bc
       0.14196974 -0.13600431 0.21681868 -0.00886989
000180 0d 64 49 3e 52 44 42 3e 56 94 60 be 29 83 22 be
       0.19667073 0.18971375 -0.21931586 -0.15870346
000190 33 22 43 3d 4e 61 42 be be cd fc 3d 45 3c 63 bc
       0.047640037 -0.18982431 0.1234393 -0.01386935
0001a0 ab 10 f4 bd 29 4b 12 bd e9 77 1e 3e ee d3 8f 3d
       -0.11917242 -0.03571621 0.1547543 0.07022844
0001b0 42 bb 16 3e e2 7c e8 ba de 0a 82 3d b9 d8 d8 bd
       0.1471987 -0.0017737413 0.06349729 -0.105882116
0001c0 4a b3 06 3e 12 aa fa bd ea 3e c6 3d e6 6e ae 3d
       0.13154331 -0.122394696 0.09679969 0.08517246
0001d0 ea 57 06 be f8 b7 61 3e ba 2b 3c be 92 b4 57 be
       -0.13119474 0.22042835 -0.18376055 -0.21064976
0001e0 15 3c f8 3c fc 85 fa bd 03 f7 30 3d 1d d2 f7 bc
       0.030302087 -0.12232587 0.04320432 -0.030251557
0001f0 5b 46 5e 3d 94 92 71 be da 37 bb bd 27 c5 fd 3d
       0.054266315 -0.23591071 -0.09141512 0.123911195
000200 c2 15 9b bd 78 82 41 ba 1b 9f 98 3d 4f 01 87 3d
       -0.07572509 -0.0007381807 0.07452222 0.065920465
000210 9f 48 5d 3a dd 35 f1 3d 90 93 b9 3d 75 cd 5e 3d
       0.00084413023 0.11777852 0.090613484 0.054395158
000220 15 29 8b 3c 6e 0a 15 be 92 cb 72 be 8b f6 ab bd
       0.016987363 -0.1455476 -0.23710468 -0.08396634
000230 81 25 56 3e e7 04 28 be 9b 93 03 3e ce 72 18 bb
       0.20912744 -0.1640812 0.12849276 -0.0023261788
000240 12 81 0e 3e 7d 0e 80 be d9 af 2d 3e 0a 10 1b 3e
       0.13916424 -0.25011054 0.16961612 0.15142837
000250 c2 28 42 be 43 e3 32 be
       -0.1896086 -0.17469506

value_network.2.weight f4 [100, 150]
000000 a9 60 77 bc c1 f2 16 bd a3 d0 55 3d b2 60 46 bd
       -0.015098729 -0.036852602 0.052200925 -0.04843206
000010 d1 bc b5 bc 95 14 cd 3c e6 cf 14 bd 4e 55 98 bd
       -0.022184761 0.025034228 -0.03633108 -0.074381456
000020 c3 33 70 bd ca 1f 47 bd 29 a1 2e bd 61 e5 9b 3b
       -0.058643114 -0.0486143 -0.042634163 0.0047575687
000030 92 6f a0 bd 82 06 7a 3d c1 8a 18 bc ce f7 22 3d
       -0.0783378 0.061041363 -0.009310425 0.039787106
000040 bf b1 8b 3c 9e ba 94 3d c7 6a 9a bc 0a dc 5d 3b
       0.01705253 0.07262157 -0.018849744 0.0033853077
000050 ba 07 4c bd b2 9f 50 bc 6e f2 81 bd e6 df 21 bc
       -0.049812056 -0.012733387 -0.06345068 -0.009880042
000060 e2 af 38 3d cc e6 89 bd df c3 a6 bc 25 de 9c 3c
       0.04508961 -0.06733474 -0.02035707 0.019148896
000070 3b 96 95 3d 51 6a 61 bd 10 3b 79 bd 5c 79 08 bd
       0.07304045 -0.05503303 -0.060847342 -0.033318862
000080 70 84 c1 bc 25 a5 05 3d 1c 47 0c bd d9 b8 34 3c
       -0.023622721 0.032628197 -0.034247503 0.011030399
000090 52 1a 6c bc 12 eb 81 bc 2c 0e 00 3d 5e a7 93 bd
       -0.014410572 -0.01585916 0.031263515 -0.07209657
0000a0 2b a2 30 3d 3a 60 9e bd c4 12 35 bd a9 40 4a bd
       0.043123405 -0.077331975 -0.04420735 -0.04937807
0000b0 10 eb 95 bd 70 d5 42 bc 3d 06 8a 3d ba 18 1b 3c
       -0.07320225 -0.011891708 0.06739471 0.0094663445
0000c0 8d f6 0e bd 89 6b 2f bd c1 a1 92 3d ff 47 98 bd
       -0.034903098 -0.042827163 0.07159758 -0.07435607
0000d0 5d 04 63 bd 27 c5 39 3c fe bc 21 bb ec b7 0e bd
       -0.055424083 0.011338509 -0.0024679299 -0.03484337
0000e0 d1 c8 24 bd 4d f0 95 bd ab 67 a4 bd 63 e7 40 3d
       -0.040230576 -0.07321224 -0.080275856 0.047095668
0000f0 12 76 01 bd 61 f8 4c 3d 4c bc 84 3d 5a 22 29 bc
       -0.03160674 0.05004156 0.06481227 -0.010323131
000100 15 c8 b6 3b dc 0d 1d 3d 93 63 5a 3c 16 5f ee bc
       0.005578051 0.038343295 0.013329404 -0.029098075
000110 34 f9 60 bc 7b c0 e8 3c f8 8d 1b bd c8 74 51 bd
       -0.01373129 0.028412094 -0.03797719 -0.051136762
000120 5c 30 9b 3d aa 2d 73 bd 44 af 90 bc 8f 81 7b 3d
       0.07577583 -0.05936972 -0.017661698 0.061402854
000130 b0 f6 0b bd 60 9f c5 3c 99 76 76 3c a6 c9 63 bd
       -0.034170806 0.024123847 0.015042924 -0.05561223
000140 fd 12 93 bd 8e 7d 92 bc 4e 97 18 bc c9 02 72 bc
       -0.07181356 -0.017882135 -0.009313418 -0.014771172
000150 59 e8 92 bd 56 69 6d 3d 56 c3 7c 3c 43 a7 64 bc
       -0.07173223 0.057961784 0.015427431 -0.013955894
000160 83 9c b0 bc 07 6d 66 3d 62 6e 71 3d 4a 06 70 bc
       -0.021559006 0.05625632 0.05894316 -0.014649937
000170 5a ac b0 bc 65 92 28 3d a3 92 43 3d 56 c1 19 bd
       -0.021566559 0.041155238 0.047747266 -0.037537895
000180 67 c7 98 bc 09 db fc 3c 8b fd 73 3d dd f3 a3 3c
       -0.01864977 0.030866163 0.05956797 0.020013744
000190 32 68 a5 3d 81 e9 77 bd a5 67 94 bd 84 cb ad 3d
       0.08076514 -0.06052542 -0.07246331 0.08486083
0001a0 26 99 10 3d 75 60 fa 3b 63 3b 5b 3d 0d da 81 3d
       0.035302304 0.007640893 0.053523432 0.06340418
0001b0 46 08 52 3d 91 8a df 3c 72 03 52 3d af 0d 52 bd
       0.05127742 0.027287753 0.051272817 -0.05128258
0001c0 72 97 d7 bc 8a 18 a9 bc 19 02 d0 bc 5e b6 8e 3c
       -0.026317332 -0.020641584 -0.025391625 0.017420944
0001d0 83 13 ec bc 20 41 a6 bd 43 a0 40 3d fb 7c fa ba
       -0.028817898 -0.0811789 0.047027837 -0.0019110733
0001e0 bb 1b d1 bb d3 01 f6 3c 37 c3 af bc b2 36 3a bc
       -0.0063814796 0.030030167 -0.02145539 -0.011365579
0001f0 00 17 70 3d e8 56 87 bd 12 8b a8 bd d6 17 52 3d
       0.058615685 -0.06608373 -0.082296506 0.051292263
000200 ca ec 7c 3d 15 88 fd bc ba 0a 8f bd 07 12 41 bd
       0.061749257 -0.030948678 -0.06984468 -0.047136333
000210 cc 36 99 3d bf 5a 9a bd 6f df 76 3c 43 2b 1f 3d
       0.07481155 -0.0753684 0.015067919 0.038859617
000220 ac 6c 91 3c 6f e5 29 3d b1 00 ab 3c 6b 39 9e bd
       0.017752014 0.04147857 0.020874353 -0.07725795
000230 f2 ef 04 bd 65 74 86 bd fc 66 9c 3d 43 d4 a5 3d
       -0.032455392 -0.06565169 0.0763683 0.08097126
000240 66 16 22 3d 29 61 e2 bb c9 de 8b bd 1a b9 0a 3b
       0.039572142 -0.006908555 -0.06829602 0.0021167458
000250 f4 68 46 bd f4 3e 39 bd 7f ef 80 3d 29 25 bd 3b
       -0.048439935 -0.045226052 0.0629568 0.005772252
000260 20 36 a6 bc 13 9a 36 bd 66 5c 46 bb 8e a6 63 bd
       -0.02028948 -0.04458053 -0.0030267476 -0.05557876
000270 6d 36 91 bd e2 19 8e 3b 3e 10 8a bc 6e 6c 99 3d
       -0.07090459 0.0043365816 -0.016853448 0.074913844
000280 eb f5 95 3d 01 9b 33 bd 93 3e 24 bd d8 5c 1e 3d
       0.07322296 -0.043848995 -0.040098738 0.03866276
000290 2b 9a 48 bd c6 ca 8a 3d 45 14 04 bd 53 0c ca bc
       -0.04897515 0.06776957 -0.032245893 -0.02466408
0002a0 02 44 98 bc 8e b7 52 bd ab 03 4e 3c e7 eb 6e 3d
       -0.018587116 -0.051444583 0.012574117 0.058330443
0002b0 69 1c 9b 3d 92 ee 0d 3d 37 46 4c bd 1d 5c 70 3c
       0.07573778 0.034651347 -0.04987165 0.014670399
0002c0 f7 08 88 3d 82 4b 90 bd 4a 65 2a bc 62 9a c0 3c
       0.06642335 -0.07045652 -0.010400126 0.023511115
0002d0 25 82 c6 bc e1 14 95 bd 49 8a f4 bc 6c a4 9e 3c
       -0.02423198 -0.07279373 -0.029851096 0.019365512
0002e0 ba 18 8e bc c5 45 c2 bd b6 08 02 bd b5 2e 29 bd
       -0.017345775 -0.09485964 -0.03174659 -0.04130431
0002f0 93 d6 8c bc 91 9f e6 bc 36 e6 c4 bc ed 61 0c bd
       -0.01719216 -0.028152259 -0.024035554 -0.034273077
000300 e2 d4 5e 3d 46 b4 41 3d 9a 52 b8 3c e9 94 9f bd
       0.05440224 0.047291063 0.022500325 -0.07792074
000310 24 9e 84 bd a4 88 08 bb d9 79 1e 3d 1d 37 8c bc
       -0.064754754 -0.0020833397 0.03869042 -0.017116124
000320 56 30 5a 3d 76 2f 80 bd 39 af a7 3d 3b 0b 57 3d
       0.053268753 -0.062590525 0.08187718 0.052500945
000330 04 9d a3 bd 80 6a 27 bd 65 15 51 3d 59 50 3d 3d
       -0.07988933 -0.04087305 0.051045794 0.046219204
000340 c5 77 b7 3b 0e dd 94 3c f5 1d 41 3d d0 5b 93 bd
       0.0055989944 0.018171813 0.04714771 -0.07195246
000350 90 b2 a9 3d ed 4b 76 3c 58 f7 45 bd 97 a9 19 3c
       0.08286011 0.015032751 -0.04833159 0.009378812
000360 00 f0 2e bb 02 41 5f 3d 73 4d 40 3d 30 47 8d bd
       -0.0026693344 0.054505356 0.04694886 -0.068983436
000370 fc 3b 39 bc 20 b5 71 bd b2 24 95 bd d4 c1 49 bc
       -0.011305805 -0.059010625 -0.0728239 -0.012314279
000380 0f cd 58 3d 25 08 0b 3c ae 01 f0 bc 74 bc a9 3c
       0.052929934 0.0084858285 -0.029297676 0.020719744
000390 1f 29 48 3c 76 0c 23 3d 90 c6 01 3d e6 37 b1 3c
       0.012216835 0.039806806 0.031683505 0.0216331
0003a0 e9 41 89 3c 13 d3 24 bd 5d f2 71 bb 06 f6 9b bd
       0.016755061 -0.04024036 -0.0036918141 -0.076152846
0003b0 ff 83 97 3d e0 e1 ae bd 67 f6 4d bd 09 7d 99 bc
       0.07398223 -0.08539176 -0.050283816 -0.01873638
0003c0 e6 b6 51 bd c2 d6 b3 bd 16 cd 20 3c 54 a2 31 bc
       -0.051199816 -0.08781196 0.009814521 -0.010841925
0003d0 fc 7c de 3c cb 8f 09 3c 72 02 9b 3d 40 f6 cd bc
       0.027159207 0.008396099 0.07568826 -0.025141835
0003e0 7f 0d 45 3d 88 57 12 bd aa 2f 03 bd ba d4 93 3c
       0.048108574 -0.035728008 -0.032027878 0.018045772
0003f0 7f 93 e8 bc 43 6f 64 3d 2f 62 bb ba ff b4 12 bd
       -0.028390644 0.05577017 -0.0014296229 -0.035817143

value_network.2.bias f4 [100]
000000 eb a0 91 bd fe f1 02 bd 53 9f 2a bd f6 7f df 3c
       -0.07110771 -0.031969063 -0.04165585 0.027282696
000010 20 39 80 3d 18 50 5a 3d 3b d6 3b 3d 91 44 59 3c
       0.06260896 0.05329904 0.045858603 0.013260976
000020 9b f6 39 bc d1 f5 c1 bc cf 11 06 3d b6 da 93 3b
       -0.011350299 -0.023676785 0.032731827 0.0045121564
000030 c3 b7 8b bd e1 fb 64 bd e2 14 85 bb 2c 05 28 3c
       -0.06822159 -0.055904273 -0.0040613273 0.010255139
000040 94 20 9b bb f2 4b cd bb f4 46 8c bd 92 ab 03 bd
       -0.004734108 -0.006265157 -0.06849471 -0.032146044
000050 94 db 91 3d 4c c1 88 bd b6 44 71 bd 05 f5 86 3d
       0.07121959 -0.066774935 -0.05890342 0.065897025
000060 ba 29 b0 bc 38 3f 8c 3d 12 a9 5c 3d 02 cd ab 3b
       -0.021504272 0.068479955 0.053872176 0.0052429447
000070 69 7f 51 3d fe 06 0c 3d 3d 92 a4 bc 86 c5 b6 3c
       0.0511469 0.034186356 -0.020089263 0.022310983
000080 1a 0f d6 bc 54 12 06 3d 30 97 e6 3b c8 ca 6d 3d
       -0.026130248 0.032732323 0.007037066 0.058054715
000090 a9 8b 14 3d d4 3b 4a 3d 30 38 5d bd 13 f4 8b bd
       0.036266003 0.049373463 -0.054008663 -0.06833663
0000a0 b2 a9 9f bd 17 f4 a2 3a c9 15 10 3d a7 a8 98 3d
       -0.07796039 0.0012432364 0.035177026 0.07454043
0000b0 08 e6 63 bc fc d6 05 bd c9 e6 0c bd c0 45 44 bd
       -0.013909824 -0.03267573 -0.03439978 -0.04791808
0000c0 87 5f 9d bd 84 c1 32 3d 84 4d 6f bd eb 8d 50 bc
       -0.07684236 0.043641582 -0.058423534 -0.012729148
0000d0 f7 f9 c5 bc 94 29 59 3d c2 40 90 bd 6b 05 20 3d
       -0.024167044 0.053018168 -0.070436016 0.039067667
0000e0 65 07 2d bc 97 81 a9 bc 14 48 81 3d 9f 6d 5b bd
       -0.010560845 -0.020691676 0.06312576 -0.05357134
0000f0 31 dc 7e 3b 36 22 28 ba 6c 28 8c 3c 87 9c 2b bc
       0.0038888569 -0.0006413789 0.017109118 -0.010474331
000100 96 a4 47 bc a6 4e 26 bd 6c 56 9b bc ff 04 1c 3d
       -0.012185236 -0.04060235 -0.018962108 0.038090702
000110 69 e2 df bb fb a6 06 3d 1a 70 36 3c 8e d1 88 3d
       -0.00683241 0.03287409 0.0111351255 0.066805944
000120 7f b1 e6 3c 5a cd b3 3d 25 d2 61 3d ad af 88 3d
       0.028160809 0.08779402 0.05513205 0.066741325
000130 4a 53 01 bc b1 c9 54 3d 01 3a 99 bd dc d0 7a 3d
       -0.007893393 0.05195016 -0.074817665 0.06123434
000140 34 3f a1 3d 79 e4 bf bb 40 8b 13 3d 39 d0 36 bd
       0.07873383 -0.0058560935 0.03602147 -0.04463217
000150 32 1e 3c 3d db 26 f8 bc 4b 94 8f bd 1b 07 f1 b9
       0.045927234 -0.030291965 -0.070107065 -0.00045972396
000160 0d 3f 55 3a 4e f3 6e 3d 10 26 e8 3c f3 07 2e bd
       0.00081347005 0.058337502 0.028338462 -0.04248805
000170 3c ab 58 3d a2 12 eb bc 55 7b 40 bd 1e 97 c9 bc
       0.052897677 -0.028695408 -0.04699262 -0.024608191
000180 d6 d6 b9 bd 07 d1 8a bd 75 87 9a 3d 61 b3 ce bc
       -0.0907418 -0.0677815 0.07545368 -0.025232019

value_network.4.weight f4 [100, 100]
000000 8c a9 b4 3c e9 23 75 bc 6c 09 cb bc 64 07 74 bd
       0.022053503 -0.014962175 -0.024784766 -0.05957736
000010 87 09 ab 3c 92 bf 1c bc f0 de 81 3c 42 ee b1 bc
       0.020878566 -0.009567158 0.015853375 -0.021720055
000020 7d 18 5f 3d 42 de 6a bd 31 1a 8f bd 46 be 9e 3c
       0.054466713 -0.057340868 -0.069874175 0.019377839
000030 9b 61 83 bd 90 1b 2c 3c f7 90 bd 3d 44 f4 d7 3c
       -0.06415101 0.010504618 0.092561655 0.026361592
000040 50 a8 3f 3d e7 f0 3f bc 2b e8 76 bc c5 63 a2 3d
       0.046791375 -0.01171515 -0.015070002 0.07929186
000050 f3 f9 98 bd 34 97 bd 3d ba 4f c7 bd 02 49 b5 bd
       -0.07469549 0.09257355 -0.097320035 -0.08851816
000060 b4 93 b0 bd 09 40 4a bd a8 4f c6 3d e2 0c 4d 3d
       -0.08621922 -0.049377475 0.09683162 0.050061114
000070 40 23 f2 3c 55 a1 3c 3d 1b c4 68 bb 3a ef ba 3d
       0.029557824 0.046052296 -0.0035517279 0.0912766
000080 c7 b7 83 3d a9 2c 3d 3d 73 f8 21 bd b7 1c c1 3d
       0.06431537 0.04618517 -0.03954358 0.09429305
000090 a0 69 db 39 ca 8c 67 3d c1 e7 cd bc aa f1 87 3d
       0.00041849632 0.05653075 -0.025134923 0.06637891
0000a0 de e5 87 bd db 1f f6 bc 67 2f e9 3c ab 0f 05 3b
       -0.066356406 -0.030044487 0.028464986 0.0020303528
0000b0 4a f2 03 bd 8b 55 b2 bd ed 30 ff bc 7c 30 85 bd
       -0.032213487 -0.08707722 -0.03115126 -0.06503388
0000c0 99 bc 6b 3d 58 f9 c0 bd 6b 55 6c 3c 98 9a 17 bd
       0.057552908 -0.094225585 0.014424662 -0.037012666
0000d0 a9 31 99 3c 97 11 bd 3c a3 cd 33 bd df 63 e2 bc
       0.018700438 0.023079677 -0.043897282 -0.027635513
0000e0 b7 11 ba 3d 21 b9 6b bd 18 56 a9 bb 7e 44 10 3c
       0.0908541 -0.0575496 -0.005167734 0.008805392
0000f0 3d d8 5d bd 89 f0 d0 3c 83 f5 a8 3d 03 da ef bc
       -0.0541613 0.025505321 0.08249953 -0.02927876
000100 ce 70 e1 bc 2b be da 3c 40 52 ec b9 21 ee 23 3d
       -0.02751961 0.026702007 -0.0004507471 0.04002202
000110 3b 11 b8 3d 1e a1 1f bd 42 0d a4 bd 54 50 9e bd
       0.089876615 -0.038972013 -0.08010341 -0.07730165
000120 ff f0 3c bd 8e 3c 02 bd 3b d2 be 3d dc 5d 85 3d
       -0.04612827 -0.03179603 0.09317442 0.06512043
000130 59 1a 99 bd a6 07 d5 bc f6 52 89 bd 88 cb 39 3d
       -0.074757285 -0.026004624 -0.06705277 0.04536012
000140 fe 07 4d bc 5f af 98 bc e1 91 f1 3c 85 d2 c2 3d
       -0.0125141125 -0.018638311 0.029488506 0.0951281
000150 1a 9f db 3c b7 e5 b5 bd e9 2e 7a 3d dd 47 b0 bd
       0.026809264 -0.08881705 0.061079893 -0.08607457
000160 47 f9 3f 3d 73 4d 6a 3d ac 4b a4 3c f4 8e 49 bd
       0.04686859 0.057202768 0.020055614 -0.049208596
000170 18 2a aa 3d 72 2e ac bd a4 f7 96 3d f1 22 9f bd
       0.0830881 -0.08407296 0.073714525 -0.077703364
000180 da 56 b6 3d 1c 00 11 3d 58 5d da 3c fa c1 9e bd
       0.08903284 0.035400495 0.026655838 -0.07751842
000190 43 9d 76 bd ff 81 83 bd e9 9c 02 bd 27 e2 b7 bd
       -0.06020857 -0.06421279 -0.031887922 -0.08978682
0001a0 90 41 94 3d 5c d8 b0 bd 9b 0d 1c bd e5 40 00 3d
       0.072390676 -0.08635017 -0.038098913 0.03131189
0001b0 bc d9 38 3d 7e 7e a3 3d 5c 06 60 3d 54 2c 7f bd
       0.045129523 0.07983111 0.054693565 -0.062298134
0001c0 9c 1a 1d bd 5a 49 9a 3d bd ef 1f bd 46 09 95 bc
       -0.038355455 0.07533522 -0.03904699 -0.018192898
0001d0 75 dd 03 bd 79 76 bc 3c 0f 9c 44 3d 5a 18 0e 3c
       -0.03219362 0.02300571 0.04800039 0.008672798
0001e0 64 03 64 3d 32 0e ad bd 0d 7e 66 bd 2b 26 59 3d
       0.055667296 -0.08449973 -0.056272555 0.053014915
0001f0 51 01 1f bd b4 c4 4e bd f7 f3 8d bc 2d b8 87 3d
       -0.038819615 -0.05048056 -0.017328246 0.066269256
000200 9d 9d b3 bc 48 01 b6 3d 4a ba f5 3d 50 73 a6 bd
       -0.021925742 0.08886963 0.119984224 -0.08127463
000210 a6 81 55 bd 82 30 82 bd b7 7c 70 bd 04 43 75 bd
       -0.052125596 -0.063569084 -0.058712687 -0.059878364
000220 66 bc a4 ba e9 69 5f bc 07 b7 32 3d 85 4e ce 3b
       -0.0012568354 -0.013636091 0.04363158 0.0062959814
000230 17 f6 e1 3c c8 8d b9 3b 1a b0 79 3d 28 09 bb bd
       0.027583165 0.0056626536 0.06095896 -0.09132606
000240 6a b4 7b bd 60 f9 35 bd 31 90 95 ba b9 43 ed bb
       -0.061451353 -0.044427276 -0.001141077 -0.007240739
000250 6d 8e f4 bc 6b b8 36 bd 9c 57 22 bd df 25 56 3c
       -0.02985307 -0.04460947 -0.039634332 0.013070553
000260 96 ed 23 bd 0d c3 1c 3d 64 1d be bd f0 96 5f 3d
       -0.0400215 0.038271952 -0.092829496 0.054587305
000270 7c 44 c7 bc 3f a3 aa bd f0 e6 4b ba b6 59 89 bc
       -0.024324648 -0.08331918 -0.0007778248 -0.01676641
000280 d3 de 80 bd 2b f5 1c 3c fc 63 18 bd ef 73 7f 3d
       -0.062925 0.009579937 -0.037204728 0.062366422
000290 44 48 a8 bd 68 bc c8 3c 86 f2 f9 3d 86 35 11 3e
       -0.082169086 0.024503902 0.12204461 0.14180574
0002a0 31 0a 19 3d 9e 09 03 3d 68 d1 07 bc de ae 08 3d
       0.037363235 0.031991594 -0.008289672 0.03336989
0002b0 4c bb ae bd 10 39 b3 3c 28 36 bf 3d 03 43 a9 bd
       -0.08531818 0.021877795 0.09336501 -0.082647346
0002c0 11 8b ee 3d 0b cb 4f bc f4 6c 14 bd bc 9e ed 3c
       0.116476186 -0.012682687 -0.03623672 0.029006355
0002d0 05 1a 9c 3d 3a 62 15 bd 59 eb 1e bc 3f d7 bd bd
       0.0762215 -0.03647063 -0.009699666 -0.092695706
0002e0 00 a6 03 3b 41 94 2e bd f7 fc 52 bd 51 5c 87 3d
       0.0020087957 -0.042621855 -0.051510777 0.06609405
0002f0 7c b7 5f 3d ca c0 97 bd e4 44 81 bd 2a b8 ad bc
       0.054618344 -0.074098185 -0.06311968 -0.02120598
000300 16 75 3f bc 25 a6 21 3d 64 13 bd bc dd b6 1c 3e
       -0.01168563 0.03946509 -0.023080535 0.15304132
000310 92 ca dd bc 51 94 31 3c 3d 8c 20 3d cb 94 c3 bd
       -0.027074132 0.010838584 0.03919624 -0.095498644
000320 f0 cf 97 3d 20 94 2b bd 74 ae 7a bd 77 a1 39 bd
       0.07412708 -0.04188931 -0.061201528 -0.04532
000330 00 f0 fd b9 25 e8 29 bd 51 32 84 3c ee e9 a8 3c
       -0.00048434734 -0.041481156 0.016137274 0.020619359
000340 87 70 b7 3d 3f 63 b1 3c e5 fb c1 3c 7b f2 85 bd
       0.0895701 0.02165377 0.023679683 -0.0654039
000350 8c f4 c9 bd 5e fa 8f 3c d4 57 fc 3c 03 7f 88 3d
       -0.09861097 0.017575439 0.030803598 0.066648506
000360 84 2b 7b 3d 34 4f b3 bd 0e b6 2e 3d cd b4 78 3d
       0.061320797 -0.08755341 0.04265409 0.0607193
000370 cf 4d c8 bd fc f3 c3 bd 68 a5 45 bd 24 a5 95 bb
       -0.09780466 -0.09568021 -0.048253447 -0.0045668054
000380 9b b0 2c 3d e9 f4 2e 3d bd 90 d4 3c 39 2c 0b 3c
       0.04216061 0.042714033 0.025947923 0.00849443
000390 c7 34 1a bd d2 74 8f 3d 32 8d 06 3d 6a 6d 72 3d
       -0.03764799 0.070047036 0.032849498 0.059186377
0003a0 49 52 9e 3d 9e 95 9a 3c 4c 01 ca 3d 70 ab 43 bd
       0.077305384 0.018870171 0.098635286 -0.047770917
0003b0 ea b5 71 3d b2 e8 46 3d 93 8c 71 3d 9b 2a c9 bc
       0.059011377 0.04856176 0.058971953 -0.024556449
0003c0 e0 b8 43 bd 36 30 74 bd 67 cb 51 3d b0 6d 1f 3d
       -0.047783732 -0.05961629 0.05121937 0.038922966
0003d0 87 41 42 3d ec 16 aa 3d 8e 08 d6 bc c8 19 66 3d
       0.047425773 0.08305153 -0.026127126 0.05617693
0003e0 6c e0 89 bd b4 dc 2e bd 1b 20 a2 bd 47 8d a6 bc
       -0.06732258 -0.042690948 -0.0791628 -0.020331038
0003f0 09 46 83 bd c1 77 cd 3c 85 91 d8 3c af d2 c0 bd
       -0.064098425 0.025081517 0.026436577 -0.09415185

value_network.4.bias f4 [100]
000000 97 35 bf 3d 7f 46 0c bd 54 23 cd bd 86 8c 0b 3d
       0.09336393 -0.034246918 -0.10016504 0.03406956
000010 52 67 3a bd 88 93 bc 3c ff 88 70 bc ce b4 a6 bb
       -0.04550869 0.023019567 -0.0146811 -0.0050874716
000020 b7 1e 8b bd e4 4c 97 bd d9 79 0d 3d 23 03 a4 bd
       -0.06792968 -0.073877126 0.03454003 -0.08008411
000030 d1 fb 90 3d 09 17 24 3c bc ae 48 bd 94 0a 08 3e
       0.0707928 0.010015258 -0.048994765 0.13285285
000040 c0 42 77 3d 6c df 88 3d 74 2e c1 3d 3c 1c 01 3d
       0.060366392 0.06683239 0.09432688 0.031521067
000050 70 cc 8b 3d f9 86 2b 3e 26 0c 60 bd b2 4e 41 3d
       0.06826103 0.16750707 -0.054699086 0.04719419
000060 94 95 98 3d 77 6d b1 3d 06 43 78 3c 52 8e 7c 3d
       0.07450405 0.08663457 0.015152698 0.061659165
000070 88 78 51 3d 87 79 12 3d 44 76 8f 3d 68 27 6d bc
       0.05114034 0.03576043 0.07004979 -0.014474727
000080 a7 71 39 ba 46 e9 92 bd 5e 1a 9a 3d db 36 f4 3a
       -0.00070741255 -0.071733996 0.075245604 0.0018632071
000090 fd f8 ef 3c 4b b3 01 3e 50 4c 3a 3d 35 8e 05 3e
       0.029293532 0.12666051 0.045482934 0.13042529
0000a0 b7 f1 1e bd 60 70 3d bc 3a 44 a1 bd 6c b6 f6 bc
       -0.038804736 -0.011562437 -0.07874341 -0.030116282
0000b0 b9 10 33 3d a6 c0 83 bd 65 b8 6e 3c 1d ed 27 3e
       0.04371712 -0.06433229 0.01457033 0.16399045
0000c0 8e 3d 4b bd b1 38 95 bd b4 85 94 3d 6e 24 59 3d
       -0.04961925 -0.07286204 0.07252064 0.053013258
0000d0 ce a8 0a bd c2 39 ea 3d e4 02 8d bd 88 d6 ca bd
       -0.03385239 0.11436798 -0.06885317 -0.099042
0000e0 dc 9e 83 3d 15 24 6f 3d 82 96 8f bd d2 a9 af 3d
       0.064267844 0.05838402 -0.07011129 0.085773125
0000f0 e1 43 27 bd 8c a6 ba 3d 6f 45 a5 bd 57 35 7a bc
       -0.04083622 0.091137975 -0.08069884 -0.015271506
000100 0f c6 58 3c 19 51 9d 3d f8 13 2e bd a8 ec 3d 3d
       0.013230815 0.07681484 -0.042499512 0.04636827
000110 57 13 ee 3d b2 d9 7d 3d 65 c6 d7 3c ca 98 1f 3d
       0.116247825 0.06197519 0.02633972 0.03896407
000120 5f 63 26 3d f1 62 bf bd 73 c8 54 bd d3 d6 84 bd
       0.04062211 -0.093450435 -0.051948976 -0.06486287
000130 16 fc 21 bd 91 26 ad 3d 69 37 d7 3d 08 37 07 3d
       -0.03954705 0.084546216 0.105086155 0.033011466
000140 66 19 98 3c 8b 8c 69 bc ed 63 e6 3d 38 66 ad bd
       0.018566798 -0.014254699 0.11249528 -0.08466762
000150 35 a5 55 3d 2e 6d ef 3c 93 b2 73 3d 7a 70 4d 3d
       0.052159507 0.029226866 0.059496474 0.050156094
000160 fe db 9d bd 33 50 c0 3c 8c 5e e8 3c b4 a5 8c 3d
       -0.07707976 0.023475742 0.028365396 0.06867543
000170 a0 5a 92 bc 9f 32 fe ba ea 60 7d bc 22 61 e3 3d
       -0.017865479 -0.0019393748 -0.015465001 0.11102511
000180 0a e3 6a 3c 03 68 09 3c d0 30 e3 bc f1 f6 1b 3c
       0.014336357 0.008386615 -0.027733237 0.009519325

value_network.6.weight f4 [1, 100]
000000 f6 24 79 3c 54 c3 81 be 07 e8 63 3c da 7a 28 be
       0.015206566 -0.25344336 0.0139103 -0.16453114
000010 af 8c 25 3d 3a 6d 11 be 7e 77 43 3d 03 03 8c bd
       0.04041737 -0.14201823 0.04772138 -0.06836512
000020 74 5b af 3d d0 4d 15 3d 51 65 ee bd c4 59 8c bd
       0.08562365 0.03645116 -0.11640418 -0.06853059
000030 a7 f3 bb 3d 29 b4 85 bd 7e a4 ee bd 0e a7 83 3e
       0.09177332 -0.065285034 -0.11652468 0.2571339
000040 a2 b8 40 3d d6 8a 50 3d 8d 69 cb 3d 70 70 69 3d
       0.04705108 0.050913654 0.099322416 0.056991994
000050 58 e5 5b 3e 0f fa 95 3e 84 76 a2 3d ca 7e 98 bd
       0.21474206 0.29292342 0.07932761 -0.07446058
000060 b1 69 32 be 8a 87 e8 3c d0 58 c8 ba ff 13 24 3e
       -0.1742313 0.028384943 -0.0015285257 0.16023253
000070 4b 50 62 bd 5b 53 22 3d 08 9d 51 3d f8 6c 98 bd
       -0.055252355 0.039630275 0.051175147 -0.07442659
000080 38 11 5a bd 8b d5 a5 bd 26 1a 6d bd c9 d1 0e 3e
       -0.053239077 -0.08097371 -0.057886265 0.13947214
000090 b9 a5 3a 3d f8 2a 86 3e 52 f8 2d 3e b2 18 2b 3e
       0.0455682 0.26204658 0.16989258 0.1670864
0000a0 00 d2 50 bb 4b 79 4e 3d fa 0e 13 bd 53 18 00 3d
       -0.003186345 0.050408643 -0.035902955 0.031273197
0000b0 55 e7 3b bd d3 c0 a4 bd 35 51 f6 bc b1 5c 48 3e
       -0.045874912 -0.08044591 -0.03006802 0.19566609
0000c0 ea ff d6 bd 86 de a5 bc c4 e1 0d 3e aa 1e 10 3c
       -0.104980305 -0.020247709 0.13855654 0.008796373
0000d0 a5 18 c3 bc 5b ae 24 3e e1 22 43 be 60 f3 ec 3c
       -0.023815462 0.16082136 -0.19056274 0.028924644
0000e0 ff 23 89 3d e3 9f ac 3d 4a 67 05 3d 5d c8 05 3d
       0.06696319 0.084289335 0.032569207 0.032661784
0000f0 da 7f bf 3d 0e 5f 13 3e 13 19 91 bd b9 5f 2c be
       0.093505576 0.14391729 -0.07084861 -0.1683339
000100 2b 65 fe bc 5e a1 d6 3d 2a 96 a9 3d 60 79 b8 bb
       -0.0310541 0.10479997 0.08280595 -0.0056297034
000110 7a 3b 49 3e c1 47 1a 3e 83 f9 47 be f6 05 b6 3d
       0.19651595 0.15066434 -0.19528775 0.08887856
000120 80 13 d2 3c 5c a7 0c 3d 30 01 a5 bd 5a 47 72 bc
       0.025644064 0.034339294 -0.08056867 -0.014787519
000130 1d 24 5b be 26 54 a1 3d e8 96 16 3e 22 03 14 bd
       -0.21400495 0.07877378 0.14706004 -0.0361358
000140 9d 83 ac bd b6 a3 cf 3d ff ec 3b 3e c7 a3 1d 3d
       -0.08423541 0.10138647 0.18352126 0.03848627
000150 86 c7 84 3b ea 46 3c 3c 57 a5 53 bd 36 5f 50 3e
       0.0040521054 0.011491517 -0.051671352 0.2034882
000160 ed a1 17 bd 3d 47 a4 3d e1 d6 36 bc 9d b3 03 3e
       -0.03701966 0.080214 -0.01115963 0.12861486
000170 4e 69 95 3d dc a2 87 3d 54 98 dc 3d 7d 51 62 3e
       0.07295476 0.0662286 0.10771242 0.22101398
000180 38 2f bb 3d 88 c4 d5 bc 28 19 d8 bc 12 db 8d 3d
       0.09139866 -0.02609469 -0.026379183 0.0692655
