arena_navigation/arena_local_planner/model_based/crowdnav_ros/scripts/crowd_nav/data/output/rl_model.pth (torch, 112519 bytes, 7 tensors)

value_network.0.weight f4 [150, 13]
000000 fd df 5d 3d 02 c9 82 be 49 a7 9e 3c c9 d6 33 3e
       0.05416869 -0.25543982 0.019366877 0.17562403
000010 62 03 0e 3e 51 72 13 be 3b 23 4e 3e c0 ff 62 bd
       0.13868478 -0.14399077 0.20130627 -0.055419683
000020 e5 a6 2a bd be 9a ce bd c7 cc 59 be 49 0b 8b 3d
       -0.04166307 -0.100881085 -0.21269523 0.06789262
000030 30 b9 ce bd 91 fb a4 3d ea 6c c8 3d 5e b2 8d be
       -0.100939155 0.08055795 0.09786399 -0.27675146
000040 af 7c 5e 3d f9 82 66 bd e2 38 8c bd 6a 21 b6 3d
       0.054318126 -0.05627725 -0.06846787 0.08893092
000050 f8 8b 23 3e 38 43 98 3d 3d 73 ee 3d d4 e4 00 be
       0.15971363 0.07434696 0.11643074 -0.12587291
000060 ec 0a 94 be 9d b0 31 3d 41 2e c3 3d 59 f8 96 3d
       -0.28914583 0.043381322 0.095303066 0.07371587
000070 2e 7e ab 3d b1 9b 83 be 9b 0d b1 3d 26 58 0f bd
       0.08373676 -0.2570472 0.08645173 -0.034996174
000080 c8 c9 3f 3d f0 88 4f be 23 50 6a be 52 2e 34 be
       0.046823293 -0.20267081 -0.22882132 -0.17595795
000090 a0 f6 34 3e c4 2c 9c be 92 3b 0e 3e a7 e1 60 bd
       0.17672205 -0.30502903 0.13889912 -0.0549027
0000a0 6f bd 11 3e 5a d3 6f be 14 f5 21 3e b6 ea 1f be
       0.1423242 -0.23420468 0.15816146 -0.15616879
0000b0 92 f1 e2 3d ff 37 4c 3c 9d c8 60 3d fe 18 0f be
       0.11081232 0.012464522 0.05487882 -0.13974378
0000c0 91 b7 14 bd 17 2a 5a 3e 1b a1 a1 be 6d 41 8a 3e
       -0.036307875 0.21305119 -0.31568226 0.2700304
0000d0 85 91 9e bd bc 37 3d bd da b0 66 3c c4 a1 3c bd
       -0.077425994 -0.04619573 0.014080251 -0.04605271
0000e0 7c 33 72 3e 0c 05 56 be 34 c6 1b 3e 2d e4 40 be
       0.23652452 -0.20900363 0.15212327 -0.18837042
0000f0 41 18 cc 3d 26 5a 33 be 82 07 11 be f0 c2 2e be
       0.099655636 -0.17514858 -0.1416302 -0.1706655
000100 d3 39 32 be 31 4d 49 3e 01 0e 8a be a1 f9 4d 3d
       -0.1740487 0.19658352 -0.2696381 0.050286893
000110 3c 71 58 3e 25 4e 44 3c 78 40 52 3e 70 8d 7b be
       0.21136945 0.011981522 0.20532405 -0.24565673
000120 15 ba 83 be 50 51 38 3e 0a 79 75 bc eb e4 6c 3e
       -0.25727907 0.17999768 -0.014982471 0.231342
000130 65 95 90 bd bb 0e 39 3e 77 89 8e bd a1 dd dd bd
       -0.07059745 0.18072025 -0.06959813 -0.10833288
000140 2b 91 24 bd f2 a7 a6 3d 0b 6e 53 3e bd 72 07 be
       -0.040177505 0.08137502 0.20647447 -0.13227363
000150 20 69 fe 3d 0c af 1a 3e 8b 3d 71 3e cd 30 3b be
       0.12422395 0.15105838 0.23558633 -0.18280335
000160 db 5e 38 be 9d 5b df bd 61 32 65 3e aa 39 d4 bd
       -0.18004934 -0.10906146 0.223825 -0.10362561
000170 7b 43 6e 3d f2 7c 88 be a1 c9 2a 3e 4f de 2a be
       0.058169823 -0.26657826 0.16678478 -0.16686366
000180 9d e1 f4 bc da d5 98 bd fa c6 8c be d3 39 82 bd
       -0.029892737 -0.07462664 -0.27495557 -0.06358685
000190 39 c5 91 bd 04 76 0d 3e 2b 70 64 3e aa 1e 48 3c
       -0.07117695 0.1381455 0.22308414 0.012214342
0001a0 f3 51 77 bd 1d e9 30 3e 88 58 90 3d 6d a2 8d be
       -0.060380887 0.17276426 0.07048136 -0.27662984
0001b0 39 29 0b 3e 27 03 aa bd 41 82 b0 bd fe d1 78 bc
       0.13589944 -0.083013825 -0.08618594 -0.015186785
0001c0 d2 07 68 be c7 a6 67 bd 33 23 7c 3d 56 b0 d4 3c
       -0.22659233 -0.056555536 0.061557006 0.02596299
0001d0 1f 83 57 be 4c 28 34 3e 4a 1e e0 bd 1f ee 76 be
       -0.21046112 0.17593497 -0.10943277 -0.24114273
0001e0 83 d6 1e be 2d 2b c7 3d d9 40 4e 3e 7e 2f c6 bc
       -0.15511517 0.09725032 0.20141925 -0.024192568
0001f0 14 c2 4e be be d9 36 3e 4b 7e e7 bd 93 0f 81 bd
       -0.20191222 0.178565 -0.11303385 -0.06301799
000200 22 da 91 be 86 8e 07 3e 09 56 88 3d eb f8 47 be
       -0.28486735 0.13237962 0.06657035 -0.19528548
000210 f7 75 9f 3d e9 eb 0a be 86 b4 a3 3c 8d b0 0f be
       0.07786172 -0.13566555 0.019983541 -0.14032193
000220 20 ba 10 3e 40 77 37 3e 80 86 51 3e 33 56 01 be
       0.14133501 0.17916584 0.20461464 -0.12630539
000230 6e 97 f2 bd d6 83 03 bd 2d 01 14 3c 54 bf 0d 3d
       -0.11845289 -0.03210815 0.009033483 0.034606293
000240 a3 47 60 3c d3 01 63 3d fe fe 64 3d 32 25 5e 3d
       0.0136889545 0.05542166 0.055907242 0.05423469
000250 f6 aa 95 be de a6 88 3d 48 4f 4b 3d 6b f4 59 bd
       -0.29231995 0.066724524 0.049636155 -0.05321161
000260 e7 78 13 3e ea 48 02 3e bc cf 9e 3e 62 29 90 be
       0.1440159 0.12723127 0.31017864 -0.28156573
000270 89 da 6a 3e 67 2b 8e 3c 6b 2c 30 3d d1 bd 58 be
       0.22934927 0.01735468 0.04301111 -0.21166159
000280 37 92 1e 3e b0 5c bf 3d dd 4a 56 3e 70 0d 1a be
       0.15485464 0.093438506 0.20926996 -0.15044188
000290 ba 8c 4b be c2 c9 16 be 09 52 b7 bd 03 c0 13 3e
       -0.19877902 -0.14725402 -0.08951194 0.14428715
0002a0 90 e5 55 3e 3e 12 e5 3d 7f 92 99 be 6a d7 11 3d
       0.20888352 0.1118512 -0.2999458 0.035605825
0002b0 67 32 90 be 83 14 18 be 15 d7 55 3e a7 12 56 3e
       -0.28163454 -0.14851575 0.20882829 0.20905553
0002c0 fa fc 76 3e e6 bf 7f 3e 04 cf 4f be 24 da 16 be
       0.2411994 0.24975547 -0.20293814 -0.14731652
0002d0 dc b4 73 3e a8 ff 92 3d 06 c9 21 bc b8 75 6b be
       0.23799461 0.07177669 -0.009874588 -0.22994125
0002e0 5c 1b 25 be fd 58 39 be 8a 06 02 3d 1e 95 7c be
       -0.16123718 -0.18100353 0.031744517 -0.24666259
0002f0 38 52 a4 bc b5 a2 84 3e f9 44 e8 3d 47 a0 79 be
       -0.020058736 0.25905386 0.113412805 -0.24377547
000300 3f ea 59 3d cc 55 77 be cd 6a 66 3e b6 0d 0e bd
       0.05320191 -0.24153823 0.22501679 -0.034681045
000310 f8 74 83 3e ad 08 9e 3d 0e 60 1d 3d a3 38 4c be
       0.25675178 0.077164985 0.038421683 -0.1994348
000320 51 12 7d 3e 57 38 80 be ed 1f 0d 3d 71 d5 5d 3e
       0.24714018 -0.25042984 0.034454275 0.21663453
000330 97 e5 12 3d 2c 06 b3 3a 22 5d ce 3d 3e 03 0a 3d
       0.035863485 0.0013658456 0.100763574 0.0336945
000340 fe f6 ed 3c c5 dc 86 be cc 2f 07 be db e5 7b be
       0.02904844 -0.2634031 -0.13201827 -0.24599402
000350 ea bb 83 be 3a 90 47 be c4 2f c6 bd 73 f6 03 3e
       -0.25729305 -0.19488612 -0.09677079 0.12886982
000360 8b 7f 90 be 92 f4 48 3e 6c eb 2b 3e 4e c5 67 be
       -0.28222308 0.19624546 0.16789025 -0.2263386
000370 fa 17 d8 3d 14 18 da bd e4 63 82 be ce 0c 66 3e
       0.10551448 -0.10649124 -0.25466835 0.22465822
000380 43 bd 42 be fb 82 32 3d 89 71 01 be 1d ed 44 bd
       -0.1901751 0.043581944 -0.12640966 -0.04807769
000390 a9 82 83 bb 20 e6 8d 3c ee c9 14 bc ba a6 e1 3c
       -0.0040133786 0.017321646 -0.009081347 0.027545322
0003a0 fa db 3d 3e 13 40 0f 3e f5 a1 10 be 80 fb 19 3e
       0.18540946 0.13989286 -0.14124282 0.15037346
0003b0 61 3a 76 3e f9 b0 14 3d 95 d7 41 be 27 10 ed bd
       0.24045707 0.036301587 -0.18929894 -0.115753464
0003c0 89 1a 33 bd e9 d3 d8 3d a9 57 63 3e ab 36 02 be
       -0.043726478 0.10587294 0.22201408 -0.12716167
0003d0 62 c6 ed 3d ca 46 10 3e dd 77 53 3e 96 b7 8c bd
       0.11610104 0.14089504 0.20651193 -0.06870954
0003e0 1d 47 bf 3d 31 d3 93 3d 4e 69 84 3e 15 bd 60 3e
       0.09339736 0.07218016 0.2586159 0.21947129
0003f0 03 2c 5f 3e e1 e5 cb 3c c7 83 b6 3c 05 85 67 3d
       0.21794133 0.024889888 0.022279633 0.05652334

value_network.0.bias f4 [150]
000000 0e 28 d2 3d 39 89 28 3e 9d 3b 2b be 34 6e 95 3e
       0.10261546 0.16458596 -0.1672196 0.2918564
000010 77 7c 38 3e 38 e1 9d bd 5e 98 71 bc 5f 3e 92 3c
       0.1801623 -0.07708973 -0.0147458 0.017852006
000020 5b 79 82 bd c8 d1 4a 3e 10 d1 43 be 97 2d 50 3e
       -0.06370803 0.19806588 -0.1912272 0.20329891
000030 a1 53 5c be 49 de 2d 3d 43 43 45 be d4 e7 49 be
       -0.21516277 0.042448316 -0.1926394 -0.19717342
000040 94 5a 4a 3d 66 b8 f9 3d ad cc 11 be a8 7a 19 bd
       0.04940279 0.12193374 -0.14238234 -0.03747049
000050 3c cc e4 3d 37 73 0c be 46 53 4b bd 4b ca a7 3d
       0.11171767 -0.13715826 -0.049639963 0.08192881
000060 99 7d ae bd 4e a5 72 be 9d 53 74 be 4e 4f 44 be
       -0.085200496 -0.23695871 -0.23860021 -0.19170877
000070 8f 18 1a 3e 38 05 ec bd b7 31 3a 3e 3d ac 82 be
       0.15048431 -0.11524433 0.18183027 -0.25522032
000080 52 56 11 3e f2 67 18 3e 8e f8 55 bd 9b 27 2f 3e
       0.14193085 0.14883402 -0.052238993 0.17104952
000090 34 bb c4 3d 83 ef d6 3d d2 c3 d2 3d f1 78 7a 3e
       0.09606019 0.10494902 0.10291256 0.24460198
0000a0 18 2a 2b be 47 08 1e 3e d6 8c 10 be 20 99 72 3e
       -0.16715276 0.15432845 -0.14116225 0.23691225
0000b0 a7 8e ec 3d e7 59 22 be 39 a3 7b 3e bc b6 60 3d
       0.11550646 -0.15854608 0.24573983 0.05486177
0000c0 80 49 b4 bd 45 11 11 3e 9d 55 1e be fd 0d b4 3d
       -0.088030815 0.14166744 -0.15462346 0.087917306
0000d0 06 54 53 3e 57 4c 40 3e 24 b1 31 3e a4 bf 50 be
       0.20637521 0.18779121 0.1735273 -0.20385605
0000e0 9f b6 b8 bd 81 db 3c 3e 8a 3c 61 be b8 7e b2 bd
       -0.09019207 0.18443109 -0.2199575 -0.08715576
0000f0 4e 42 da bd 0d 82 7d 3d 34 13 89 3c 6f e5 03 3e
       -0.10657178 0.061891604 0.01673279 0.1288049
000100 e1 cd 31 be 12 4f 0a be b2 ad 0b 3e f0 98 36 3e
       -0.17363693 -0.13506725 0.13640478 0.17831779
000110 2a 65 53 be 2c ee a0 bd ba 13 cb 3d b0 8e 19 3c
       -0.2064406 -0.07857928 0.09915872 0.009372398
000120 d8 93 62 be b4 4b 1f be e7 e7 f9 bd fa 39 5a 3e
       -0.2212671 -0.15556222 -0.12202435 0.21311179
000130 a0 ce f7 bd 8a 90 45 be 50 28 27 3e f9 42 8b be
       -0.120999575 -0.19293419 0.16323972 -0.27199534
000140 65 a2 12 3e 01 9f 13 3c d3 15 72 3e 31 aa 73 3e
       0.14319761 0.009010077 0.23641138 0.23795392
000150 40 2c 1c be 6d 2c 51 3e f1 60 15 3e 8a 97 f7 bd
       -0.15251255 0.20427103 0.14587761 -0.12089451
000160 32 f8 1b be 19 a9 38 be 3c c9 db bd 5f 11 0e 3d
       -0.15231398 -0.18033256 -0.10731742 0.034684535
000170 df b5 27 3e c0 38 0d be 0f f1 5a 3e e4 ad 6c bc
       0.16377972 -0.1379118 0.21381019 -0.014445756
000180 bd 34 51 3e dd 15 39 3e eb 6c 62 be 76 4a 1f be
       0.20430274 0.18074746 -0.22111861 -0.15555748
000190 09 03 66 3d 87 df 3d be 28 3c e6 3d 9a 62 48 bc
       0.05615524 -0.185423 0.11241943 -0.01223054
0001a0 6e 67 04 be 83 70 18 bd fc c9 18 3e 04 55 91 3d
       -0.1293008 -0.037216675 0.14920801 0.070962936
0001b0 ed 82 1c 3e 62 bc c2 ba 42 36 82 3d a2 34 be bd
       0.15284319 -0.0014857168 0.06358005 -0.09287383
0001c0 25 80 11 3e 08 1f 0a be 49 db cd 3d 12 20 a1 3d
       0.1420904 -0.134884 0.10051591 0.07867445
0001d0 d1 11 08 be fd 88 60 3e 00 61 3d be 61 d6 4e be
       -0.13288046 0.21927257 -0.18494034 -0.20198967
0001e0 03 15 e6 3c 88 af f0 bd a2 36 3b 3d 83 0d 06 bd
       0.028086191 -0.1175223 0.0457064 -0.03272773
0001f0 c6 83 59 3d 01 62 76 be 33 a1 cd bd 27 c5 fd 3d
       0.053104185 -0.24060823 -0.10040512 0.123911195
000200 70 30 87 bd 0a e1 df bb b3 8d a4 3d 92 a6 92 3d
       -0.066010356 -0.0068322467 0.080348395 0.07160677
000210 25 2c 7a bb 91 39 f7 3d 35 8e bd 3d 99 0a 22 3d
       -0.0038173285 0.12071527 0.092556395 0.039560888
000220 4f 83 69 3c 79 f6 13 be 92 cb 72 be 94 d1 9d bd
       0.014252498 -0.1444949 -0.23710468 -0.077059895
000230 3d 57 5e 3e 4f 58 2d be 16 4b 09 3e be 07 a7 bb
       0.21712966 -0.16928218 0.1340755 -0.0050973585
000240 12 81 0e 3e 8d b8 7f be 4d d2 25 3e 3a 5a 1c 3e
       0.13916424 -0.24972744 0.16193505 0.15268794
000250 c1 cd 3f be 80 7c 34 be
       -0.18730833 -0.17625618

value_network.2.weight f4 [100, 150]
000000 24 45 8a bc 00 35 2e bd 13 7a 53 3d 99 46 3d bd
       -0.016878672 -0.042531013 0.05163009 -0.046209905
000010 4e 82 bc bc 00 0c 00 3d 5c be 16 bd 71 2d 87 bd
       -0.023011353 0.031261444 -0.036802635 -0.06600464
000020 99 99 73 bd 31 6e 51 bd 29 a1 2e bd 68 ad 1e bb
       -0.059472654 -0.051130477 -0.042634163 -0.0024212245
000030 90 48 a3 bd fb f2 7d 3d c1 8a 18 bc f0 07 42 3d
       -0.079728246 0.061999302 -0.009310425 0.04737085
000040 07 82 82 3c 63 07 8e 3d 71 7e b0 bc 26 9b a0 3b
       0.015931142 0.06935003 -0.021544667 0.0049013076
000050 4b 1e 58 bd b2 9f 50 bc 21 3e 82 bd e6 df 21 bc
       -0.052763265 -0.012733387 -0.063595064 -0.009880042
000060 a9 25 27 3d ca 32 79 bd df c3 a6 bc 0b cb 9d 3c
       0.0408074 -0.06083945 -0.02035707 0.019261857
000070 38 96 95 3d 51 6a 61 bd 56 42 6d bd 5c 79 08 bd
       0.073040426 -0.05503303 -0.05792459 -0.033318862
000080 1c 08 ce bc d6 c3 06 3d e7 46 1c bd 5b 85 89 3c
       -0.025150351 0.032901607 -0.038153555 0.016787222
000090 91 46 85 bc 1f e0 82 bc 5c af 04 3d 57 6c 98 bd
       -0.016269 -0.01597601 0.0323938 -0.07442539
0000a0 7a 6b 39 3d 7c 5b a8 bd d4 12 3d bd 29 51 2a bd
       0.045268513 -0.08220574 -0.046160534 -0.041581307
0000b0 a6 92 8f bd 00 ad 55 bc 41 4b 87 3d c1 f2 ed 38
       -0.07010393 -0.013041735 0.066061504 0.00011346257
0000c0 8d f6 0e bd b6 37 23 bd fe fd 95 3d e3 cc 9d bd
       -0.034903098 -0.039848052 0.07323836 -0.07705095
0000d0 f7 22 44 bd f2 99 c3 3b 63 11 57 bb 98 58 17 bd
       -0.047884908 0.0059692794 -0.003281676 -0.036949724
0000e0 3c 2f 25 bd c9 4b 99 bd 10 3a a1 bd 1c e7 40 3d
       -0.04032825 -0.07485158 -0.07872403 0.047095403
0000f0 37 f5 ef bc 61 f8 4c 3d e0 42 83 3d a8 ef 5e bc
       -0.029291732 0.05004156 0.0640924 -0.013606943
000100 0b 65 c6 3b e9 50 18 3d 17 a5 5a 3c cc 40 e9 bc
       0.0060545257 0.037186537 0.013345025 -0.02847328
000110 dd fd 4c bc 90 f9 e4 3c 6c e6 30 bd c8 74 51 bd
       -0.012511698 0.027951032 -0.043188497 -0.051136762
000120 00 51 a5 3d 69 53 6b bd 68 85 a6 bc 2f 7a 7c 3d
       0.0807209 -0.057452593 -0.020327285 0.06163996
000130 da b4 15 bd 71 b7 92 3c 2c b1 2a 3c a6 c9 63 bd
       -0.036549427 0.017909737 0.010418218 -0.05561223
000140 58 7d 84 bd 52 43 8b bc a9 08 28 bc 6f a2 8f ba
       -0.0646922 -0.016999874 -0.010255971 -0.0010958443
000150 e0 40 94 bd 0e 19 5d 3d c8 ff 2d 3c 23 07 d1 bc
       -0.072389364 0.053978972 0.010620065 -0.025516098
000160 de 41 ac bc 7e 6d 4b 3d 62 6e 71 3d 3a 24 ba bc
       -0.021027502 0.049664967 0.05894316 -0.022722352
000170 bf d8 b6 bc e0 0b 39 3d 64 5d 5c 3d c1 d4 09 bd
       -0.02232015 0.04517734 0.0538 -0.033650164
000180 27 74 90 bc 09 db fc 3c c1 fd 80 3d c9 ce 22 3c
       -0.01763351 0.030866163 0.062984 0.009936997
000190 58 b6 a7 3d e0 a8 8e bd 71 0c a3 bd 2f f5 c0 3d
       0.08189076 -0.06965804 -0.079613574 0.09421765
0001a0 2b 52 0e 3d 5c 58 cd 3b b3 1c 87 3d f3 bf 6d 3d
       0.03474633 0.006266637 0.06597271 0.058044385
0001b0 d2 c6 35 3d dc e8 06 3d 7f 34 56 3d d0 4d 4e bd
       0.044379063 0.032936916 0.052296158 -0.050367177
0001c0 6a d7 b2 bc 9d 29 99 bc 30 5c cf bc 5e b6 8e 3c
       -0.021831233 -0.0186966 -0.025312513 0.017420944
0001d0 6c 70 ea bc f2 aa a3 bd 4a ad 3a 3d 52 e5 dd bb
       -0.02861806 -0.079915896 0.045575418 -0.006771722
0001e0 0b d6 e9 bb 48 a5 f2 3c c8 c6 b5 bc 24 01 88 bc
       -0.0071361116 0.029619828 -0.022189513 -0.016602106
0001f0 cd 7b 79 3d 09 9b 91 bd 39 08 94 bd d6 17 52 3d
       0.06090908 -0.07109649 -0.07228131 0.051292263
000200 d1 b3 6b 3d 03 18 f6 bc 2a 18 a7 bd 16 15 3e bd
       0.057544533 -0.030040747 -0.08158906 -0.046406828
000210 0b 5a 9b 3d c5 aa 9e bd 4a 95 7c 3c 0d 2e 17 3d
       0.07585534 -0.077474155 0.015416453 0.03690915
000220 25 a2 a2 3c 95 3e 1c 3d b1 00 ab 3c ac df 95 bd
       0.019852707 0.03814562 0.020874353 -0.07318053
000230 28 98 ea bc 7e 4f 89 bd 65 91 a5 3d 10 65 aa 3d
       -0.028637007 -0.06704615 0.080843724 0.083200574
000240 66 16 22 3d 88 12 e3 bb d8 3b 98 bd 32 c0 60 bb
       0.039572142 -0.0069296993 -0.07433289 -0.0034294245
000250 ca e9 34 bd d3 f4 2a bd 7a 27 8f 3d 8d 56 bb 3b
       -0.04416827 -0.04173739 0.069899514 0.0057171048
000260 27 02 79 bc ad 18 15 bd ad b2 ec bb fa 3f 82 bd
       -0.015198267 -0.036400486 -0.0072234483 -0.06359859
000270 17 4a 98 bd c1 9b 83 3b 4b ad 32 bc 2f 3c 95 3d
       -0.074360065 0.00401637 -0.010905574 0.0728687
000280 35 da 89 3d be 07 41 bd 8e 50 0b bd 49 e6 07 3d
       0.06731073 -0.047126524 -0.03401237 0.0331786
000290 4f 7f 4b bd 6b 52 9c 3d b7 16 ff bc da 9b 85 bc
       -0.049681958 0.076329075 -0.031138761 -0.016309667
0002a0 80 e1 ac bc 69 97 58 bd 0e 62 5d 3c e7 eb 6e 3d
       -0.02110362 -0.05287877 0.013512148 0.058330443
0002b0 8b 2b a2 3d 7f b9 0d 3d f1 09 5c bd 0b ef a0 3b
       0.079184614 0.03460073 -0.05372042 0.0049113086
0002c0 f7 08 88 3d 5b f1 92 bd 4a 65 2a bc fe 69 c0 3c
       0.06642335 -0.07174941 -0.010400126 0.023488041
0002d0 80 42 d3 bc c1 f4 94 bd e2 21 94 bc 63 b8 ca 3c
       -0.025788546 -0.072732456 -0.018082563 0.024746126
0002e0 65 8c b2 bc 1c ce ae bd c1 95 04 bd 40 28 29 bd
       -0.021795461 -0.08535406 -0.03236938 -0.04129815
0002f0 a6 5b 5a bc 43 c1 e6 bc 66 5b 71 bc 7b 79 cc bc
       -0.013327515 -0.028168326 -0.014731264 -0.02496027
000300 29 ad 7c 3d 24 b5 0c 3d 64 f4 b2 3c 0f 55 95 bd
       0.061688576 0.034352437 0.02184505 -0.07291614
000310 c1 06 7c bd 8b 9a 80 3b d9 79 1e 3d 7c e7 ea bc
       -0.06152988 0.003924673 0.03869042 -0.028674833
000320 35 65 4c 3d 80 c6 80 bd f4 79 84 3d a9 2e 2a 3d
       0.049901206 -0.06287861 0.06468573 0.041548405
000330 07 04 a4 bd 06 8b 19 bd dc 5c 64 3d 4e a0 36 3d
       -0.08008581 -0.0374861 0.05575262 0.044586472
000340 98 e5 73 3c 27 0c c5 3c ac 75 74 3d d0 5b 93 bd
       0.014886282 0.024053646 0.059682533 -0.07195246
000350 37 6f b9 3d 46 b9 aa 3c 3a c5 49 bd 16 a0 98 3c
       0.09054416 0.020840298 -0.049260356 0.018631022
000360 9f 8c a3 ba e0 db 4a 3d a4 aa 4b 3d 52 6d 8f bd
       -0.0012477821 0.049526095 0.049723282 -0.07003273
000370 7b f3 21 bc 2d 9d 71 bd 63 e2 8c bd f0 80 22 bc
       -0.00988471 -0.058987785 -0.06879117 -0.009918436
000380 13 11 7c 3d 00 98 87 3b 78 97 c5 bc 5e 9a 90 3c
       0.06153972 0.004137993 -0.024120077 0.017651733
000390 58 52 ad 3c 76 0c 23 3d ae 73 e9 3c d1 4b 87 3c
       0.021157429 0.039806806 0.028497543 0.016515644
0003a0 07 ce c3 3b 84 61 3b bd 3a 2d 33 bb ed 9e 9c bd
       0.005975488 -0.045747295 -0.002734019 -0.076475
0003b0 db ec a1 3d dd f3 ab bd 78 bf 23 bd f3 2e b5 bc
       0.07906505 -0.083961226 -0.03997752 -0.022117114
0003c0 e6 b6 51 bd 27 5e b6 bd 5b 71 25 3c 49 2e 0a bc
       -0.051199816 -0.08904677 0.010097827 -0.008433887
0003d0 67 0c 8b 3c d9 d5 15 3c 22 8d ac 3d 0f db cf bc
       0.016973687 0.009145224 0.084253564 -0.02537301
0003e0 6a c8 5b 3d fd 82 09 bd 86 4c e9 bc da bf e6 3c
       0.053657927 -0.033572186 -0.028478872 0.028167654
0003f0 35 b4 11 bd 0a 9f 51 3d 80 13 45 ba 49 8c 10 bd
       -0.03557225 0.051177062 -0.00075178593 -0.035290036

value_network.2.bias f4 [100]
000000 d2 76 8a bd e4 b2 27 bd 83 65 56 bd 05 53 97 3c
       -0.067609444 -0.040942088 -0.052342903 0.018472204
000010 20 39 80 3d db 7c 42 3d 4e 18 ed 3c 95 e8 72 3c
       0.06260896 0.047482353 0.028942253 0.01482596
000020 67 be f3 b8 cd 2b a5 bc 33 1e 06 3d 87 08 5b bb
       -0.00011622608 -0.020162487 0.032743644 -0.003342183
000030 d2 8d 90 bd 50 0d 92 bd b6 0d dd bb 19 eb b1 3a
       -0.070583 -0.071314454 -0.0067460192 0.0013574093
000040 65 94 35 bc 5d 26 32 bc 5a 6a 8d bd 98 35 11 bd
       -0.011082743 -0.010873404 -0.069050506 -0.0354515
000050 c7 f3 88 3d 4d 5c 69 bd 2e 95 55 bd b0 6e 90 3d
       0.06687122 -0.05697279 -0.052144222 0.07052362
000060 ba 29 b0 bc 21 0a a4 3d 8d 06 5d 3d 41 64 83 3c
       -0.021504272 0.080097444 0.053961325 0.016039016
000070 ee 51 3f 3d 4e c6 07 3d 6a f9 b3 3b df c1 a4 3c
       0.046708994 0.033148102 0.005492379 0.020111976
000080 09 61 2b bd 1b 0f bc 3c 43 a0 34 3c 74 bd 69 3d
       -0.041840587 0.022956422 0.0110245375 0.057065442
000090 2d 53 12 3d ba 5f 50 3d 9d 87 64 bd fa 81 7f bd
       0.035723854 0.050872542 -0.055793393 -0.062379815
0000a0 b1 25 94 bd 67 c3 22 3a c9 15 10 3d 0e 9c 98 3d
       -0.072337516 0.0006208927 0.035177026 0.0745164
0000b0 08 e6 63 bc 7e 31 d8 bc 58 36 0a bd 13 57 3a bd
       -0.013909824 -0.026390787 -0.033743232 -0.045493197
0000c0 87 5f 9d bd 91 34 15 3d f0 48 82 bd 89 b7 69 bc
       -0.07684236 0.036427084 -0.06361568 -0.01426495
0000d0 d6 02 04 bd 90 2a 84 3d a4 cc 80 bd dc 85 24 3d
       -0.032229267 0.06453431 -0.06289032 0.04016672
0000e0 72 b4 65 bc 5c 5d a8 bc 79 cc 8a 3d 8a 83 58 bd
       -0.014020072 -0.02055233 0.06777281 -0.05285982
0000f0 bf 84 af 3b 40 9f 3b 39 f0 95 63 3c d5 c9 0e 3c
       0.0053564007 0.00017893035 0.013890728 0.008715113
000100 0c 05 13 bc 65 47 26 bd d8 49 b2 3b a8 c5 a0 3d
       -0.008973371 -0.04059543 0.005440932 0.078502
000110 58 13 bf bc fb a6 06 3d 49 ee 16 3c f1 bb 6f 3d
       -0.023324654 0.03287409 0.009212085 0.058528844
000120 7e 51 a0 3c c9 08 a2 3d 25 d2 61 3d b3 ba a0 3d
       0.019570109 0.07911832 0.05513205 0.0784811
000130 88 9c 5a bb 4d 54 81 3d 98 5e c1 bd 1e 59 a6 3d
       -0.003335746 0.06314907 -0.094418705 0.081224665
000140 22 2a 10 3d 02 95 c2 3a b7 99 ae 3c 86 fa 40 bd
       0.03519643 0.0014845433 0.021313531 -0.047113918
000150 32 1e 3c 3d 65 6a 6b bc 6a 11 96 bd 9f 74 56 3b
       0.045927234 -0.014368628 -0.0732754 0.003272332
000160 b5 1a 21 3d 6b eb 6e 3d 7f 40 e1 3c 78 1b 16 bd
       0.03933211 0.05832998 0.027496574 -0.03664729
000170 08 a9 58 3d 43 a5 ec bc ab da 40 bd e8 08 b2 bc
       0.052895576 -0.028887397 -0.047083538 -0.021732762
000180 d6 d6 b9 bd e3 95 8c bd b9 56 9b 3d 01 7d e9 bc
       -0.0907418 -0.06864526 0.075849004 -0.02850199

value_network.4.weight f4 [100, 100]
000000 80 17 b4 3c 38 19 71 bc 97 a1 d2 bc 59 0a 74 bd
       0.021983862 -0.014715485 -0.025711818 -0.05958018
000010 87 09 ab 3c 6b 27 1d bc 7c 22 82 3c 44 1d bb bc
       0.020878566 -0.0095919175 0.015885584 -0.022841103
000020 cd 14 5f 3d 97 ca 73 bd 31 1a 8f bd ed 89 8c 3c
       0.054463197 -0.059519377 -0.069874175 0.017155612
000030 9b 61 83 bd 96 1f 2b 3c 8a e5 bc 3d f8 52 cb 3c
       -0.06415101 0.010444542 0.092234686 0.024819836
000040 f6 a7 3f 3d e0 05 41 bc 6f d8 84 bc c5 63 a2 3d
       0.04679104 -0.011781186 -0.016216485 0.07929186
000050 f3 f9 98 bd 5c 7b bd 3d 81 5d c7 bd 36 16 b5 bd
       -0.07469549 0.092520446 -0.09734631 -0.08842127
000060 b4 93 b0 bd a1 37 4a bd a8 4f c6 3d c5 91 4b 3d
       -0.08621922 -0.049369458 0.09683162 0.049699564
000070 6a 30 f2 3c d2 a8 3c 3d 37 5a ae bb 30 cc ba 3d
       0.029564101 0.046059437 -0.005320813 0.09120977
000080 db 66 83 3d 4d e9 3c 3d fc b2 21 bd 58 1e c1 3d
       0.064161025 0.04612093 -0.039477333 0.09429616
000090 e0 1f dc 39 50 b3 67 3d ca e7 cd bc 8b 43 88 3d
       0.0004198542 0.05656749 -0.02513494 0.06653508
0000a0 22 ec 87 bd ef 1f f6 bc 67 2f e9 3c e4 12 05 3b
       -0.06636836 -0.030044524 0.028464986 0.002030545
0000b0 4a f2 03 bd 8c 55 b2 bd ed 30 ff bc 7c 30 85 bd
       -0.032213487 -0.08707723 -0.03115126 -0.06503388
0000c0 99 bc 6b 3d dc fa be bd 94 f6 62 3c d6 b3 17 bd
       0.057552908 -0.093251914 0.013852734 -0.03703674
0000d0 90 60 9c 3c 68 dd bb 3c 60 74 34 bd 7b 49 f7 bc
       0.019089013 0.022932723 -0.044056296 -0.030186405
0000e0 b7 11 ba 3d 21 b9 6b bd ae 9c c0 bb c8 f9 e1 3b
       0.0908541 -0.0575496 -0.0058780527 0.0068962313
0000f0 6a d7 5d bd 91 e4 d0 3c 54 f4 a8 3d b5 ad ee bc
       -0.054160513 0.025499614 0.08249727 -0.029135564
000100 2a 71 e1 bc f4 16 cc 3c 8f 69 1e ba aa 11 22 3d
       -0.027519781 0.024913289 -0.0006042951 0.039567627
000110 62 f0 b4 3d 1e a1 1f bd 95 73 a4 bd b3 19 9e bd
       0.08834912 -0.038972013 -0.08029858 -0.077197455
000120 77 8f 3c bd 1e ad 02 bd 3b d2 be 3d 56 ae 85 3d
       -0.046035256 -0.03190338 0.09317442 0.065273926
000130 7f 0f 9a bd d8 e4 d4 bc 35 2d 8c bd 9d 78 3a 3d
       -0.07522487 -0.025988027 -0.0684456 0.045525182
000140 63 57 53 bc 1d 81 a0 bc 81 38 f4 3c f0 cf c2 3d
       -0.012899253 -0.019592816 0.0298121 0.09512317
000150 1a 9f db 3c df e7 b5 bd a5 2e 7a 3d 22 86 b4 bd
       0.026809264 -0.088821165 0.06107964 -0.08814646
000160 3d 9d 3c 3d 73 4d 6a 3d 2d 4c a4 3c d9 9d 49 bd
       0.04604839 0.057202768 0.020055855 -0.0492228
000170 0c bf a7 3d 72 2e ac bd 72 b4 97 3d 4a 43 a0 bd
       0.08190736 -0.08407296 0.07407464 -0.07825334
000180 da 56 b6 3d c5 6c 10 3d dd 5e da 3c 63 da 9e bd
       0.08903284 0.03525998 0.026656562 -0.07756498
000190 c3 ff 6c bd 09 eb 81 bd f2 12 a5 bd 28 6f a9 bd
       -0.0578611 -0.063436575 -0.08060254 -0.082731545
0001a0 90 41 94 3d c6 f4 a5 bd 6a f0 5c bd 32 c8 61 3d
       0.072390676 -0.081033275 -0.053940214 0.05512256
0001b0 c3 11 6e 3d 6e 51 90 3d 79 11 5e 3d d8 63 a7 bd
       0.058122408 0.070467815 0.054215882 -0.081733406
0001c0 92 07 1c bd bf a5 92 3d d1 b4 93 bc 66 d9 70 bd
       -0.038093157 0.0716052 -0.018030556 -0.058801077
0001d0 73 63 06 bd b3 9f b5 3c 71 a5 fc 3c cb d7 0d 3c
       -0.032809686 0.022170877 0.030840607 0.008657406
0001e0 7b 02 85 3d 00 68 92 bd 6e 22 5d bd 5d 94 45 3d
       0.06494614 -0.07148743 -0.053987913 0.048237193
0001f0 51 01 1f bd 46 a8 21 bd 9e 5b 8c bc 3a 68 99 3d
       -0.038819615 -0.03946712 -0.01713353 0.07490583
000200 b4 69 ae bc ec be a2 3d 28 31 e6 3d 64 d4 a4 bd
       -0.021290638 0.07946572 0.112398446 -0.08048323
000210 b7 76 5c bd 79 e1 3c bd 25 a7 81 bd c3 63 5b bd
       -0.053824153 -0.046113465 -0.063307084 -0.053561937
000220 6f 18 ae ba 0b c0 44 bc 75 81 34 3d 8d ae 70 3c
       -0.0013282428 -0.012008677 0.044068772 0.014690054
000230 e7 e3 09 3d e8 ed 8f 3b 1a b0 79 3d 79 07 bb bd
       0.03366461 0.0043923743 0.06095896 -0.09132285
000240 6a b4 7b bd b9 7c 38 bd 34 7e 11 bb ef c7 05 bc
       -0.061451353 -0.04504082 -0.0022200467 -0.008165344
000250 6d 8e f4 bc e2 0f 4e bd 8e 6f 88 bd 2c e5 65 3c
       -0.02985307 -0.050308116 -0.06661902 0.01403169
000260 8b a2 31 bd 48 9b b4 3c 9f 62 50 bd 9e 90 ad 3d
       -0.043367904 0.0220467 -0.050875302 0.08474849
000270 35 eb cb bc 23 18 a8 bd 22 3d b7 3c 08 18 0b bd
       -0.024892429 -0.08207729 0.022368018 -0.033958465
000280 4a e3 74 bd 44 e9 20 3c 2f 54 26 bd 3c 25 82 3d
       -0.059787072 0.00982124 -0.040607627 0.06354758
000290 eb 33 a8 bd 21 7a 88 bc 21 12 00 3e 8c ea 1a 3e
       -0.082130276 -0.016659798 0.12506916 0.15128535
0002a0 aa a5 c8 3c 9e 09 03 3d 63 93 d4 ba ee d3 fc 3c
       0.024493057 0.031991594 -0.0016218241 0.030862775
0002b0 64 69 c4 bd ad 9f b7 3c 28 36 bf 3d ef 72 b6 bd
       -0.09590414 0.022415007 0.09336501 -0.089086406
0002c0 eb e3 0c 3e 9f 65 83 bc 0d 7a 94 bd 8e eb 87 3c
       0.13758819 -0.016039668 -0.07249842 0.016591813
0002d0 b9 8d 92 3d 87 ec 66 bc f1 55 2c bd 10 f3 b5 bd
       0.07155938 -0.014094478 -0.042074148 -0.08884251
0002e0 00 a6 03 3b 11 39 1d bd 84 ac 6d bd e3 0e 68 3d
       0.0020087957 -0.0383845 -0.05802585 0.056654822
0002f0 a2 c8 4c 3e ca c0 97 bd 43 24 81 bd fe bf 63 3c
       0.1999841 -0.074098185 -0.063057445 0.013900755
000300 82 fa 21 bc 2d a8 21 3d 3a 1d 8e bc 0b a9 0c 3e
       -0.009886386 0.039467026 -0.01734792 0.1373636
000310 92 ca dd bc 85 01 b5 3c 32 be 18 3d 9c 1f c3 bd
       -0.027074132 0.022095451 0.03729076 -0.095275134
000320 aa dd 97 3d 1e 94 2b bd ca 8d 7a bd 10 d0 39 bd
       0.07415326 -0.041889302 -0.061170377 -0.04536444
000330 00 f0 fd b9 ce e7 29 bd 6d 3f 84 3c ac 58 a9 3c
       -0.00048434734 -0.04148083 0.016143525 0.020672165
000340 87 70 b7 3d f5 5e b4 3c e5 fb c1 3c f5 79 85 bd
       0.0895701 0.022017935 0.023679683 -0.06517402
000350 8c f4 c9 bd 5e fa 8f 3c 6e 3a fc 3c 3a 91 88 3d
       -0.09861097 0.017575439 0.03078958 0.06668325
000360 84 2b 7b 3d 37 4f b3 bd a7 47 2f 3d cd b4 78 3d
       0.061320797 -0.087553434 0.042792942 0.0607193
000370 f4 40 c8 bd fc f3 c3 bd d2 af 45 bd 66 46 90 bb
       -0.09778014 -0.09568021 -0.04826338 -0.0044029234
000380 9b b0 2c 3d 1b a7 2e 3d bd 90 d4 3c f3 9e 0c 3c
       0.04216061 0.042639833 0.025947923 0.008582818
000390 c7 34 1a bd 50 59 8f 3d 74 8f 07 3d 6a 6d 72 3d
       -0.03764799 0.06999457 0.033095792 0.059186377
0003a0 1c 9c 9e 3d 18 a3 98 3c 41 c1 c9 3d 70 ab 43 bd
       0.07744619 0.018632457 0.098513134 -0.047770917
0003b0 ea b5 71 3d d0 9f 46 3d 93 8c 71 3d 03 2c ca bc
       0.059011377 0.048492253 0.058971953 -0.02467919
0003c0 06 8c 44 bd 36 30 74 bd 67 cb 51 3d b0 6d 1f 3d
       -0.0479851 -0.05961629 0.05121937 0.038922966
0003d0 87 41 42 3d ec 16 aa 3d 1f 09 d6 bc c8 19 66 3d
       0.047425773 0.08305153 -0.026127396 0.05617693
0003e0 6c e0 89 bd 8a 5d 2f bd 98 4d a2 bd 47 8d a6 bc
       -0.06732258 -0.042813815 -0.07924956 -0.020331038
0003f0 ea 42 83 bd f8 02 cf 3c 85 91 d8 3c 87 82 c0 bd
       -0.06409247 0.02526997 0.026436577 -0.09399896

value_network.4.bias f4 [100]
000000 df 90 ba 3d 85 94 a8 bb b3 09 cc bd 56 11 2f 3d
       0.09109663 -0.005144658 -0.099627875 0.042741142
000010 19 6d 5d bd 4b 84 01 3d a4 0a 49 bc 6c d2 8a ba
       -0.05405912 0.031620305 -0.012270603 -0.0010591275
000020 b7 1e 8b bd d8 e3 a2 bd 64 45 80 3d 3e 91 a0 bd
       -0.06792968 -0.07953614 0.06263235 -0.07840203
000030 b6 f4 b7 3d 04 97 0f 3c 0b b5 2b bd 9a da d8 3d
       0.08982222 0.008764032 -0.041920703 0.1058857
000040 7a a8 74 3d cc a6 80 3d 78 50 cb 3d e2 67 4b 3d
       0.059730984 0.06281814 0.099274576 0.049659617
000050 36 97 42 3d f6 23 36 3e 2e 96 57 bd 43 1c 2e 3d
       0.047507487 0.17787156 -0.052633457 0.04250742
000060 5f 2c aa 3d 57 ef a9 3d 79 69 77 3c 2f 9d 81 3d
       0.08309244 0.082976036 0.01510083 0.063288085
000070 ad fb 52 3d 7e 43 33 3d da b2 a1 3d 86 d8 ae bc
       0.051509548 0.043765537 0.07895441 -0.02134348
000080 3c bf 0b 3b 7e 52 d7 bd d8 39 cf 3d 52 de e0 3a
       0.0021323701 -0.10513781 0.10118455 0.00171561
000090 7c 5d f0 3c 8d 02 f6 3d 36 a7 1e 3d c4 2f 12 3e
       0.029341452 0.12012205 0.038733684 0.14276034
0000a0 b7 f1 1e bd 90 f2 72 bc b1 cb 9b bd a0 3c 04 bd
       -0.038804736 -0.014828339 -0.076072104 -0.03228438
0000b0 6e 6b 3d 3d 4c 59 87 bd 66 de 42 3c 19 0b 1f 3e
       0.04624503 -0.06608829 0.011893844 0.15531577
0000c0 bb 5c 5c bd 68 c5 92 bd 10 4e af 3d b8 61 60 3d
       -0.053799372 -0.071665585 0.08559811 0.05478069
0000d0 34 8a eb bc dd fc d3 3d 40 9e ab bd 88 d6 ca bd
       -0.028752424 0.10350964 -0.08379793 -0.099042
0000e0 c2 6b 7d 3d 04 bd 45 3d cb c0 90 bd 0c 5f be 3d
       0.061870344 0.048275962 -0.07068022 0.092954725
0000f0 74 67 14 bd 45 5a d0 3d a1 0f aa bd 14 4d df bc
       -0.036231473 0.101734675 -0.08303762 -0.027258433
000100 e2 4e 57 3c 23 59 61 3d f8 13 2e bd 7a 58 3e 3d
       0.013141366 0.055016648 -0.042499512 0.046471097
000110 b7 09 ee 3d 22 44 64 3d 22 3d 18 3d 71 93 ab 3c
       0.11622947 0.05572904 0.037167676 0.020944329
000120 e9 aa 1c 3d 40 c5 c3 bd 97 35 55 bd d3 d6 84 bd
       0.03824893 -0.09559107 -0.05205306 -0.06486287
000130 67 78 df bc 09 3e 99 3d da 91 03 3e 72 58 03 3d
       -0.027279092 0.074825354 0.12848607 0.03206677
000140 45 0f 85 3c 58 58 82 bc 25 55 c8 3d 38 66 ad bd
       0.016242633 -0.015911266 0.09781865 -0.08466762
000150 f3 91 55 3d e2 b3 03 3d b4 d5 6f 3d 29 cf 47 3d
       0.05214114 0.03215397 0.058553413 0.048781548
000160 e3 4d 84 bd 39 38 08 3d 8c 5e e8 3c f1 81 8b 3d
       -0.06460168 0.033256743 0.028365396 0.06811894
000170 b8 8a 99 bc 1e 71 c9 bb 6a 99 ac bc 0c 44 14 3e
       -0.018742904 -0.006147518 -0.021069247 0.14479083
000180 96 3e 9e 3b 9c 9c 40 3c c9 7b e1 bc f1 f6 1b 3c
       0.004829238 0.011756089 -0.027524846 0.009519325

value_network.6.weight f4 [1, 100]
000000 1d 1e 90 bb 67 ff aa be 08 27 66 3c 57 6d 42 be
       -0.004398121 -0.33397982 0.014047392 -0.18987022
000010 49 88 83 3d 74 a7 51 be 18 08 49 3d e3 ff ca bd
       0.06422479 -0.20474035 0.049079984 -0.09912088
000020 74 5b af 3d cc fa 7f 3d 27 bd 76 be ae b9 ae bd
       0.08562365 0.062495038 -0.24095593 -0.08531509
000030 23 9f da 3d 63 74 85 bd 19 aa 15 be 62 10 9d 3e
       0.10674884 -0.0651634 -0.14615668 0.30676562
000040 a3 c6 48 3d 3e 7b df 3d fc 29 18 3e 70 26 b2 3d
       0.04901756 0.109121785 0.14859766 0.086987376
000050 af 96 83 3e 0b 7c b2 3e fa 49 a4 3d ef 31 a5 bd
       0.257009 0.34860262 0.080219224 -0.08066165
000060 52 51 3e be c8 fc de 3c b0 38 18 3a 0a 04 2b 3e
       -0.18585709 0.027220145 0.0005806787 0.1670076
000070 d0 5b 62 bd c3 55 5b 3d 06 74 c2 3d 8c c0 8f bd
       -0.05526334 0.053548586 0.09494786 -0.07019147
000080 58 ac 23 be b2 1d 2c be c9 76 0f be 3f b0 07 3e
       -0.15983713 -0.16808203 -0.14010157 0.13250826
000090 ec 2e fc 3c d5 0d b5 3e cb 31 89 3e ea ab 3b 3e
       0.030784093 0.35362116 0.26795802 0.18327299
0000a0 00 d2 50 bb f2 64 54 3d 7f d3 45 bd 4c e5 07 3d
       -0.003186345 0.05185408 -0.0482974 0.03317766
0000b0 0c fb 66 bd ff 51 ef bd a0 ed 8b bd 47 60 79 3e
       -0.05639176 -0.116855614 -0.06832433 0.24353133
0000c0 d3 23 13 be e5 6c ba bc 7f 37 34 3e 43 ff e7 bc
       -0.14369135 -0.022757003 0.17599295 -0.02831996
0000d0 22 fe c1 bd 94 94 35 3e c8 0a 97 be 60 f3 ec 3c
       -0.094723 0.1773246 -0.29500413 0.028924644
0000e0 db aa 27 3d d3 80 84 3d 2c c3 04 3d 2e b2 1e 3d
       0.040934425 0.06469884 0.032412693 0.038744144
0000f0 4e 52 98 3d 25 61 58 3e 51 7e 5e bd 58 9d 89 be
       0.074375734 0.21130808 -0.054319683 -0.26877856
000100 e6 42 fe bc 22 cd 12 3e 2a 96 a9 3d f2 ca a8 bb
       -0.031037759 0.14336064 0.08280595 -0.005151146
000110 de 49 85 3e 9e 53 50 3e ee 28 6d be f9 33 c6 3d
       0.2603292 0.20344397 -0.23160145 0.09677882
000120 fa 0c 81 3c 63 5e 09 3d ce fe a4 bd 5a 47 72 bc
       0.015753258 0.03353728 -0.08056413 -0.014787519
000130 fe 7b 88 be 5e c7 d9 3d 88 48 4e 3e 39 ab 13 bd
       -0.266571 0.106337294 0.20144856 -0.036051963
000140 7c 14 c4 bd 72 65 02 3e 59 02 62 3e c7 a3 1d 3d
       -0.095742196 0.12734011 0.22071208 0.03848627
000150 34 e4 5a 3a 29 5e 81 3d 92 e0 52 bd 0a bf 9e 3e
       0.0008350045 0.06316788 -0.0514837 0.31005126
000160 96 8f 44 bd 78 b3 ad 3d e1 d6 36 bc b2 aa 08 3e
       -0.047988497 0.084814966 -0.01115963 0.13346365
000170 fb 5a 95 3d 5a 8e bb 3d 16 86 02 3e 91 4b 99 3e
       0.07292744 0.09158011 0.12746462 0.29940465
000180 b3 4a d5 3d 58 72 b8 bb e4 1b d8 bc 12 db 8d 3d
       0.10414638 -0.005628865 -0.026380487 0.0692655
