arena_navigation/arena_local_planner/model_based/crowdnav_ros/scripts/crowd_nav/data/output/rl_model_lstm.pth (torch, 191251 bytes, 11 tensors)

mlp.0.weight f4 [150, 56]
00000000: 64ed 2b3a a52e 713c 7ea4 023e bf4a 973d
00000010: 8f32 ecbd 1d82 353e b5c5 2f3d ab1e 90bd
00000020: 00a3 98bd c211 a4bd b558 92bd b6c7 ea3d
00000030: 455f 22bb f8e5 a2bd 182d 8c3c e471 dcbd
00000040: 2aa5 14be a6b0 96bd a7d1 fb3d a110 223d
00000050: 6cad 2cbd edf5 44bd b5c4 053e 63ef 5e3d
00000060: 1ff6 f53c 0bbc cfbc f6fa 8a3d 84ee 0d3e
00000070: 2632 fabd cd84 1c3e 402a 63bd d22e 06be
00000080: 4d21 a7bd 1591 0ebe 7557 00be 55d3 99bd
00000090: 9763 45bd c7bc e23d ee58 ae3c 5a0e 8c3d
000000a0: 8ac1 283c 6a84 903d 3672 b4bc 67f7 1a3d
000000b0: 9c23 ffbd ab83 b33d 6c1a a93d 0c87 b8bd
000000c0: 17b4 993d 93cb c83d 78fe 98bd f7d7 f9bd
000000d0: 871c 013d 7f7b 013e 4915 d8bd ccb7 11bd
000000e0: eaa9 9c3d 0124 30bd aade 4e3d 6b1c 8ebd
000000f0: 0796 9fbc 1197 ccbd ea29 413d 8855 53be
00000100: ba08 e1bd fa06 8b3d dc14 fd3c b7ba 2f3c
00000110: 334a 9c3d 0226 7a3d e317 8a3d bbec 433d
00000120: 447a a63d 4100 62bd 4a4a 5bbd 7512 083e
00000130: d58d 973d cdbb 20bd 1119 ae3d efa8 e6bc
00000140: f782 74bd 3eb5 ccbd 754a aebd ac10 b63c
00000150: 9ebc 29bc ef24 ebbd b14f 5fbd d8c9 913d
00000160: c815 c53d efd7 01be 7152 9fbd 301c 813d
00000170: ac89 94bd 70d9 fbbd e4b3 f23d c30d f9bb
00000180: 5115 943d 7585 cdbc ad16 15bd 7a09 5b3d
00000190: b511 c8bd f09b 853b 7edc f83d 65f9 d3bd
000001a0: 330a b4bd 0d73 073e db47 5cbd e2a5 55bc
000001b0: 0bc9 a8bd adad 03bc 07bf 82bd 0f38 04be
000001c0: 7028 febd fa12 eebd 73e0 123d 6841 bebd
000001d0: aeb5 053e b5a2 cfbc e725 053d 7f27 40bd
000001e0: c850 193d 08a4 903b ee95 a8bd 9014 a93d
000001f0: 992f 833d 8d88 a63d 3308 d03d ec7e c83a
00000200: a344 16bd d308 ed3c 1508 1b3d 8a4f 3bbd
00000210: 8218 063e e145 0b3d 0fc1 5a3c 6da8 b63b
00000220: 8840 ce3d cbc9 8e3d 797d bebd 9db6 2c3c
00000230: 7a18 5bbd 46fc 3cbd 1573 33bd 4163 d0bd
00000240: 89bc 1cbd 6121 bbbd edb7 3e3c b1e6 bbbd
00000250: ae62 5b3d b697 3ebc a845 00be cec0 72bd
00000260: dbfc 07be 0cad 1e3b 56e0 7dbc 59b3 51bd
00000270: bc2d 61bd acdc 8abc 9d33 03bd f71b fd3d
00000280: 7fa0 57bd 585c 43bd 802b efbd 3125 103d
00000290: f6f4 f6bd b009 8f3d 3566 acbd 5e97 7bbd
000002a0: 6d36 723c fd63 4fbd a40b 17bd a199 b13d
000002b0: 95df 183e 16cc 5d3d ea8c 0e3e 0046 9abd
000002c0: 2444 48bd 1512 80bd 6a2f fcbd 2d6b 003e
000002d0: 71a8 d23c fcd0 f53d 6b08 6e3d 23e5 fcbc
000002e0: ebb0 9e3d 4cfe c83d 6f9c 2cbc 1238 903a
000002f0: 28c0 353d 3036 0dbe 7335 bfbc d2e4 4bbd
00000300: aaea d5bd 1383 f93d 68f2 09be d4b2 93bd
00000310: 96ff 89bc eadc a33c d56e de3d c308 933c
00000320: 1e63 d7bd 0f3f a63d 7fc1 7e3d ea15 9e3c
00000330: b452 f23d d707 6fbd 57d0 0dbe df75 bbbd
00000340: 95c2 38bc 4f0a 5cbd 08d4 9abd 1006 4f3c
00000350: 7fbc df3d 6d60 5a3c f7c6 b7bd 5b68 d33d
00000360: c4e3 a43d 1cbc d4bc 65d1 003d 9179 203d
00000370: cf6e 4fbd b178 1dbd 5612 643d e29d 00bc
00000380: 715a 1a3b 2578 3d3d c070 23bd 5ff2 0a3d
00000390: 5024 2f3d 7512 453e 195c c1bb 5007 823c
000003a0: 6f48 d33d e233 333c d7d2 e63d 30e7 393d
000003b0: 040d fb3d 693c 023e 2725 d2bd 245e f7bd
000003c0: daef d1bd 3c14 0c3d 3e13 00be eea3 fbbd
000003d0: c27d ecbd 522d bcbd b3e8 0fbe bc0f 07be
000003e0: 0545 b8bd f6b9 26bd c565 053e 8fcb 6abc
000003f0: d008 2ebd 401a d7bd 49a1 0d3a f256 00be
0.0006558506 0.014720594 0.12758061 0.073873036 -0.11533081 0.17725416 0.042913157 -0.070370995
-0.07452965 -0.080111995 -0.07145826 0.11463873 -0.0024776023 -0.07954019 0.017111346 -0.107639104
-0.1451613 -0.07357912 0.122958474 0.03956664 -0.042157575 -0.048086096 0.13063319 0.054427516
0.030024586 -0.02535822 0.06786148 0.13860518 -0.12216596 0.15285034 -0.055460215 -0.13103798
-0.081606485 -0.13922532 -0.12533362 -0.075110115 -0.04819068 0.11071163 0.02128264 0.06838675
0.01030005 0.07056506 -0.022027116 0.037833598 -0.12457964 0.08765348 0.08256993 -0.09010133
0.075050525 0.09804454 -0.07470411 -0.12199395 0.031521346 0.12644766 -0.10550935 -0.035575673
0.07649596 -0.043003086 0.050505318 -0.06939014 -0.019480718 -0.09989751 0.047159113 -0.20638096
-0.109879926 0.0678844 0.030893736 0.010725669 0.0763134 0.061071403 0.06742837 0.047833186
0.08128789 -0.055176023 -0.053537644 0.13288291 0.07400099 -0.0392416 0.08500875 -0.028156726
-0.05969521 -0.09995507 -0.08510295 0.022224747 -0.010359911 -0.11481654 -0.05451936 0.07118577
0.09623295 -0.12680028 -0.07779396 0.063042045 -0.07252821 -0.12297332 0.11850718 -0.0076005175
0.07230628 -0.025088051 -0.03639858 0.053475834 -0.09769002 0.004077427 0.121514305 -0.103503026
-0.08791008 0.13227482 -0.053779464 -0.013040038 -0.08241471 -0.008037013 -0.06384092 -0.1291201
-0.124100566 -0.11624713 0.035858583 -0.09289819 0.13057587 -0.02534614 0.03250685 -0.046912666
0.037430555 0.0044140853 -0.08231722 0.08255875 0.06405563 0.08131514 0.10157814 0.0015296615
-0.03668655 0.028934872 0.037849505 -0.04573015 0.13095286 0.03400219 0.013351693 0.005574277
0.10070902 0.06972083 -0.09301276 0.010541585 -0.05349014 -0.046139024 -0.043810923 -0.10175181
-0.03826574 -0.09137226 0.011640531 -0.0917486 0.053560905 -0.01163285 -0.12526572 -0.059265904
-0.1328005 0.002421203 -0.01549538 -0.05119643 -0.054975256 -0.016950928 -0.032031644 0.123588495
-0.052643295 -0.047695488 -0.11678219 0.03519172 -0.12058441 0.069842696 -0.08417932 -0.061423652
0.014783484 -0.050632466 -0.036876336 0.086718805 0.1492904 0.05414971 0.13920942 -0.07532883
-0.04889311 -0.06253449 -0.12313731 0.12540884 0.025715085 0.12002751 0.058113497 -0.03087098
0.07748588 0.09814128 -0.010535344 0.0011003038 0.044372708 -0.13790202 -0.023340916 -0.049778767
-0.10445149 0.121832035 -0.13471377 -0.07211843 -0.016845506 0.020002801 0.10860983 0.017948514
-0.10516952 0.08117496 0.06219625 0.019297559 0.118321806 -0.058357086 -0.13849007 -0.091533415
-0.011276861 -0.05372077 -0.07559973 0.012635723 0.10924625 0.013328654 -0.089734964 0.103226386
0.08051255 -0.025968604 0.031449694 0.039178435 -0.050642785 -0.03844518 0.05568155 -0.007850142
0.0023552442 0.046257157 -0.03990245 0.03392255 0.04275924 0.19245322 -0.0059008715 0.015872627
0.1031655 0.010937663 0.11270683 0.045386493 0.12258342 0.12718357 -0.102609925 -0.12078503
-0.10250826 0.034198985 -0.1250734 -0.122871265 -0.11547424 -0.09188332 -0.14053611 -0.13189596
-0.089975394 -0.04070469 0.13027103 -0.014330759 -0.042488873 -0.10503054 0.00054027565 -0.12533167

mlp.0.bias f4 [150]
00000000: 5253 0abe 50a5 f3bb 51f7 d13c 24cc 1dbc
00000010: 8ebc 11be 5037 15bc f235 04bb 58c2 dfbd
00000020: 213f 6d3e 709f 02be e903 213e f1fa 59bc
00000030: 3306 7a3d 1e27 b5bc 1ca4 d5bd 16ef 0fbe
00000040: 315c 913d 648d fb3d 6ee9 0ebc 2af1 f83d
00000050: 1a6a f5bd 1b54 a63c aa46 d6bc 9e6b c6bd
00000060: 61b4 18bc f3a2 4b3d ea39 dabd 9883 273e
00000070: c8e2 84bd c14a 033d 4a32 c2bd a1e8 20bd
00000080: 9b39 773d a711 b93d f113 f8bd ee01 563c
00000090: c2eb b3bd 2067 8e3d 1d1d debd 02f6 cdbd
000000a0: f197 d83d e2b9 093e fa75 3abd ca68 a6bd
000000b0: 09bb df3c 61b6 c93d 80aa c23c 7645 cfbd
000000c0: f152 b23d 0192 a1bd e4b6 523d 348f e93d
000000d0: b1c1 7b3d a9e6 3bbd 6f44 d2bc 2b13 05be
000000e0: b8b4 9bbb 7145 ab3d 46ba eabd e704 39bd
000000f0: 8de1 2c39 4083 27bd 2726 df3d 710d c9bc
00000100: 1c69 c43d ed8b cdbc ac26 0dbe c6c0 b1bd
00000110: 807e 403d f7b3 893d 491c 9a3d ac02 173c
00000120: 0a6c d8bd 4273 133d 535c a4bd 49e1 73bd
00000130: 4640 d0bd cbad d63d c89a a53d 33b4 8c3c
00000140: 6d23 f7bd 3a5b f73c 138a f1bb 9283 b03c
00000150: 8536 093e 055a cebd 46bd b6bd 75a9 8e3d
00000160: 8759 4f3d 8c80 073d 3e17 3dbd eca7 e3bc
00000170: 19f1 35be d5cf 9ebd 5de4 61bd 2c2d e93d
00000180: 854a d43d 2660 413d 333f 833d 57d0 ca3d
00000190: 5192 453d f437 58bd 60c4 2d3e 8cc8 e53d
000001a0: f51b 1a3d 2805 4f3d c478 82bd eb9f 633d
000001b0: 7704 27bd 68e1 593d f6b2 5f3d 0d57 02be
000001c0: 35d8 ccbd 15c8 2dbc 5428 ccba 21cf 64bd
000001d0: 2482 90bd bca2 683d 53d7 dabb 0477 04be
000001e0: 63b9 553d beb2 fb3c 326a 87bd 6d45 123e
000001f0: 8004 67bd fc86 8b3d 044a 8a3d c7a8 a63c
00000200: 72e3 89bd e776 c1bc 760f dcbd 93c9 043d
00000210: 0298 993d 5533 0abb 9a44 053e dc8d 50bd
00000220: b739 983c 5a09 8fbd d241 66bd 6fed 16bd
00000230: 95c2 5d3d 6b7c cebd ee49 b7bd 0a91 763d
00000240: f9f7 133d 427b f6bd 005c 01bd 1232 d83d
00000250: abf1 a53c a790 b0bd
-0.13508347 -0.0074354783 0.025630625 -0.00963119 -0.14232084 -0.009107426 -0.0020173755 -0.1092574
0.23168613 -0.12756133 0.15724148 -0.013304458 0.06104107 -0.02211338 -0.10431692 -0.14056048
0.07097662 0.122828275 -0.008722646 0.121553734 -0.11983128 0.020303776 -0.026156742 -0.09688495
-0.009320349 0.049715947 -0.106555775 0.16358793 -0.064885676 0.032053713 -0.09482248 -0.039284352
0.06035767 0.0903657 -0.121131785 0.0130619835 -0.087852016 0.06953263 -0.10845397 -0.10056688
0.105758555 0.13449815 -0.045522667 -0.08125456 0.027310865 0.09849239 0.023762941 -0.101206705
0.08707226 -0.07889176 0.05144395 0.11404267 0.061464015 -0.04587427 -0.025667397 -0.12995593
-0.004751768 0.08362854 -0.1146131 -0.04517069 0.00016487222 -0.040896654 0.10895949 -0.024542542
0.095903605 -0.025091136 -0.13784283 -0.08679347 0.04699564 0.06723779 0.07524926 0.009216946
-0.10567482 0.03599859 -0.08025422 -0.05954102 -0.10168509 0.10482367 0.08086163 0.01717577
-0.12067304 0.030194867 -0.007371196 0.021547113 0.13399704 -0.100757636 -0.0892282 0.06965915
0.05062249 0.033081576 -0.046164744 -0.027790032 -0.17767753 -0.077544846 -0.055149425 0.11385569
0.10365776 0.047210835 0.06408539 0.09903019 0.04823524 -0.052787736 0.16969442 0.11219892
0.03762432 0.050542027 -0.063706905 0.05557243 -0.040775742 0.05319348 0.05461403 -0.1272852
-0.10002176 -0.010606785 -0.0015575984 -0.055861596 -0.07056072 0.05679582 -0.0066785007 -0.12936026
0.05217875 0.03072488 -0.06612052 0.14284296 -0.056400776 0.068128556 0.067523986 0.020344151
-0.06732835 -0.023616267 -0.107451364 0.0324188 0.07499696 -0.0021087725 0.1301445 -0.050916538
0.018582208 -0.069842055 -0.056215115 -0.036847528 0.054140646 -0.100823246 -0.08949648 0.060196914
0.036125157 -0.12035228 -0.03158188 0.10556425 0.020256838 -0.0862134

mlp.2.weight f4 [100, 150]
00000000: 5eea eb3c a757 3b3c ea14 7dbd 91ec 973d
00000010: 1660 c9bd 5b25 42bd 64ca 813d 4573 1bbd
00000020: c85e 8cbb 8d7d 7e3d 5d80 3d3d 64b1 3abc
00000030: fb8b 293d 30ed 223d b810 443c 110b 0a3e
00000040: 442d 9fbd 38cd bebd 2a04 72bd ef73 83bd
00000050: f3f0 a5bd ad8f d23c ba1a c03b 2a82 593c
00000060: faca 853d dc9d 67bd e954 06bd 8886 ee3c
00000070: 9d29 c23c dd7a 5b3d 094a 46bd 5ba2 51bd
00000080: cdab b5bd d7f7 803d 0c15 e9bc c194 7e3d
00000090: 126d dd3c 0a3f 073d 895f 1dbd cb07 7abd
000000a0: a41d 893d 03be 96bd 3673 72bc 6ede b3bb
000000b0: 2fb0 84bd 0b16 13bb a9f7 b9bc b2d7 993c
000000c0: 44ae c13c 83b6 48bd 2ec8 eb3c bd71 963d
000000d0: 821d d33d 3470 033d bc81 663d 8575 e5bd
000000e0: 1a4e c73d 70a5 f9bb cf67 84bd 6837 2bbd
000000f0: 44e8 8dbd 6393 27bd 4f0b 05bd 02f6 8c3b
00000100: 4c42 90bc 2db0 47bd ee8d c8bd 8049 93bc
00000110: 0aa0 4d3d 96b3 523c 81f6 403d a97b 2abc
00000120: 9c11 6e3d 508e 863c 7beb a43c bd81 97bd
00000130: caab 723d 49ac 1e3c 7fe1 8d3d 4c2c 2e3d
00000140: 0800 a93d cda2 5e3d 5fe8 febd b2ff f33c
00000150: 8e4e 493d 23e3 343d 7d4f eebd e1b9 9c3d
00000160: b96c 9abd b32e 5a3d cd7e 193d 67cd adbd
00000170: ded6 083d 767f aa3d 4fd2 823c 5397 b7bc
00000180: d23d 96bd 12a7 7bbc 444a 6ebc c629 dfbd
00000190: 3aee 883d 3e14 903d 32c2 8fbc f6bf 2dbd
000001a0: 8043 debc 2e0e 06be 2e28 b63d bbc4 37bb
000001b0: 0a4d c8bc 8cf0 4dbd d15e 13bd 37ac 303d
000001c0: 70a2 a6bd 1af9 533c 3db0 503d 95e1 a1bc
000001d0: e2fe 03bd 617a 2bbd a112 123d 1ef8 32bc
000001e0: f19f 8cbb ef0d 393d 760c 90bd 304c c5bc
000001f0: 5ada f53b ab62 33bd ceea 4fbd e8da 0fbd
00000200: 28cc 2d3d 6a9e 9cbc e052 8a3d c472 f6bc
00000210: 8257 2abd c692 18bd 40d6 923d b9d1 18bb
00000220: ffe2 3dbd ddba 13bd 736b 583d c12d 0cbd
00000230: a5c8 a03d 7b10 0bbd 31f8 73bd 9893 57bc
00000240: a237 54bd 26d8 fabc af2d 913d d108 24ba
00000250: 334d 033d 34b1 6f3d 224a 753d 7d98 793d
00000260: 55e8 8d3d 4cdf af3c 4665 92bd bd29 163d
00000270: 27d5 a1bd 5e93 233d 58d2 323d e5c1 8a3d
00000280: c7fc 7fbc a9c9 45bd da61 57bd 0c71 9abd
00000290: e09c 453a e858 6ebd 036d 4c3c 8f1d 72bd
000002a0: 286e 0dbd 3393 533c d3f4 b7bb 5638 7d3d
000002b0: 1870 8a3d b8fe d1bc 8d4f 3c3d 0a0f 06bd
000002c0: c1a4 1e3d c288 99bd 7bb3 323d 7181 05bc
000002d0: 83e7 95bc 1b18 a53d 7b65 953d a5d0 dbbc
000002e0: 8a4f 66bd 29d9 e43c 2a85 e2bb 8416 033b
000002f0: eaeb 9a3d c453 bb3c 4fdc 4dbd e335 8f3d
00000300: f52d e23c 6104 88bc 8e40 a43d 87b3 843d
00000310: 016d 993d ddfd a1bb f7bb a23c 6927 5bbd
00000320: 167e 1cbd 52bd 4f3c 3ad2 b33c 2545 0d3d
00000330: 2b41 f6bc 876c 8abd 63da aabd 4b7c 86bc
00000340: b4a7 7e3d 851a 98bd e1e8 073d a5be 2b3d
00000350: f4d3 723d d4aa 90bd 75c5 0bbc 96e4 883c
00000360: 8348 c03d c84c 14bd af94 013d 7dc2 46bd
00000370: fa8d 9fbd 3e7e 1e3c c1c9 6fbd e4a3 24bd
00000380: 2f97 14bd 5e64 80bc a39d 98bd 7c56 953d
00000390: d337 07bd 851b 95bd f50d 373d 0b63 a33c
000003a0: 3d90 9dbd 268b ce3c 3b76 a03c 73bd af3c
000003b0: 89f3 493d b442 27bd 9114 4cbd 1e29 86bd
000003c0: 0ffd 503d 66bd 103d 2d8e 283d 97a7 d6bc
000003d0: f8b3 063c 6959 653c 0f0a 9c3d f3be 173d
000003e0: 3f39 33bd 783e 843d 5302 81bd 7368 4fbd
000003f0: b398 763c 4142 063d 22d6 0b3d fa4a 5b3d
0.028798278 0.011434472 -0.061787523 0.07418168 -0.0983278 -0.047398906 0.06337431 -0.037951726
-0.0042837597 0.062131453 0.046264995 -0.011394832 0.04139326 0.03977698 0.011966877 0.13480784
-0.077723056 -0.09316486 -0.059086002 -0.06418597 -0.08102598 0.025703276 0.005862561 0.013275662
0.06532855 -0.05654703 -0.03279582 0.029116884 0.023701483 0.05358397 -0.04841045 -0.051180225
-0.08870659 0.06297272 -0.028452419 0.06215358 0.027029548 0.033019103 -0.038421188 -0.06104259
0.066951066 -0.073604606 -0.014797976 -0.005489162 -0.06478917 -0.0022443559 -0.022701101 0.01877961
0.023642667 -0.04900218 0.028781977 0.073459126 0.103083625 0.032089427 0.056276068 -0.11204056
0.097316936 -0.0076185986 -0.064651124 -0.041800886 -0.06929067 -0.040912043 -0.032481488 0.0043017874
-0.017609738 -0.048752 -0.09792696 -0.017979383 0.050201453 0.012860199 0.047110084 -0.010405459
0.058122262 0.016425282 0.020131817 -0.073977925 0.059245862 0.009684631 0.069277756 0.042522714
0.08251959 0.054354478 -0.12446665 0.029785011 0.04914718 0.044161927 -0.11636255 0.07652641
-0.075402685 0.053267192 0.037474442 -0.08486443 0.03340804 0.083250925 0.015969424 -0.022411024
-0.0733601 -0.015359657 -0.0145440735 -0.108966395 0.06686063 0.07035111 -0.017548654 -0.042419396
-0.027131796 -0.13091347 0.088943824 -0.0028040844 -0.024450798 -0.05027823 -0.035979096 0.043132987
-0.08136451 0.012937808 0.050949324 -0.019760886 -0.032225497 -0.041864756 0.035662297 -0.010923414
-0.0042915274 0.045179304 -0.07033627 -0.02408418 0.007502836 -0.04379527 -0.050761037 -0.035120875
0.042431027 -0.019118506 0.067540884 -0.030084021 -0.04158736 -0.03724935 0.07169771 -0.0023318364
-0.04635906 -0.03606688 0.052836847 -0.03422332 0.0785077 -0.033951264 -0.059562866 -0.013157748
-0.051810868 -0.030620646 0.070887916 -0.0006257417 0.032056045 0.058518603 0.05988515 0.06093644
0.069290794 0.021468781 -0.071482226 0.0366609 -0.07901984 0.039935462 0.04365763 0.06775264
-0.015624232 -0.04828802 -0.052583553 -0.07541093 0.000753833 -0.058190256 0.012477162 -0.05911022
-0.03452888 0.012913513 -0.005613902 0.061821304 0.067596614 -0.025634155 0.045974303 -0.032729186
0.03873134 -0.074967876 0.043628197 -0.008148537 -0.01829887 0.080612384 0.072947465 -0.026832888
-0.056228198 0.027935581 -0.006912847 0.0020002434 0.07564528 0.022867091 -0.05025893 0.069927
0.027609805 -0.01660365 0.08020125 0.064795546 0.07491494 -0.004943593 0.01986502 -0.05350438
-0.038206182 0.012679415 0.02195083 0.03448977 -0.030060371 -0.06758981 -0.08342435 -0.01641669
0.062171653 -0.07426933 0.033181075 0.04192986 0.059284166 -0.07063833 -0.008530964 0.01671056
0.093888305 -0.036206037 0.031635936 -0.048525322 -0.07790752 0.009673653 -0.058542017 -0.04019536
-0.036276992 -0.015672859 -0.07451942 0.07291886 -0.033012222 -0.072806396 0.044691045 0.019944688
-0.07693527 0.025212836 0.019587627 0.021452641 0.04930452 -0.040835097 -0.0498243 -0.06550811
0.051022585 0.035336874 0.041151214 -0.02620296 0.008221619 0.013998368 0.07619106 0.037047338
-0.043755766 0.064572275 -0.062992714 -0.05063672 0.015051055 0.03277803 0.03413976 0.0535383

mlp.2.bias f4 [100]
00000000: 2d54 0cbc d1d6 e1bd 208d 9bbd 24bf 0c3e
00000010: e879 afbd ab60 a6bb 5e10 a33d e92f 7f3d
00000020: ebb4 9f3b 3d99 9c3d 1e89 f0bc ea30 093d
00000030: 066d 93bd 4859 093d bdd3 30bd c29e 30bd
00000040: 1f5c 0c3d f9ae 7cbd 6b82 dc3b 31b0 5ebc
00000050: 2b82 34bc 94ee 8bbc f56d a6bc 0f45 343a
00000060: b855 413d 5fbf 88bd 3764 bbbd 7a67 313c
00000070: 723c 853c a923 c83d 3b95 bebd 514e e33d
00000080: 36e4 0fbd d2fd 41bd f6c7 b8bc 98ae 42bd
00000090: 9fa0 8b3d aa90 01bd c7db 43bd bde1 19bd
000000a0: f61e c13c a703 043d 38ed 53bd f808 bfbd
000000b0: a316 e63c fd5d e8bd 1f93 48bc b425 e63c
000000c0: ddf0 68bd ad1d c93d 9e9e 6cbc 26d3 8abd
000000d0: 185a 08be 929a 06bd 6a67 f03d 5904 82bd
000000e0: 5bb9 b53c d29b 173d e943 033e 0bfa a63d
000000f0: 6cb6 3dbd fa30 9c3d d653 14bd ed80 783d
00000100: 5001 f2bd 54d3 dbbb 7d92 bbb9 828f 763c
00000110: ed95 843d c6a7 a0bb c8cf 3bbd c297 893d
00000120: 92a4 eebc fa77 3bbd 592f 8abd 8a5f d13c
00000130: dc4e 9f3c 3675 14bd 7427 f3bb 8d02 19bd
00000140: d6c1 9cbc d3f1 a83d 5c1e 57bd 713a 30bd
00000150: 2547 a7bd c096 d13c 8045 26bd 6822 94bd
00000160: 1da1 0c3d f1d7 233d 5492 453c e7da 6bbd
00000170: 62a3 5abc 7362 59bd ee2e 413d ec40 453d
00000180: 0aa4 d43d 87df 69bd dae3 b43c ce16 643d
-0.008564991 -0.11027301 -0.07595277 0.1374479 -0.08568174 -0.0050774417 0.07962106 0.06230155
0.004873862 0.076464154 -0.029362258 0.033493914 -0.07198529 0.03353241 -0.04317068 -0.043120153
0.03426754 -0.061690304 0.006729414 -0.013591812 -0.011017363 -0.017081536 -0.020316103 0.00068767456
0.04720089 -0.06677126 -0.09149974 0.010827893 0.016264174 0.09772427 -0.09305807 0.11098922
-0.03512975 -0.047361203 -0.022556286 -0.047529787 0.068177454 -0.031632103 -0.047817018 -0.037568796
0.023574334 0.032230046 -0.0517399 -0.093278825 0.028086966 -0.11346052 -0.012242108 0.02809415
-0.05687033 0.09820113 -0.014442114 -0.067785546 -0.13315618 -0.032862253 0.11738475 -0.063484855
0.022183111 0.037013836 0.12818874 0.08153161 -0.04631655 0.07626529 -0.036212765 0.06066983
-0.118166566 -0.006708542 -0.00035776562 0.015048863 0.064739086 -0.0049028127 -0.045852453 0.06718399
-0.029131208 -0.045768715 -0.06747312 0.025558252 0.019446783 -0.036244594 -0.0074204747 -0.03735595
-0.019135397 0.08249249 -0.052519187 -0.043024484 -0.081678666 0.025584579 -0.040593624 -0.07233125
0.034333337 0.04000086 0.012058813 -0.05758181 -0.013344618 -0.053072404 0.047163896 0.048157617
0.103828505 -0.057097938 0.022081304 0.05568581

mlp.4.weight f4 [100, 100]
00000000: ee57 b8bd 7407 debd 17ff 393d 32a9 e9bd
00000010: 6e9c 033c a4c7 0cbe cce4 a4bd 55b1 4d3d
00000020: d417 c43d 6c0a d9bb da9d b7bd 01ad 6abd
00000030: 1373 463d 0f07 d03d 413e 3b3d 2ab3 93bb
00000040: caca 543d 8edd 99bd 4497 34bd 9f5e 2ebe
00000050: e287 bdbc a1cb 9dbd 55c2 68bd 24cc 893d
00000060: 3c11 71bd 59d2 2d3d 2607 fd3d 555c 65ba
00000070: 7c46 2c3d 7c73 ccbb aea8 2cbc 12ff c73d
00000080: 5f4d 903d 29f3 aebd 319f 9c3c 3081 793d
00000090: ad02 f93d 3a51 823c 565f 04be 39ce dbbd
000000a0: 4f42 fe3c 9b0b 04be c0e9 103d d271 be3c
000000b0: 90b1 9bbd 1bb4 b7bd 332a aabd 2bde 53bd
000000c0: 9d59 2a3d d4dd 483e e542 97bd f4b1 90bd
000000d0: c566 80bd 93a8 313d d579 323c b4fd 5d3d
000000e0: 3331 9f3a 4d31 bb3d 1b07 913d 86c6 023d
000000f0: 6dfc bbbb eb4e aa3d 0039 183d 241e 253c
00000100: 4d62 4bb9 4011 c63d af06 203d 363c e23d
00000110: 1ead 983a 8e4a 7b3d 30af 0d3d 29bf 013d
00000120: 6fde cd3d 7b79 e2bb f440 25bd ba09 b4bd
00000130: d4a9 97bd 99d5 d23c b4b8 85bb 36ab a93d
00000140: 95f8 42bd ab28 803d 8e8c c03d 11a4 b5bd
00000150: a229 973d d533 dcbd 95f0 4a3d 68f0 c6bd
00000160: 9949 d3bd 732a b3ba 84a3 35bc ad23 b2bd
00000170: b325 ad3d a92e 773d 33f3 a4bd 7146 96bd
00000180: 13d2 a73d 9861 80bd 99f5 87be 66d2 c1bd
00000190: 5f39 613d 05e0 4fbd a42b a23d 918f 873d
000001a0: b0b9 8b3d 1e03 63bd f37f 563d bf96 b2bd
000001b0: bc39 cc3c c86e 30bd 536f bebd 9f33 0f3d
000001c0: 6d35 0a3d 3713 793d c050 b93d 2a70 b63d
000001d0: 36ec 3ebd f51d 5b3d 07d6 e2bc 8af4 83bd
000001e0: fd74 793d 3a55 d1bb b712 813d 9eb7 56bd
000001f0: 21d4 c1bc 7a51 bcbd 9e67 a3ba 7973 97bc
00000200: 4ce9 25bb 09ca 893d 43db 5abd 1481 95bc
00000210: 2ad4 0fbd de72 533d e1f5 a5bd a4f7 d63d
00000220: 0db2 693d 273b 6d3d f0a9 8f3d d63f a73c
00000230: c3fa b73d eaf7 c1bd a657 d6bd e267 cbbd
00000240: 1c43 34bc 0fb3 313d 17fb d3bd 950f b2bd
00000250: 7893 053c 1323 f7bd 561e 43bd e05c 50bd
00000260: 30ec 37bc 106b 1d3d 54ad 683d c932 5b3d
00000270: 9320 e3bc e3e2 50bd 5afc 14bd 8376 74bd
00000280: 113f 95bd 53b2 03bd fb39 a83d 0190 88bd
00000290: 2cca 75bc 4946 ebbc cf0a 9cbd 63c5 09bd
000002a0: 979b 40bd e2f0 a43d 441c 933d 7527 b7bc
000002b0: 0fec adbd 5c9e bebd 5b31 e93c 85ae c63d
000002c0: 1a60 89bd a8bd f23b 4d55 1a3d f6ff 0e3c
000002d0: 5b66 893b fb3c 893d 2448 b13d 8953 963d
000002e0: 1014 623d 88d0 3d3d 83b8 b33d f5e7 b23c
000002f0: fbfb e7bc c583 4d3d bd3b ae3d 7a3e c5bd
00000300: b368 4bbd c046 a1bc 21a1 cb3d 5894 793d
00000310: 690b 6dbd 0f99 2abb 45c9 7cbd e719 42bd
00000320: 162e bfbd c96b 643d eea1 6dbd 8646 673b
00000330: 5511 1dbd 20b1 fd3c 145c 89bb a280 c8bb
00000340: c7d8 5ebd 1018 933b 315d adbd a1f6 913d
00000350: 862b 4cbd 4a54 35bd d3d3 9ebd fe4c 0d3d
00000360: b04d 123d 4a66 c13d c774 85bd c46f cfbc
00000370: c82a 063d e35d 893d 7c93 f63d 3821 8cbb
00000380: 690f dcbc 68b4 c2bd 22b9 87bd ce08 4a3d
00000390: 1daf 983d 031f 9f3d f98d 3b3d b42f 953d
000003a0: d0ce 683d 01a4 2cb9 9dc5 493c 66b6 eb3c
000003b0: fbd7 1a3d b856 a53d 3f7a 803d 23fc 21bd
000003c0: 1cdb 8f3d 3556 fabc 9f01 57bd 21dd 10bd
000003d0: e4e2 31bd 6132 5bbd e98a f1bc ba83 793c
000003e0: 7c65 9fbd 57d4 f8bd 5c85 3ebc 06aa 46bd
000003f0: 4716 4d3d 04a3 5a3d da5d 0d3b df02 84bd
-0.09001146 -0.10841265 0.04540929 -0.114092246 0.008032901 -0.13748032 -0.08051452 0.050217945
0.09574857 -0.006623557 -0.08965655 -0.057293896 0.048449587 0.10157596 0.045713667 -0.004507442
0.051951207 -0.07512961 -0.04408957 -0.17028283 -0.023136083 -0.07704855 -0.056825954 0.0672839
-0.058854327 0.04243693 0.12354879 -0.0008749415 0.042059407 -0.0062393527 -0.010538263 0.09765448
0.07046007 -0.08542473 0.019118877 0.06091422 0.121587135 0.015907872 -0.12926993 -0.10732693
0.031037478 -0.12895052 0.03537917 0.023247633 -0.07602227 -0.08969899 -0.0830883 -0.051725548
0.041589368 0.1961587 -0.07385806 -0.07065192 -0.06269602 0.043373656 0.010893305 0.05419703
0.00121454 0.09140263 0.070814334 0.031927608 -0.0057368786 0.08315834 0.037163734 0.010077987
-0.00019396209 0.09671259 0.039068874 0.110466406 0.0011648273 0.061350398 0.0345909 0.031676445
0.100521915 -0.0069114543 -0.040345147 -0.08790918 -0.07405439 0.025736617 -0.004080856 0.08284609
-0.047600348 0.06257757 0.09401809 -0.08869184 0.07380988 -0.10752074 0.049545843 -0.097138226
-0.10316772 -0.0013669267 -0.011086348 -0.08698211 0.08454456 0.060347233 -0.08054199 -0.073376544
0.08194365 -0.062686145 -0.26554564 -0.094639584 0.054986354 -0.05075075 0.0791848 0.0661918
0.068225265 -0.055422895 0.052368116 -0.08720159 0.024929874 -0.0430744 -0.09298577 0.03496134
0.033742357 0.06080934 0.09048605 0.08908112 -0.046611987 0.053495366 -0.027689947 -0.064431265
0.060902584 -0.0063883336 0.06302398 -0.052421205 -0.023660721 -0.09195228 -0.0012466793 -0.018487679
-0.0025316058 0.06727988 -0.05343176 -0.018250026 -0.035114445 0.051623218 -0.08103538 0.104964525
0.057054568 0.05791774 0.07014835 0.020416182 0.08983376 -0.09471114 -0.10465936 -0.099319234
-0.011002328 0.043383654 -0.10350626 -0.08694378 0.008152835 -0.12067237 -0.047636352 -0.050869823
-0.011225745 0.03843218 0.056805924 0.05351523 -0.027725494 -0.050997626 -0.036373474 -0.059683334
-0.072874196 -0.032152485 0.08214184 -0.066680916 -0.015001815 -0.028720038 -0.07619249 -0.03363551
-0.047023382 0.08053757 0.071831256 -0.022357682 -0.0849229 -0.093075484 0.028465917 0.09701256
-0.06707783 0.0074078627 0.037679005 0.008728018 0.00419311 0.06701084 0.08656338 0.07340152
0.055194914 0.04634145 0.08775427 0.021839121 -0.028318396 0.050174493 0.08507488 -0.09631057
-0.049660396 -0.019687057 0.09942842 0.060932487 -0.05787221 -0.0026031171 -0.061715383 -0.047387984
-0.09334962 0.055766854 -0.058015756 0.0035289838 -0.038346607 0.030968249 -0.004191885 -0.00611885
-0.054405954 0.0044889525 -0.084650405 0.07127119 -0.049846195 -0.044269837 -0.07755246 0.034497254
0.03571862 0.09443338 -0.06516414 -0.025321849 0.032755643 0.067073606 0.12039849 -0.004276421
-0.026862817 -0.09507066 -0.06627108 0.049324803 0.07455275 0.07769587 0.045789693 0.07284489
0.056837857 -0.00016464294 0.012315181 0.028773498 0.03780363 0.08073181 0.062733166 -0.039547097
0.07024214 -0.030558685 -0.05249178 -0.035367135 -0.04342927 -0.053514842 -0.029485183 0.01522916
-0.077830285 -0.121498756 -0.011628475 -0.04850199 0.050070073 0.05337812 0.0021570832 -0.0644586

mlp.4.bias f4 [100]
00000000: 7a9e 163e 2b3e 223d 432f 46bc 4891 573d
00000010: 3674 563d 1574 8cbd 48ed bdbd 2e17 a03d
00000020: f0a7 95bd ed0a 903d 58c7 6f3d c6da 7e3c
00000030: c3b0 a3bd 9103 53bd f5f5 af3d 7504 003d
00000040: 3056 36bd 650b 46bd f600 403d 8f6e 3abd
00000050: 7cb2 8a3d 2358 b8bd ebe5 773c c2ee f6bb
00000060: 9fab f83c 8ff9 533c a93d acbc afe3 f7bc
00000070: f74e 77bd dd36 083d 7b70 593c dc8e 9a3d
00000080: b125 f73b c8c8 9dbc 5a9d 543b d8b2 503d
00000090: d88c dcbc d3dc 783d c4cb 59bb a862 2cbd
000000a0: 19d8 7cbd 0946 89bc 0042 233d 0846 393d
000000b0: d773 5ebd 4107 5ebc febd 823d fcf4 163d
000000c0: 6bb4 6e3d 6845 8e3d 7c00 f3bc 058b d7bd
000000d0: 37f3 9fbd c700 aabc 10fc 173d 7dae db39
000000e0: 0c29 023e e1b4 ce3d 71aa dfbb 5e56 40bd
000000f0: 8c02 a83d 1984 983d 2585 a5bc 0af7 16bc
00000100: 23a3 563b 5116 363a db7d 423c 81ef 99bd
00000110: 7545 253c 3af1 6b3d ae6f 953d f54d b33d
00000120: 09d5 c3bd c575 0dbc 2146 aebd a382 abbd
00000130: 7380 8d3d 3496 913b 6349 833d 48e1 2ebd
00000140: 41a7 9b3d c40e a93d 65a8 163e d375 23bd
00000150: b0df 853b c881 1b3d 355b 9b3d 979e 2ebd
00000160: 6910 c63d 3b16 853c 426d 0b3d a6d9 3e3b
00000170: 181a 383d 1fa9 8cbd a71d bcbd c02c 59bc
00000180: 1a2b aabb 9e35 b53d 2c56 17bd 6843 9abd
0.14708892 0.03961007 -0.012096229 0.052628785 0.05235692 -0.068580784 -0.092737734 0.07816921
-0.07307422 0.07033334 0.05853972 0.015555089 -0.07992699 -0.051517073 0.085918345 0.03125425
-0.04451579 -0.04835071 0.046875916 -0.045515593 0.067723244 -0.09001186 0.0151305 -0.0075357864
0.030355273 0.012937917 -0.021025496 -0.030259935 -0.06037804 0.033255447 0.013271446 0.075467795
0.007542335 -0.019260779 0.0032442422 0.05095181 -0.026922628 0.06075747 -0.0033233026 -0.042086273
-0.061729524 -0.016757028 0.039857864 0.045232803 -0.054309692 -0.013551534 0.063838944 0.03685473
0.05827753 0.06946832 -0.029663317 -0.10524563 -0.078100614 -0.020752324 0.03710562 0.0004190094
0.1271097 0.10093094 -0.006825738 -0.046957366 0.08203611 0.07447071 -0.02020509 -0.009214172
0.0032751046 0.00069460744 0.011870827 -0.07516385 0.010087361 0.0576031 0.07296692 0.087551035
-0.095621176 -0.0086340355 -0.0850947 -0.08374526 0.06909265 0.0044429544 0.06410482 -0.042695314
0.076002605 0.082547694 0.14712675 -0.039907288 0.0040855035 0.037965566 0.07585756 -0.04263171
0.09671099 0.016245952 0.034039743 0.0029121428 0.04494676 -0.06868195 -0.09185343 -0.013255298
-0.0051931264 0.08848117 -0.036947414 -0.07532388

mlp.6.weight f4 [1, 100]
00000000: ccda 00bf 0342 073e 2145 2d3e 3bce 333e
00000010: f7fb d83d 2736 833d 7fc6 bfbd cf0e 7b3e
00000020: 134b 3abd 189d 673e 20df bc3d ae4f 1a3d
00000030: 678b c33c bab7 cb3c ea4b a8be d733 3e3d
00000040: d861 8b3d 59e2 953d df50 9dbe 23f4 03bc
00000050: 839f 013e 70df 973c 95fb 94bd a997 313e
00000060: 5d27 993c c8af 00bd da70 023e d998 163d
00000070: f68b 243e 8070 8e3d 6642 9f3c 98fc 90be
00000080: 8a3f ca3c 84a3 893c 3971 a93c 76b8 a4be
00000090: fadd 59be cc4a 063e 2ea6 1f3d 58b5 57bb
000000a0: 9cd6 823b ff38 8cbd 81c4 9cbd 6725 bfbe
000000b0: 53a5 2bbd 1f6f 9d3d 6c18 193e 33a5 823e
000000c0: 8d2c d33d 815a a73e 1d3c ed3d 2f17 4f3d
000000d0: 4d59 9c3d d39e 78be d782 22bd bf0c 16bc
000000e0: c066 dfbe f4c9 3a3e d08c 29be f931 78be
000000f0: e2f1 833e 853b 9a3e a8a0 8abd 286e 273e
00000100: 9b6a 2abd 25fb d0bd ad3c 05bf 9d94 9d3d
00000110: 8a36 343e ddb3 713e f6cd a23e ddbf 073e
00000120: c82b 99bd 4290 313e 6509 eb3c 1027 a73d
00000130: 8468 f0bc d62c c43d 2ecf 9abe 22f2 203e
00000140: 2924 b8be 2c61 883e 3aa8 883e 77c0 06be
00000150: e2d9 093e a86c c03e a68a 02be 2582 023e
00000160: 9232 2abe 2bf6 a3bd 7d03 4ebb 76a5 6fbe
00000170: 04b3 5a3e acf9 053b dd47 933d 3868 cabd
00000180: 56af 80be 8426 873e ca56 603c 926a babd
-0.5033386 0.13208775 0.16920902 0.1755914 0.105949335 0.06406813 -0.09364032 0.24517368
-0.045481753 0.2261852 0.09222245 0.037673645 0.023870183 0.024867881 -0.32870418 0.046436157
0.068057716 0.07318563 -0.30725762 -0.008053812 0.12658505 0.01853916 -0.07274548 0.1734301
0.018695528 -0.031417638 0.12738362 0.03676686 0.16069016 0.069550514 0.01944084 -0.28317714
0.0246885 0.016801603 0.020683872 -0.32171983 -0.21276084 0.1311447 0.03897684 -0.0032914486
0.0039928686 -0.06846809 -0.07654668 -0.37333223 -0.041905712 0.0768721 0.14950722 0.25516662
0.10311232 0.32686237 0.11583731 0.05055922 0.0763422 -0.24279337 -0.03967556 -0.009158312
-0.4363308 0.18241102 -0.16557622 -0.24237813 0.2577048 0.30123535 -0.06768924 0.16350615
-0.041605573 -0.10204152 -0.5204571 0.07694361 0.1759893 0.23603769 0.3179776 0.13256784
-0.07479054 0.17340186 0.028691003 0.081617475 -0.029346712 0.09578864 -0.3023619 0.15717366
-0.35965088 0.26636636 0.26690847 -0.13159357 0.13462022 0.37582898 -0.12748203 0.12744959
-0.16620854 -0.08005937 -0.0031435185 -0.23402962 0.21357352 0.0020443005 0.07191441 -0.098831594
-0.2513377 0.26396573 0.013692567 -0.09102358

lstm.weight_ih_l0 f4 [200, 13]
00000000: 3721 063e 6de3 75bc 40a2 053e aca7 e13d
00000010: 9dd2 58bd a8ae 0c3e 5165 0ebc fb2a e03d
00000020: 7e7a 92bb 6d45 f13c f23f b3bd eeef 153e
00000030: 70bd 863d 05b4 753d 412f 163e 7fd5 093d
00000040: 673c b9bd f404 f53b dbaa 013e 1d43 e93c
00000050: 3163 48be 82cc 0abe 44cc 1b3e 886b ba3c
00000060: 6525 5fbe d686 cd3d 8550 53bd 2d4c 223d
00000070: b046 41bd cacc 9b3d 22a6 ea3c cf72 5f3d
00000080: 63ca 843d cf52 e0bd e388 49bd 5eb9 46bd
00000090: b2ee 05be 6b35 d3bd 0758 743d edf2 993c
000000a0: 3caa 1fbd e196 04be 0766 0c3e 9da0 92bd
000000b0: ee3d b0bd 413c 8cbd 10d5 8f3d 18d6 dabd
000000c0: 11ef e73d 78e7 273d f223 003e 19a3 523c
000000d0: a2be 0e3d aa7e 69bd 5d21 0cbe 1da0 a43d
000000e0: b496 083c 7aad 133e bfd4 2abc 2448 a83d
000000f0: fc9e e63c 854b 05be a85b ae3d 63a6 f4bd
00000100: efbb 13bd dabc 233c e262 603d 6cd8 483c
00000110: 86de 373c 4823 d3bd d93d 373d e199 4cbe
00000120: 42c9 a0bd 9e00 a7bd 1e18 063e 2365 82bd
00000130: 1d45 40bc 1012 f13c e674 c0bc c115 3b3d
00000140: 6fcd f63d 7915 e33c 1a26 233d 1d24 be3d
00000150: b41e ae3d 54bc 703d 8159 31bd 200a d3bd
00000160: 98ba 443d e860 d5bd c217 fc3d 8a16 873d
00000170: 15ed e0bd 157f 30bd 20e0 f83d 6809 f53c
00000180: 8399 083e e502 88bd c84b 96bd f9bc 123e
00000190: 9639 5ebe 3cba f43d eaff 603d 06cd a43c
000001a0: feac 7a3e 222b 083e facf 67bd 8b75 86bd
000001b0: 2a5d b63d 962f 4b3d 740e ae3d 2354 c93d
000001c0: b945 aa3d 2d38 a33d 19bb 64bd d1a2 94bd
000001d0: 35ca 253d f31f 973d a336 8d3d 5e7b f4bc
000001e0: daeb c5bc 0a62 20be e55a 0ebe 22ac ca3e
000001f0: fe3f 233e 6271 dc3b 527d e43c 3a13 06be
00000200: 5e2f 023e 9599 09be 718e 043e 2fde 183d
00000210: 15cc e13d c1a9 1abb 5cd5 7f3d ae5d 9cbc
00000220: d0bb d23c 3b12 b33b a0af ca3d dc43 823d
00000230: d10f b8bd ae39 bebd c3cc f8bd 33c9 d53d
00000240: b59c 643d 5844 063e afb4 113d 6c2b e9bd
00000250: 1441 c8bd 7618 1f3e 1a79 fd3d a36f 043e
00000260: 6ac6 573c 2586 693d 9c95 213d 6332 5a3d
00000270: df28 333e 14d6 fcbb 127f 3e3d 85dd b1bd
00000280: 473a 023e bb91 0ebc 7e61 d2be 88f4 e53c
00000290: 3209 ad3e 92c4 ba3d 057e 0f3e a05c b8be
000002a0: 56ce 74bd 78ab 6f3e 8c8c e1bd 206f bd3d
000002b0: a932 fa3d d784 113d 4e99 bebc eba7 f1bd
000002c0: 0ba5 623d 07b5 14bd 24f8 b03d 1c6f afbc
000002d0: 5919 b33d 5e3b 073c e165 debd 7544 aa3d
000002e0: 3d8e dd3d 9cae abbd 1293 afbd 8aef e6bd
000002f0: 87ab 0a3e 9826 023e 133d f43d 3259 d9bd
00000300: 59fc cf3d e46e e4bc 0742 0fbc 3320 f2bc
00000310: 78bf ec3d b33c e1bd 31ce 013e f305 fa3d
00000320: d064 39bd a0f4 6bbd 0221 cb3d 7f2d e33d
00000330: cde6 d53a 2c0f 9dbd c127 1abd 2efb 98bd
00000340: 598d d5bc f492 fc3d 56a9 c03c 927b ad3d
00000350: 97a0 a6bd 4e75 a5bc ad4c 4bbc ed6e 1bbe
00000360: f09d 043e 4996 39bd 5113 353d b94f 0f3e
00000370: e040 9b3d c479 653d 42e2 6f3c 1515 013d
00000380: 61e0 3bbd 18bf 45bd 5566 923d d1cb 97bd
00000390: cdcf 183d b843 9b3d ec55 e53d cb6f aa3d
000003a0: 4e96 71bc 34e9 163c 173e 293e f001 1dbb
000003b0: 4b84 d73b 81da cabd a25e a3bb 2d43 413d
000003c0: 3c5f 02bd dfe9 023e 618c 253e f8bf f3bd
000003d0: 6c30 a53d 08c8 71bd b2fe 06be 0f10 68bd
000003e0: c885 a0bb 6f99 98bd aa96 77bd 0356 84bd
000003f0: 2f39 01be f631 8dbd 2405 cfbd 3c74 ac3d
0.13098608 -0.015007836 0.13050175 0.11018309 -0.05293523 0.13738501 -0.008691148 0.10945698
-0.0044701686 0.02945205 -0.08752431 0.14642307 0.06579101 0.059986133 0.14666463 0.03365087
-0.09044724 0.007477397 0.12662832 0.028474385 -0.19569089 -0.13554576 0.1521464 0.022756353
-0.21791609 0.100354835 -0.05159046 0.039623428 -0.047186553 0.0760742 0.028643671 0.05455285
0.06483915 -0.109532945 -0.04920281 -0.048516624 -0.13079336 -0.10312923 0.059654262 0.018792594
-0.038980708 -0.1294818 0.13710795 -0.07159541 -0.08605562 -0.0684743 0.0702306 -0.106853664
0.11324895 0.04099223 0.12513712 0.012856268 0.03484977 -0.057005562 -0.13684602 0.08038352
0.008336712 0.14421645 -0.010426699 0.08216885 0.028151982 -0.1301709 0.08513576 -0.11945798
-0.0360679 0.009993756 0.054781802 0.01225863 0.011222487 -0.10309464 0.044736717 -0.19980575
-0.07850887 -0.081544146 0.13095137 -0.063669465 -0.011735228 0.029427558 -0.023493242 0.045675043
0.12050902 0.0277202 0.03983126 0.09284232 0.0850195 0.058773354 -0.04329825 -0.103046656
0.048029512 -0.10418874 0.12309219 0.06596096 -0.1098272 -0.043089945 0.121521235 0.029911712
0.1333981 -0.06641177 -0.07338673 0.143299 -0.21701655 0.11949584 0.05493156 0.020117294
0.24480054 0.13297704 -0.056594826 -0.06565388 0.089044884 0.04960593 0.084988505 0.09830501
0.0831408 0.07969699 -0.055842493 -0.07257617 0.040476043 0.07379141 0.06895187 -0.029843982
-0.024160314 -0.15662399 -0.13901861 0.39584452 0.1594238 0.0067273835 0.027891789 -0.13093272
0.12713382 -0.13437493 0.12944962 0.037321266 0.11025254 -0.0023599716 0.062459335 -0.019087639
0.025724322 0.0054648197 0.09896779 0.063605994 -0.08987392 -0.09288345 -0.1214843 0.10438766
0.05581351 0.13112009 0.035572704 -0.11385235 -0.09778038 0.15536675 0.12376614 0.12933211
0.013169864 0.057012696 0.03944932 0.05327071 0.1749606 -0.00771595 0.046507902 -0.086848296
0.12717544 -0.008701737 -0.41090006 0.028070703 0.33796078 0.09119524 0.14012916 -0.36008167
-0.05976709 0.23405254 -0.11013135 0.09249711 0.12216694 0.035527077 -0.02326646 -0.11799606
0.05533318 -0.036305454 0.08641079 -0.021415286 0.08745069 0.0082539 -0.108592756 0.083138384
0.108181454 -0.083829135 -0.08572973 -0.11276157 0.13541995 0.12710035 0.119257115 -0.10612716
0.10155553 -0.027884908 -0.0087437695 -0.02955637 0.11559957 -0.109979056 0.12676312 0.12208166
-0.045262158 -0.05760634 0.09918405 0.11092662 0.0016319394 -0.076689094 -0.03763557 -0.07469784
-0.026068376 0.123327166 0.023518246 0.08470835 -0.08136099 -0.020197537 -0.012408418 -0.15179034
0.12950873 -0.04530934 0.044207875 0.13995256 0.07580733 0.056024328 0.014641346 0.031514246
-0.04586828 -0.048277944 0.071484245 -0.07411922 0.03730755 0.07581276 0.11198029 0.08322104
-0.014745308 0.009210873 0.16527592 -0.0023957454 0.00657705 -0.099049576 -0.0049856463 0.047183204
-0.031829104 0.12784527 0.16166832 -0.119018495 0.08065876 -0.059028655 -0.13183096 -0.05665594
-0.0048987605 -0.0745114 -0.06044642 -0.06461718 -0.1261947 -0.06894295 -0.10108402 0.084206074

lstm.weight_hh_l0 f4 [200, 50]
00000000: bc32 b4bd ed60 a0bd 856f 2abd 9ba1 e83d
00000010: 0050 19bb aa49 e03d 8db1 9bbd 7eb6 d33d
00000020: aab5 d9bd 2ee3 003e 6853 b0bc 9ad3 243b
00000030: 114e abbd cce1 fdbd 4a5f de3d fe0d 0dbd
00000040: f3cb 87bd c6c8 103e b16f e4bd ed6a 0d3e
00000050: 62db fabb 42ae f7bd f7f3 b83d 30a4 9cbd
00000060: ed7a 813d 2804 e13d f804 80bd 20cf f7bd
00000070: ceb1 aabd 4fc3 263d d590 0e3d d08d d83d
00000080: 7194 da3d 3ee0 acbd 7bd9 123d 3505 603d
00000090: d963 393d dcce dd3d 748e 81bc 199b afbd
000000a0: 63fd 6b3d a9e8 04be ced7 8dbd d30a f0bd
000000b0: b99b 933d 47cf b9bd 1496 1d3d d3f1 71bb
000000c0: 09cb 113c e96d b33d 2de9 0e3c 1e68 1c3b
000000d0: cc1e 75bc 9cbc d63d 9bf1 373d 034e f5bd
000000e0: 3c8c 51bd 15a4 a5bd 6776 8a3d 43da 123d
000000f0: c8c9 0f3d d886 e2bd 583d 0cbe d982 5dbd
00000100: bcdd 023e a3e0 913c d75a 193d 4869 66bd
00000110: dcc3 443d a5e5 ca3d 1383 7d3d 604d c7bd
00000120: 4558 a93d a2e2 dbbd 9180 10be 1f68 d23d
00000130: e40f 473c 9c26 4cbd c9f5 223e bce6 00be
00000140: e268 fa3d c4fc 413d 2110 f13d 7498 5bbd
00000150: 3be2 073d 5f80 e7bd ba7e b5bd 3494 d43d
00000160: 60fd 983d 6285 ea3c ed25 673d 1699 fabd
00000170: 77df 6e3c f123 fb3d 8948 f23b 538c d93d
00000180: 5d13 d6bd aaad eb3d 9cf3 1abd f685 01be
00000190: 06f4 1dbd ad4d 273a 65a0 6c3d 6b60 2f3d
000001a0: 3603 d4bd ace6 ea3d b4b1 443d 3256 343d
000001b0: 744b a63d 8fa7 ec3b 28d3 b2bd 22ea c23d
000001c0: 14e2 803d 7f79 a93d 4c97 0cbe 0c44 0bbd
000001d0: eb4a fe3d d092 f8bd 8780 cdbd 0ab0 c6bd
000001e0: 7261 c9bd 39d2 5b3d 949d 35bd d6de f13d
000001f0: 4431 ae3c cf62 e53d 7f11 f5bd ebc4 6d3d
00000200: fbf4 20bd 7bc2 d43d c5d2 fcbd 56a8 cbbd
00000210: 5a42 ea3c b299 be3d 925d 1a3d 0ff6 e23d
00000220: 5069 dcbd 9131 023e 0d18 cdbd e380 eebc
00000230: 7049 9f3c d4e3 7a3c e969 5fbb f91c 103e
00000240: 58c1 efbd 3920 19bd a7d8 07bd 33e1 003e
00000250: 89af 003e e163 983d 953d 01be 14e9 0ebe
00000260: d7b0 053e 4c3d 643d cd96 02bd 1584 fcbd
00000270: ce42 bdbc c0f9 1bbd e8c9 0f3e 93d1 d73c
00000280: f824 b63d 0896 303d 899f 80bd 8292 02bd
00000290: b06b 4dbd 8ae4 353d d872 603c 8e1e 053e
000002a0: d06e c0bd 8689 1bbd a50d ecbd 4d58 cd3d
000002b0: afb0 debd 1c3d 5f3c 5f1e edbd 2692 173d
000002c0: ed99 933d 4b3b 0abe 3d9a cc3d 2439 e03d
000002d0: 9cae dabd a4ea 9c3d d710 0fbe eb02 683b
000002e0: 543b a4bd 528a 953c 482b 8cbb 9504 cfbd
000002f0: 59e7 cb3d c956 3dbd 9339 eebd f5b4 0fbe
00000300: a4cf be3d d24d be3d 3e58 d1bd da07 11bd
00000310: 22d8 113d 18c7 85bd b5c8 cfbd 4000 f03d
00000320: 472c 143d 5756 f3bd bec2 e6bd a5f5 ccbd
00000330: d33b aebd 51c9 303b 39f1 83bd b79b 213d
00000340: 6499 20bd feba eb3d 5cc5 81bd e9f2 733d
00000350: 88ca 5abd 0263 b4bc 9541 d13c d8a8 51bd
00000360: 06bb a93d c630 1dbd 2135 ca3d 6720 3d3d
00000370: 631e c73d e7f4 f3bd 0206 cc3d 926f c6bd
00000380: d426 06be 8489 81bd c0ed 47bc 2fbd 3bbd
00000390: 240a 0abe e397 8ebd 55c6 0dbe c111 bdbd
000003a0: 75dc ab3d 0590 70bd 48cc cfbd 758c 3d3d
000003b0: e810 243d 429c 2d3d 5ca4 efbd b08c b23c
000003c0: 635a b33d 6782 023c 609b 323d a147 d4bc
000003d0: 2a59 053e dac9 e7bb 2872 893b a1a2 d6bd
000003e0: 2091 b0bd 7ff1 513d 5b27 bdbd 396e b43d
000003f0: 37a2 ba3d 437f 253d a8a8 86bc d760 f43d
-0.08798739 -0.07830987 -0.04161026 0.11358949 -0.002339363 0.1095155 -0.076022245 0.10337542
-0.10630353 0.12586662 -0.021524146 0.0025150538 -0.08364499 -0.12396583 0.10858019 -0.034437172
-0.06630697 0.14139089 -0.11154116 0.1381032 -0.007655547 -0.12093784 0.090309076 -0.07648504
0.06322274 0.10987121 -0.06250948 -0.12100053 -0.08334695 0.040713605 0.03480609 0.105739236
0.10672844 -0.08441208 0.035851937 0.054692466 0.045261238 0.10830471 -0.015814997 -0.085745044
0.057614695 -0.12979378 -0.06925927 -0.117208146 0.07207436 -0.09072738 0.038473204 -0.003691782
0.008898505 0.08761198 0.008722586 0.002386577 -0.014960956 0.10485193 0.044908147 -0.1197777
-0.05115913 -0.08087937 0.06760865 0.03585268 0.035104543 -0.11060876 -0.13695276 -0.054079864
0.12779897 0.01780731 0.037440147 -0.056252748 0.04803835 0.099070825 0.06189258 -0.09731555
0.08268789 -0.10736586 -0.14111544 0.10273766 0.012149785 -0.04984151 0.15914072 -0.12588018
0.12227036 0.047360197 0.117706545 -0.053612188 0.033174735 -0.11303782 -0.08862062 0.1037983
0.074702024 0.028628055 0.056432653 -0.1223623 0.014579645 0.12262715 0.007393901 0.10622468
-0.10452912 0.11507733 -0.03782998 -0.12648758 -0.038562797 0.0006382119 0.05777015 0.04281656
-0.10352175 0.114697784 0.048021033 0.044027515 0.0811986 0.007222123 -0.08731681 0.095173135
0.06293121 0.08275127 -0.1372959 -0.03400044 0.12416633 -0.12137377 -0.1003428 -0.097015455
-0.09833039 0.05366728 -0.04433973 0.11810081 0.021263726 0.11200487 -0.11966228 0.058049124
-0.03929613 0.10388657 -0.123448886 -0.09944217 0.028596092 0.09306659 0.03768689 0.11082088
-0.10762274 0.1271422 -0.10014353 -0.029114192 0.019444197 0.0153131075 -0.0034090227 0.14073552
-0.11706799 -0.037384246 -0.0331656 0.12585907 0.12566961 0.074409254 -0.12621148 -0.139561
0.1305574 0.05572252 -0.031882096 -0.1232988 -0.023103144 -0.038079977 0.14041865 0.02634505
0.0889377 0.04311183 -0.06280429 -0.031878002 -0.050151527 0.044407405 0.013699256 0.12999937
-0.09396136 -0.03797295 -0.1152604 0.10026608 -0.108735435 0.013625409 -0.115780585 0.037004612
0.072070934 -0.13499181 0.09990356 0.10948399 -0.10677835 0.07661942 -0.13971268 0.003540213
-0.080191284 0.018254433 -0.0042776205 -0.10108296 0.099562354 -0.046225343 -0.11632075 -0.14033873
0.09316948 0.09292187 -0.10221909 -0.03540788 0.03560651 -0.06532115 -0.10145704 0.11718798
0.03617504 -0.118817024 -0.11267613 -0.100077905 -0.08507504 0.0026975463 -0.06442494 0.039455142
-0.039208785 0.11510275 -0.063364714 0.05955783 -0.053415805 -0.022019867 0.025543967 -0.051186413
0.08287625 -0.038376592 0.09873415 0.04617348 0.09722593 -0.11911946 0.099620834 -0.09689249
-0.13100749 -0.06325057 -0.01220268 -0.045834716 -0.13480431 -0.06962564 -0.13845189 -0.09231902
0.08391658 -0.058731098 -0.101463854 0.04627653 0.040055186 0.042385347 -0.11701271 0.0217956
0.08757474 0.007965661 0.04360521 -0.025913062 0.13022295 -0.007073623 0.0041945167 -0.10480238
-0.086214304 0.0512557 -0.09236022 0.08810086 0.09112971 0.04040457 -0.016437843 0.11932533

lstm.bias_ih_l0 f4 [200]
00000000: ac1f 833d 3283 e93d b381 253d 539e 82bd
00000010: 6a15 debd 9b5e 243d ce8f 9e39 00ea 883d
00000020: a95d d83d b2ac 0bbe f0c2 2f3b 57eb adbd
00000030: 9990 f23d b7e1 e93d 2d79 2ebc a557 e6bd
00000040: 980d eebd 1d4c 313c db13 35bd 5306 3fbd
00000050: 7f7e a33c c97e cb3d b1e4 1e3c 8c31 103e
00000060: 7f8f 0ebd 8bea f63d 74c0 d3bd 3b15 b03c
00000070: f34c d8bc 1221 113e 3ff0 d63d 57b0 913d
00000080: 4388 063e 920c 2fbd 9e03 b2bd a066 873d
00000090: 13ef 953c d3ec a0bb a58c 833d 558c 443d
000000a0: 650d 11bd b9c0 6e3c 8c4a 2e3d e361 ce3d
000000b0: 3c60 8c3c f907 e63d caef 833d 2c9d 4e3c
000000c0: 3f29 9fbd b5f7 d33d 43a5 dfbd 94ca bebd
000000d0: 48a0 b7bc 0eaf 083e f859 673d 96b2 f73d
000000e0: 26a4 193d 93fa 923c 0069 74bd 2610 963d
000000f0: bab5 0b3e 172b a03c d319 383d fd37 e7bd
00000100: 68f7 32bc 9c00 21bd bbd8 f63d 08ac 2fbc
00000110: a7c5 5c3d 409a dfbc 5081 3f3d 1050 663d
00000120: 71dd 27bc cc07 0dbe fdd7 b83d d5df d53d
00000130: f6e5 0b3e 7163 003d 1a2c 1a3d b20c 52bb
00000140: 6abe 983d ea99 05be 96c5 bbbd 77b5 47bd
00000150: 9f62 b33c 3bf2 cf3d 2c93 743d 6269 ab3d
00000160: 6cc1 373a 2bcb b2bd 12f4 43bd 96d7 cbbb
00000170: 55e1 d9bc 190f a6bd a1a3 87bc 644c 39bd
00000180: 086b db3c 20d4 5ebd d4c9 b53d 72c2 9c3d
00000190: c7ff 8d3b 8fbb c03c c67b 833d 5db8 61bd
000001a0: b6d0 ce3d f068 3d3c 9d0a 5e3d 6a97 55bd
000001b0: 9d90 1e3c c78e b13d d2b4 d93d 699b 24bd
000001c0: dc62 22be 7efd 8bbc 1f70 ddbc 6adc febd
000001d0: 61e7 fa3d bd5f 19be 55bc 603c 36b0 383d
000001e0: c419 de3d 6c9a 953d 4022 e2bd dd08 ffbc
000001f0: 4b3d a23d 303f b53c 1683 c7bc ba8a c0bd
00000200: dc77 dc3c 1cbd 6a3d 2c6a 93bd 5deb d23d
00000210: 9668 85bd 2828 133e 5354 afbd 9394 77bd
00000220: 7823 d33d 499b 36bd 7d5b e33d 4d8e 083e
00000230: 0736 8abc b780 113e 809e b3bc e391 013d
00000240: 9ded f33d ddba 893d 31d1 a23c 7288 89bd
00000250: a4a6 003e 94ba 22bd 0966 05bd 0d13 85bd
00000260: 67e4 41bd 2728 a5bd 6c83 c23c becb afbd
00000270: 28b5 dfbd 872c a03b 5b1d 103e 483f f13d
00000280: 758b 8d3d 6b4e b43d dd9b f43d 25bb 89bd
00000290: 9b05 39bd 3113 ab3d 9065 b6bd d926 a1bd
000002a0: df5a d93d edcf f2bd 4358 52bc 27bf 45bd
000002b0: 0858 2a3e d287 0b3c f340 113e c22f 843c
000002c0: 2e0a babd 7d35 b93c fc6b 433d 696b adbd
000002d0: b4d7 893c f091 653d 722e c7bd 04db 57bd
000002e0: 5568 d23c f2fa 9f3d 1e92 083d 0a58 723b
000002f0: 26a4 cb3d b2ab 97bd 8968 0f3c bc11 c4bd
00000300: b348 e63d ee2d b33d 674a 05be 27a3 d83d
00000310: b268 273d 23f9 edbd fdb0 44bc 6864 153c
0.06402525 0.11401977 0.040406894 -0.06377854 -0.10843928 0.040129285 0.0003024325 0.06685257
0.10564739 -0.13640097 0.0026819073 -0.08492153 0.11843986 0.11420005 -0.010649008 -0.112471856
-0.116236866 0.0108213695 -0.04420839 -0.04663689 0.019957779 0.09936292 0.009698079 0.140814
-0.034804817 0.12056454 -0.10339442 0.021494498 -0.02640388 0.14172772 0.10495042 0.07113712
0.13137917 -0.042736597 -0.08692096 0.06611371 0.018302476 -0.004911044 0.0642331 0.047985394
-0.035413165 0.014572316 0.042551562 0.10077264 0.017135732 0.112319894 0.064422205 0.012610715
-0.07771539 0.10349981 -0.10920193 -0.093159825 -0.022415295 0.13348028 0.056482285 0.120946094
0.03751006 0.017941749 -0.05967045 0.07327299 0.13643542 0.019551797 0.044946503 -0.11289976
-0.010923244 -0.03930722 0.12053057 -0.010722168 0.053899433 -0.027295232 0.04675418 0.056228697
-0.010245667 -0.13772506 0.090255715 0.10443083 0.13661942 0.031344835 0.037639715 -0.0032051024
0.074581936 -0.13046995 -0.09168546 -0.048757043 0.021897612 0.10153624 0.059710667 0.083697096
0.0007009718 -0.087301575 -0.047840185 -0.006220768 -0.026596704 -0.081083484 -0.016557517 -0.045238867
0.026784435 -0.054401517 0.08876386 0.07654275 0.0043334696 0.023526935 0.06420092 -0.055107463
0.10098402 0.011560664 0.05420934 -0.052146353 0.009678033 0.08669811 0.10630192 -0.040187273
-0.15858024 -0.017088648 -0.027031003 -0.124443844 0.12251163 -0.14977928 0.013716777 0.045089923
0.10844758 0.07304844 -0.11041689 -0.031132156 0.07921847 0.022124857 -0.024354499 -0.0940146
0.026912622 0.057309255 -0.07197985 0.10298798 -0.06514089 0.14370787 -0.085610054 -0.060444426
0.103094995 -0.044581685 0.111014344 0.13335533 -0.016871465 0.14209257 -0.021926165 0.03163327
0.119105555 0.067250945 0.01987514 -0.06715478 0.12563568 -0.039728716 -0.03256801 -0.06497774
-0.047336962 -0.08064299 0.023744307 -0.085837826 -0.10923225 0.0048881206 0.14073698 0.11779648
0.06911365 0.088040195 0.11943791 -0.06725148 -0.04517136 0.0835327 -0.0890609 -0.07868738
0.106130354 -0.11856065 -0.012838426 -0.048278 0.16635144 0.008516269 0.14184932 0.016136054
-0.09083973 0.022608513 0.047710404 -0.084677525 0.016826488 0.05604738 -0.097256556 -0.052699104
0.025684515 0.07811536 0.033342473 0.0036978745 0.09943418 -0.07405795 0.0087529505 -0.09573695
0.11244335 0.08748995 -0.13016663 0.10577994 0.04087133 -0.11619785 -0.012005088 0.009118177
