arena_navigation/arena_local_planner/model_based/crowdnav_ros/scripts/crowd_nav/data/output/rl_model_sarl.pth (torch, 392753 bytes, 20 tensors)

mlp1.0.weight f4 [150, 13]
-0.17106992 0.2560531 -0.022742614 0.23125415 0.047271416 0.18544017 0.28293258 -0.1954441
0.1508727 -0.23270836 0.2540378 0.04785815 -0.1827335 -0.027813127 0.09053878 0.1270427
0.0047309482 0.2333469 0.20971492 -0.19476506 -0.22848277 0.20781244 -0.043932203 0.18431532
-0.23309648 0.034359034 0.049696136 0.10783862 -0.119111516 0.23735362 -0.0034209695 0.090771616
0.07211285 0.17255044 -0.077653944 0.21947756 -0.10635317 -0.23830001 0.07145159 -0.16375685
0.26439068 -0.1938083 -0.049305502 -0.10092021 0.0728817 -0.06522229 -0.039047956 0.12589875
0.26028627 0.22487022 0.12135507 -0.17942506 0.037574794 0.14960064 0.17688873 0.074130364
-0.009398592 0.061527956 0.19999103 -0.07737072 0.31074703 0.057587992 -0.15350062 -0.06910905
-0.103064515 -0.25122806 -0.08899763 0.004260857 -0.18202743 0.15231937 0.029918378 -0.14085065
0.101906046 0.1364858 0.08231986 0.25352788 -0.17706832 -0.23052199 -0.24108878 -0.20062065
0.05491038 -0.09353731 0.097117305 0.13216172 -0.09196667 -0.13278084 -0.041338865 0.0823843
0.08228326 -0.22322135 0.13553542 -0.10276616 -0.186156 0.113368325 -0.09148751 -0.18026707
0.14803892 -0.06358321 0.02642843 -0.073541075 -0.20261733 -0.25226158 0.004870018 0.06864399
-0.07638223 -0.20205261 0.08386944 0.15638986 -0.12579873 -0.113426656 -0.24271822 -0.14404695
-0.348103 -0.19455694 0.06404426 0.2928664 0.11519831 0.2703383 -0.20249762 0.13054103
-0.08250146 0.087763086 0.19961317 -0.18293476 0.12597392 0.26870945 -0.089571156 -0.109782845
0.026472516 -0.1617239 0.0066034887 0.12958662 -0.16053595 -0.11737116 0.22727953 0.15463799
-0.2098145 -0.016828371 0.18349357 -0.036370564 0.11607044 -0.34951732 0.03435756 0.077245824
0.10849673 0.1944472 -0.07584318 -0.050899144 0.10965001 -0.008186909 0.0013900066 0.048424505
-0.0621304 -0.1923794 0.10043926 -0.12755904 0.11080213 -0.26890612 0.17418307 0.033663206
0.128921 0.01423668 0.23933518 -0.029850286 0.073450916 0.030860253 0.03630773 -0.15041108
0.07112099 0.18950862 -0.09474789 0.25764227 0.20045832 0.17189567 0.2425231 -0.13143556
-0.0040532215 -0.25163236 0.28763488 0.085530356 -0.27144507 0.25079653 -0.014821797 0.12968348
0.23432404 0.18639497 -0.20675667 -0.100101404 -0.3805533 -0.08005087 -0.44058967 -0.21483475
0.18021378 0.22811265 0.014437618 -0.28553513 -0.051271714 -0.2571143 -0.123500206 -0.27895862
-0.13849978 0.223736 -0.06807383 -0.06703688 0.043243058 -0.26159018 0.07477203 -0.12867853
-0.16096558 0.08701587 -0.1847034 0.17165138 -0.13868083 -0.2333149 0.24356334 -0.05309009
-0.03058701 -0.14640337 0.08285687 0.152209 -0.21110432 -0.17235367 0.042428285 -0.2681372
0.03457863 -0.2730067 -0.08141026 0.08521128 -0.06695208 -0.08848598 -0.026445244 -0.10355649
-0.14341982 0.25813448 0.080680266 0.11712809 0.24882667 -0.22064659 0.014207226 -0.003336086
0.26699236 0.20549372 0.14222042 0.07589632 -0.1553801 -0.12934035 -0.07128662 -0.22275366
0.20102444 0.2218219 0.0035330637 0.109248556 0.08077944 -0.017012175 -0.06378668 -0.0022839592
00000000: f42c 2fbe 6419 833e b84e babc e3cd 6c3e
00000010: ac9f 413d 07e4 3d3e 8adc 903e 8022 48be
00000020: 607e 1a3e 1a4b 6ebe 3e11 823e e806 443d
00000030: 7e1e 3bbe 5bd8 e3bc 656c b93d 7b17 023e
00000040: 1206 9b3b 7df2 6e3e 82bf 563e 7e70 47be
00000050: 63f7 69be c9cc 543e 41f2 33bd 28bd 3c3e
00000060: d8b0 6ebe 0fbc 0c3d 2d8e 4b3d 7fda dc3d
00000070: bdf0 f3bd d40c 733e 5832 60bb 78e6 b93d
00000080: e7af 933d 10b1 303e 0809 9fbd babe 603e
00000090: b1cf d9bd eb04 74be 3655 923d e0af 27be
000000a0: 375e 873e af75 46be 91f4 49bd 41af cebd
000000b0: 0043 953d 4493 85bd c0f0 1fbd 9aeb 003e
000000c0: 3e44 853e 6144 663e 0289 f83d 34bb 37be
000000d0: 07e8 193d e930 193e 5222 353e a9d1 973d
000000e0: 8dfc 19bc bd04 7c3d 73ca 4c3e 8a74 9ebd
000000f0: 3c1a 9f3e 63e1 6b3d 442f 1dbe 0c89 8dbd
00000100: 7d13 d3bd f7a0 80be 6444 b6bd a99e 8b3b
00000110: 6665 3abe 9cf9 1b3e 6317 f53c 273b 10be
00000120: 1eb4 d03d efc2 0b3e 5197 a83d 68ce 813e
00000130: 6651 35be f50d 6cbe fadf 76be 806f 4dbe
00000140: b5e9 603d 7d90 bfbd 70e5 c63d 6755 073e
00000150: 0559 bcbd b3f7 07be f152 29bd 1ab9 a83d
00000160: 2084 a83d 2394 64be ccc9 0a3e 1177 d2bd
00000170: ae9f 3ebe a72d e83d ce5d bbbd ee97 38be
00000180: 8497 173e ea37 82bd 6f80 d83c b49c 96bd
00000190: eb7a 4fbe 6e28 81be ac94 9f3b 3895 8c3d
000001a0: 496e 9cbd e1e6 4ebe bec3 ab3d aa24 203e
000001b0: 62d1 00be 3c4c e8bd 208b 78be 0b81 13be
000001c0: 8e3a b2be ef39 47be a329 833d 96f2 953e
000001d0: 17ed eb3d c869 8a3e 895b 4fbe 8cac 053e
000001e0: 87f6 a8bd 22bd b33d 6567 4c3e 4053 3bbe
000001f0: 4fff 003e 4994 893e 1571 b7bd d4d5 e0bd
00000200: e4dc d83c f39a 25be 1462 d83b 5bb2 043e
00000210: 8963 24be 4a60 f0bd f7bb 683e 6c59 1e3e
00000220: 9dd9 56be a7db 89bc bde5 3b3e 4df9 14bd
00000230: 57b6 ed3d eff3 b2be 83ba 0c3d 0f33 9e3d
00000240: 8933 de3d 2b1d 473e ab53 9bbd 9f7b 50bd
00000250: 2f90 e03d 6322 06bc e230 b63a c658 463d
00000260: 727c 7ebd 1bff 44be 19b3 cd3d d69e 02be
00000270: 3aec e23d 10ae 89be 0c5d 323e 6ee2 093d
00000280: de03 043e f740 693c 4814 753e 9688 f4bc
00000290: 6f6d 963d a4ce fc3c 6ab7 143d 5d05 1abe
000002a0: e2a7 913d 8c0e 423e 2f0b c2bd b0e9 833e
000002b0: f244 4d3e 6b05 303e fa57 783e 0b97 06be
000002c0: e3d0 84bb f5d5 80be e144 933e 8a2a af3d
000002d0: d9fa 8abe 6768 803e 1fd7 72bc bfcb 043e
000002e0: a4f2 6f3e 53de 3e3e 05b8 53be f701 cdbd
000002f0: e2d7 c2be b6f1 a3bd f894 e1be a4fd 5bbe
00000300: f689 383e 5d96 693e c28b 6c3c a931 92be
00000310: 4a02 52bd 7ca4 83be aded fcbd aad3 8ebe
00000320: e3d2 0dbe 0d1b 653e 4b6a 8bbd a24a 89bd
00000330: a21f 313d 26ef 85be 1422 993d 4ec4 03be
00000340: 29d4 24be 6035 b23d e322 3dbe 61c5 2f3e
00000350: 5902 0ebe 1aea 6ebe ab68 793e ff74 59bd
00000360: 9c91 fabc c4ea 15be ddb0 a93d addc 1b3e
00000370: bb2b 58be 7b7d 30be 48c9 2d3d 4749 89be
00000380: 52a2 0d3d 89c7 8bbe 6cba a6bd 4083 ae3d
00000390: 2c1e 89bd 2338 b5bd b2a3 d8bc 6d15 d4bd
000003a0: a5dc 12be 342a 843e b23b a53d dae0 ef3d
000003b0: 6bcc 7e3e 2ef1 61be 6dc5 683c 3ca2 5abb
000003c0: 39b3 883e f26c 523e 3ba2 113e 886f 9b3d
000003d0: f61b 1fbe cc71 04be b8fe 91bd 8919 64be
000003e0: 5ad9 4d3e 4825 633e f98a 673b b5bd df3d
000003f0: b16f a53d 1e5d 8bbc 97a2 82bd 7aae 15bb

mlp1.0.bias f4 [150]
0.095562354 -0.2182616 -0.2644069 0.18006735 -0.08668297 -0.082098305 0.06781224 0.06008654
0.13723545 -0.13807958 0.23329867 0.1923413 -0.101542786 -0.24183229 0.13768557 0.21398707
-0.24336304 0.20629919 0.20641796 0.2695844 -0.05420754 0.08082752 -0.30809015 0.21301818
-0.13808785 -0.07064043 0.27817032 0.015815128 0.06216874 0.18385755 0.20501906 0.23060346
0.14817226 0.10477082 -0.26765543 0.0024977182 0.17331253 -0.24892743 0.116865754 0.14390004
-0.14815862 -0.082628295 -0.065329835 0.016198756 -0.21984352 -0.2057749 0.17343818 0.017030802
-0.11945272 -0.12118705 0.04113596 0.2042327 -0.25594193 0.20244355 0.12413326 0.26054516
-0.09812045 0.197719 -0.034622837 0.18238108 -0.24779077 -0.17017673 0.2511107 0.07241605
-0.06178745 0.15255176 -0.1604256 -0.24094534 -0.2419077 0.16727065 -0.08950675 0.10486864
-0.27188656 -0.090833806 0.0008556108 0.23047817 -0.1315982 -0.21567664 -0.047758747 -0.009469493
0.03006837 0.23429947 -0.001064436 -0.20178726 0.1942754 -0.07031081 0.0225382 -0.052559316
-0.24186014 -0.13140106 0.22232313 -0.17209136 0.0017338818 -0.0027101245 0.1444803 -0.26576027
-0.2556244 -0.17293859 -0.25677302 0.31904712 -0.04653316 0.2270636 0.15614223 -0.29834083
-0.091589816 0.13848484 -0.14619404 -0.20285112 -0.27772877 0.029582847 -0.05700862 -0.102692865
-0.13485894 0.18202326 -0.0090041915 0.009197406 -0.07142262 0.23515251 0.082906775 -0.0004155336
-0.25187033 -0.020462463 -0.26410568 0.05991305 0.08035779 -0.19275692 -0.055813044 0.06304661
-0.2745028 0.09565514 -0.047997165 0.12810938 0.16011709 0.22933584 0.07351484 -0.045304067
0.034915052 -0.2606494 0.03755403 -0.119717784 -0.1988819 -0.14909706 0.13732877 0.11403318
-0.05947615 0.0805065 0.05754238 0.094046995 -0.05477463 -0.104121074
00000000: 32b6 c33d f87f 5fbe 5760 87be 9363 383e
00000010: d786 b1bd 2823 a8bd 25e1 8a3d 4e1d 763d
00000020: 7387 0c3e bc64 0dbe d9e5 6e3e 1ef5 443e
00000030: aaf5 cfbd e2a2 77be 72fd 0c3e 6d1f 5b3e
00000040: 2934 79be 1840 533e 3b5f 533e f706 8a3e
00000050: ba08 5ebd e688 a53d febd 9dbe 7021 5a3e
00000060: e766 0dbe eeab 90bd 576c 8e3e ba8e 813c
00000070: a6a4 7e3d 2745 3c3e 84f0 513e 5023 6c3e
00000080: 78ba 173e 1592 d63d 220a 89be c2b0 233b
00000090: d778 313e d5e6 7ebe 5057 ef3d 885a 133e
000000a0: e5b6 17be 0639 a9bd a6cb 85bd 41b3 843c
000000b0: a91e 61be a8b6 52be c799 313e 2e84 8b3c
000000c0: a1a3 f4bd eb30 f8bd 2e7e 283d 6022 513e
000000d0: d20a 83be 5d4d 4f3e 9439 fe3d 2d66 853e
000000e0: 60f3 c8bd d976 4a3e add0 0dbd 1bc2 3a3e
000000f0: ddbc 7dbe cf42 2ebe 9591 803e de4e 943d
00000100: d614 7dbd 8736 1c3e 9c46 24be 60ba 76be
00000110: a7b6 77be ff48 2b3e 514f b7bd 5fc5 d63d
00000120: b734 8bbe 1307 babd 124b 603a 7802 6c3e
00000130: aec1 06be 56da 5cbe ad9e 43bd ef25 1bbc
00000140: f151 f63c 33ec 6f3e 8c84 8bba 52a1 4ebe
00000150: 21f0 463e 1dff 8fbd 08a2 b83c 7048 57bd
00000160: 2faa 77be 008e 06be ada8 633e b838 30be
00000170: 6b43 e33a 589c 31bb a5f2 133e bb11 88be
00000180: 34e1 82be d016 31be c177 83be 255a a33e
00000190: 8e99 3ebd 5c83 683e c0e3 1f3e 21c0 98be
000001a0: 7193 bbbd f8ce 0d3e e4b3 15be 34b8 4fbe
000001b0: 7732 8ebe ba57 f23c df81 69bd a350 d2bd
000001c0: 7618 0abe 4e64 3a3e 5186 13bc b7b0 163c
000001d0: 0646 92bd d2cb 703e 07cb a93d fadb d9b9
000001e0: 26f5 80be e5a0 a7bc dc38 87be 6367 753d
000001f0: a092 a43d 1262 45be 389c 64bd 951e 813d
00000200: a28b 8cbe d8e6 c33d ad98 44bd 1b2f 033e
00000210: bcf5 233e 04d7 6a3e f38e 963d c290 39bd
00000220: 1603 0f3d d773 85be 41d2 193d 992e f5bd
00000230: b2a7 4bbe e6ac 18be ea9f 0c3e 3a8a e93d
00000240: 439d 73bd 98e0 a43d 8fb1 6b3d b69b c03d
00000250: 5d5b 60bd 6e3d d5bd

mlp1.2.weight f4 [100, 150]
-0.034808375 0.04622282 -0.016356835 -0.041107163 0.02138842 -0.08133151 0.058273777 -0.052782763
0.04797167 -1.5575206e-05 -0.004956409 -0.043335687 -0.016784234 0.003827582 -0.05834089 -0.02271669
0.082432956 -0.054427315 -0.019474663 -0.054728612 -0.02455203 0.0036031771 0.054991245 0.043280054
-0.03544373 0.048388135 0.018258829 0.06252761 -0.075360596 0.033077653 0.013082739 0.0025857154
-0.0068284525 -0.027404083 -0.008517419 0.08478127 -0.0456169 0.087879084 -0.045795694 -0.061048526
-0.09510581 0.005661402 -0.01031748 -0.016668474 0.022488896 0.018757392 -0.027211348 0.0026244153
-0.06949702 -0.07217891 0.06438836 0.031927444 -0.012864641 0.04485751 -0.076742254 -0.008231394
-0.020063048 0.02279007 0.05425547 -0.07598052 0.0031248445 -0.056579422 -0.027855868 0.049927026
-0.05589493 0.06523218 -0.092929505 -0.0011022254 -0.045169894 0.057407416 -0.014022907 -0.040545806
-0.045895357 0.008543093 0.0050838767 0.078057505 0.039656598 0.0918797 0.0636897 -0.054248527
0.05990023 -0.078776084 0.067414984 0.038410973 -0.004095632 0.07266163 0.06755901 -0.057984468
0.05023547 0.028279578 -0.024748525 -0.011224977 -0.07827362 -0.061784804 -0.03942225 -0.0444021
0.021960799 -0.06421708 -0.041630425 0.038658407 0.09652504 0.06864801 -0.07108146 0.08436013
0.076038696 0.039737638 0.03739537 0.04196698 0.06238549 -0.006571164 -0.041793976 0.04753743
-0.072628714 0.07898918 0.073746525 0.03099842 -0.010669747 0.06132828 -0.06546737 0.01021733
-0.042956658 0.051562585 0.04802864 -0.044355184 -0.05208167 -0.069926746 0.023265526 -0.011583555
0.04279733 -0.03799878 -0.09195027 -0.02107775 0.013870349 0.096705705 -0.044479743 0.0087444
-0.072645254 -0.026132865 0.041478902 0.018028056 -0.06180825 0.06414831 -0.029865425 0.05474866
0.06536139 -0.012288059 -0.10749737 -0.059237726 -0.039385717 0.059674993 -0.034071453 -0.0018438287
-0.012810335 0.02373924 0.09271784 -0.060174175 0.07160365 0.0012876516 -0.059365135 -0.034339797
-0.055423453 -0.08448087 0.028682446 0.07129347 0.03853755 0.060515072 0.0072152494 -0.010852608
0.031769995 -0.056254547 -0.019745713 -0.00042188127 0.033747233 0.04094558 0.06998264 -0.016125815
0.03458725 0.01067214 -0.113344 0.022280803 0.03361756 -0.05254747 0.009410892 -0.08153508
0.027052678 -0.05898424 0.009744398 0.072121754 0.00965222 0.028418677 -0.028206494 -0.02981068
-0.018369589 -0.07955755 -0.022199554 0.027024362 -0.09064183 0.023189731 0.006810371 -0.006462896
-0.053359427 -0.037554655 0.016197393 -0.10125942 0.06874779 -0.019628571 -0.01378346 -0.02610601
0.077170745 0.06965534 0.07836216 0.08839742 -0.028447146 -0.03485476 0.070186734 -0.10596192
0.02668551 0.06003008 0.06965211 -0.07241454 0.058358736 0.010389505 -0.009736765 0.06821963
-0.10374649 -0.02921637 -0.044786 0.032522615 -0.07067562 -0.03903589 0.055770695 0.08597078
0.025400119 0.028806087 0.06929691 0.066083245 -0.02959064 -0.031250075 0.032172225 0.08010548
-0.058947902 0.11164314 0.018273197 0.028215045 0.08120842 -0.024302281 0.0022209727 0.022709278
0.055249307 -0.094677664 0.034665 0.037134476 0.0458352 0.015261131 -0.034186944 -0.059644338
00000000: 3a93 0ebd 2454 3d3d c5fe 85bc fc5f 28bd
00000010: c536 af3c 2291 a6bd 7cb0 6e3d bd32 58bd
00000020: f17d 443d 80a7 82b7 5f69 a2bb c380 31bd
00000030: 177f 89bc 2cd8 7a3b dbf6 6ebd 5a18 babc
00000040: 9cd2 a83d 2def 5ebd 5489 9fbc 1c2b 60bd
00000050: 5721 c9bc 4823 6c3b 803e 613d 6d46 313d
00000060: 722d 11bd a332 463d 8a93 953c 7a0e 803d
00000070: a856 9abd 6f7c 073d fc58 563c 1b75 293b
00000080: 36c1 dfbb 877e e0bc a58c 0bbc cda1 ad3d
00000090: c9d8 3abd f3f9 b33d 4494 3bbd 050e 7abd
000000a0: d6c6 c2bd 4883 b93b a60a 29bc 538c 88bc
000000b0: a23a b83c 1aa9 993c 55ea debc 62fe 2b3b
000000c0: 7454 8ebd 89d2 93bd 0bde 833d 5ac6 023d
000000d0: 37c6 52bc 82bc 373d 0b2b 9dbd f8dc 06bc
000000e0: 435b a4bc 3eb2 ba3c fc3a 5e3d ad9b 9bbd
000000f0: 31ca 4c3b d3bf 67bd fd31 e4bc 4880 4c3d
00000100: 15f2 64bd 7398 853d d351 bebd 8c78 90ba
00000110: 1104 39bd 0a24 6b3d 56c0 65bc 5c13 26bd
00000120: c5fc 3bbd 54f8 0b3c a696 a63b 9ddc 9f3d
00000130: f56e 223d 6d2b bc3d bf6f 823d b433 5ebd
00000140: f259 753d 5b55 a1bd de10 8a3d d354 1d3d
00000150: a734 86bb 9fcf 943d 615c 8a3d 1f81 6dbd
00000160: b5c3 4d3d 93aa e73c 6bbd cabc f7e8 37bc
00000170: eb4d a0bd 1012 7dbd 3a79 21bd fade 35bd
00000180: 22e7 b33c 3f84 83bd aa84 2abd 4758 1e3d
00000190: ecae c53d 5497 8c3d 2893 91bd 01c5 ac3d
000001a0: 2dba 9b3d efc3 223d e32b 193d 91e5 2b3d
000001b0: ed87 7f3d eb52 d7bb 2930 2bbd 9cb6 423d
000001c0: 5dbe 94bd 14c5 a13d 6b08 973d 66f0 fd3c
000001d0: 2ad0 2ebc 5d33 7b3d c213 86bd 9766 273c
000001e0: 52f3 2fbd 4a33 533d aeb9 443d c8ad 35bd
000001f0: 9753 55bd c135 8fbd 5897 be3c f3c8 3dbc
00000200: 414c 2f3d 9ca4 1bbd 6c50 bcbd 3fab acbc
00000210: 7640 633c a40d c63d 6430 36bd ac44 0f3c
00000220: 09c7 94bd 9714 d6bc c8e5 293d 93af 933c
00000230: a62a 7dbd 3060 833d 56a8 f4bc 2240 603d
00000240: 31dc 853d db53 49bc 9527 dcbd 42a3 72bd
00000250: eb52 21bd c46d 743d 828e 0bbd a0ac f1ba
00000260: 70e2 51bc cb78 c23c dae2 bd3d 3279 76bd
00000270: efa4 923d 6bc6 a83a db28 73bd e3a7 0cbd
00000280: b403 63bd 4e04 adbd 73f7 ea3c 5002 923d
00000290: 8dd9 1d3d a7de 773d e66d ec3b 23cf 31bc
000002a0: 4121 023d 2b6b 66bd c3c1 a1bc f22f ddb9
000002b0: 8a3a 0a3d 8db6 273d 0f53 8f3d 491a 84bc
000002c0: 5cab 0d3d 33da 2e3c e620 e8bd 3b86 b63c
000002d0: 91b2 093d 043c 57bd 2430 1a3c ddfb a6bd
000002e0: 949d dd3c 7599 71bd f8a6 1f3c 92b4 933d
000002f0: 5824 1e3c 49ce e83c 4e11 e7bc 8735 f4bc
00000300: d27b 96bc 12ef a2bd d7db b5bc 3262 dd3c
00000310: 6ca2 b9bd 64f8 bd3c 8829 df3b b3c6 d3bb
00000320: 6a8f 5abd e9d2 19bd 65b0 843c 1961 cfbd
00000330: a4cb 8c3d 19cc a0bc 05d4 61bc 45dc d5bc
00000340: b20b 9e3d 75a7 8e3d 577c a03d b509 b53d
00000350: fd09 e9bc ddc3 0ebd 10be 8f3d 9002 d9bd
00000360: 929b da3c 1ae2 753d c4a5 8e3d 134e 94bd
00000370: 9209 6f3d be38 2a3c f486 1fbc bcb6 8b3d
00000380: 0a79 d4bd 2b57 efbc 8671 37bd 6f36 053d
00000390: 61be 90bd 19e4 1fbd d06f 643d 7311 b03d
000003a0: e913 d03c befa eb3c 8aeb 8d3d a756 873d
000003b0: 1268 f2bc 1400 00bd 06c7 033d 580e a43d
000003c0: 5b73 71bd 29a5 e43d acb1 953c 3d23 e73c
000003d0: 9a50 a63d 9415 c7bc bd8d 113b cf08 ba3c
000003e0: 194d 623d 5de6 c1bd e3fc 0d3d 521a 183d
000003f0: b1bd 3b3d d309 7a3c 9c07 0cbd 9f4d 74bd

mlp1.2.bias f4 [100]
0.05440219 -0.05014162 -0.04147282 0.0032379169 0.008489575 0.07354062 0.05062298 -0.04162886
-0.06527216 0.06915946 -0.013144028 -0.03207061 -0.018102901 -0.039677974 0.049524017 0.06330387
0.09743391 -0.012081953 -0.07549737 0.013223029 0.07396104 -0.074813165 0.11623999 -0.022027908
0.009188803 0.027975047 -0.012498897 -0.007952182 -0.09524148 -0.050066486 -0.016601985 0.048865963
-0.04878833 -0.035214905 -0.029943662 -0.05791565 -0.06263742 -0.10973131 0.073614 -0.046254456
-0.0025128506 -0.019993903 -0.011287288 -0.008639781 -0.055385992 0.016366275 0.02995387 0.0030755051
-0.06694878 -0.011876313 0.102681525 0.045005478 0.06544129 0.075268246 0.08306459 -0.04736042
0.014499088 0.08264796 0.030261818 -0.041392226 0.06416891 0.038995806 0.077269666 -0.02186791
-0.012151126 0.033030488 0.027051182 -0.017486466 0.042110484 0.022021187 0.019074302 0.0136074275
0.020645948 0.03265843 0.07366373 0.010162924 0.12895493 0.04213983 -0.049828865 -0.037404064
0.06777914 -0.025613682 -0.035860214 0.0050850105 0.034329597 -0.04292132 0.053340912 -0.0020564257
0.052118346 -0.005461254 0.029332254 0.06943097 -0.0034045118 0.09656604 0.0026177827 0.08927321
-0.124379486 0.023428937 0.05526855 0.059666943
00000000: d5d4 5e3d 4d61 4dbd 67df 29bd 3b33 543b
00000010: dc17 0b3c 779c 963d 0b5a 4f3d 0683 2abd
00000020: 69ad 85bd 7aa3 8d3d 0d5a 57bc 795c 03bd
00000030: 894c 94bc 5f85 22bd b2d9 4a3d 76a5 813d
00000040: 6e8b c73d 62f3 45bc 5d9e 9abd 67a5 583c
00000050: e378 973d a537 99bd 3b0f ee3d df73 b4bc
00000060: a28c 163c ed2b e53c 2cc8 4cbc de49 02bc
00000070: f70d c3bd 8412 4dbd e300 88bc ad27 483d
00000080: 46d6 47bd 813d 10bd 694c f5bc f638 6dbd
00000090: 0c48 80bd cfba e0bd f0c2 963d 5075 3dbd
000000a0: a3ae 24bb 41ca a3bc 51ee 38bc de8d 0dbc
000000b0: 6cdc 62bd 9112 863c d261 f53c 6a8e 493b
000000c0: 711c 89bd de94 42bc b14a d23d aa57 383d
000000d0: 1506 863d 3d26 9a3d c51d aa3d 00fd 41bd
000000e0: 958d 6d3c 5543 a93d a2e7 f73c e58a 29bd
000000f0: fd6a 833d 11ba 1f3d 8f3f 9e3d 5524 b3bc
00000100: 8415 47bc fa4a 073d 719a dd3c c73f 8fbc
00000110: 0b7c 2c3d c765 b43c b641 9c3c b0f1 5e3c
00000120: b121 a93c d9c4 053d 02dd 963d 6582 263c
00000130: c30c 043e d09a 2c3d 5a19 4cbd 0135 19bd
00000140: cacf 8a3d c9d3 d1bc 29e2 12bd 29a0 a63b
00000150: 319d 0c3d 44ce 2fbd 007c 5a3d 19c5 06bb
00000160: 0c7a 553d 52f4 b2bb 324a f03c d331 8e3d
00000170: 3b1e 5fbb 6ac4 c53d 1b8f 2b3b dfd4 b63d
00000180: acba febd 0bee bf3c 4661 623d 5365 743d

mlp2.0.weight f4 [100, 100]
-0.06263485 0.04469248 0.00441509 -0.0023752989 -0.024518587 0.07742103 0.06693891 0.04893648
0.08216234 -0.061653137 -0.062826395 -0.07442151 0.029241534 -0.09865542 0.082460396 0.08921659
0.0949883 -0.06804745 -0.09097285 0.005286752 0.04160711 0.08456686 0.088054635 0.086881444
-0.06466506 0.0592121 0.08518242 -0.102752924 0.06962465 -0.041168146 -0.029264625 -0.030323096
0.09554064 0.036659904 -0.053927444 -0.05615649 -0.024421604 -0.11210522 0.04967042 0.06383768
-0.07140014 0.08498143 -0.01689587 -0.044163782 0.0019989717 -0.023888288 0.056489874 -0.016039757
-0.036248837 0.056827076 -0.047014475 0.015023312 -0.01767092 -0.0015849904 0.05977877 -0.022610433
0.08145043 -0.06803167 -0.018374821 -0.097169265 -0.06762169 0.07276703 0.06987445 -0.062161233
0.01648554 -0.01396721 0.030966025 -0.08151945 -0.041135397 0.08196172 -0.08198586 -0.03537676
0.012999588 0.022707066 0.0054096873 -0.031104974 0.053758014 0.030405115 0.028441941 0.093712315
0.009870947 0.015976338 0.091601364 0.055646647 0.041697204 -0.0038958197 -0.059395127 -0.0049630986
0.05239005 -0.04849972 0.064564206 0.036208663 -0.07168748 -0.002020068 0.060813945 0.015737783
-0.024471901 -0.039572537 -0.031516403 0.01693478 -0.04044163 0.08790506 -0.03550776 0.0750111
0.076297924 0.04614351 0.09920421 -0.04874201 -0.06397466 -0.06351573 -0.020524772 0.007013354
-0.05236167 0.033535656 0.08861739 -0.07205688 0.030149415 -0.039153773 0.011695072 -0.04077088
0.08314529 0.047774166 -0.019751297 -0.030337645 -0.0909552 -0.027134473 -0.0119086625 -0.06546365
-0.11578115 -0.0006603374 -0.041191213 0.102480635 0.016820572 -0.032580793 -0.007007948 0.102822825
0.07027704 0.06996378 0.08069798 -0.046081055 -0.057579495 -0.08784128 0.012913259 0.055400163
-0.060246486 0.057369392 0.047328804 0.06756595 0.03181657 -0.0051886905 0.074046314 -0.025902828
-0.0064616892 0.024628265 -0.07236243 0.074584246 0.048490483 0.08139513 0.12731728 0.07970494
-0.091761164 -0.04569407 0.09986161 0.027710605 0.040413152 0.018856011 -0.018299252 -0.062453836
-0.0026417759 0.071124725 -0.027415402 -0.010869595 0.096609734 -0.024192076 0.06895437 -0.04635554
-0.104290456 -0.04383199 -0.071668565 -0.0941075 -0.10901373 0.11995259 -0.009563291 0.019290872
-0.096302435 -0.10323786 0.08688284 -0.038864065 -0.06382698 -0.107025 0.065644085 0.08714076
0.05150657 0.098098025 -0.07991681 0.113660164 0.03921443 -0.07470008 0.03918234 0.016807195
-0.07246746 0.03994689 0.07194692 0.04601017 0.13327777 -0.082365885 -0.024481641 -0.08442256
0.050496835 -0.017639646 -0.056368254 -0.07696414 0.018264877 0.02876534 -0.019994881 0.037914008
0.13177231 -0.034016218 -0.091775484 0.12339844 0.02789905 0.1560774 -0.14241366 0.09778185
0.012041983 -0.069328874 0.023960538 0.08300512 0.06765669 -0.022199411 -0.056698367 0.04917465
0.13966325 0.0942074 -0.04291147 -0.11204521 -0.06517464 -0.061028987 0.09098467 -0.06853772
-0.079889596 0.031471618 -0.014137262 -0.036138676 0.007827957 -0.034995236 0.049942218 0.087637864
0.021552656 0.10026821 0.034773875 0.046988156 0.077648275 0.019833107 0.054115232 -0.036454234
00000000: b346 80bd 760f 373d 76ac 903b e7aa 1bbb
00000010: 34db c8bc eb8e 9e3d 4417 893d 9e71 483d
00000020: bb44 a83d 0088 7cbd 20ab 80bd 4e6a 98bd
00000030: f18b ef3c da0b cabd ffe0 a83d 30b7 b63d
00000040: 3a89 c23d 765c 8bbd f94f babd 7d3c ad3b
00000050: 386c 2a3d 6431 ad3d fd55 b43d e6ee b13d
00000060: 1d6f 84bd 6388 723d 1f74 ae3d 2070 d2bd
00000070: 5e97 8e3d ee9f 28bd 5ebc efbc 2468 f8bc
00000080: d0aa c33d b228 163d 06e3 5cbd 5904 66bd
00000090: d10f c8bc 6c97 e5bd 3673 4b3d 54bd 823d
000000a0: 3d3a 92bd be0a ae3d 3569 8abc 15e5 34bd
000000b0: 2e01 033b 5fb1 c3bc ed61 673d cf65 83bc
000000c0: a979 14bd 82c3 683d 4092 40bd 5624 763c
000000d0: 9bc2 90bc 74bf cfba 95da 743d 8439 b9bc
000000e0: 7ccf a63d 3054 8bbd cb86 96bc ae00 c7bd
000000f0: 3e7d 8abd e106 953d 561a 8f3d c79c 7ebd
00000100: af0c 873c bad6 64bc 76ac fd3c abf3 a6bd
00000110: 977d 28bd 8cdb a73d 34e8 a7bd 39e7 10bd
00000120: 39fc 543c 2b04 ba3c bf43 b13b dccf febc
00000130: 5d31 5c3d 2614 f93c 13ff e83c 3eec bf3d
00000140: c1b9 213c cfe0 823c 7f99 bb3d bded 633d
00000150: b0ca 2a3d 0251 7fbb 4e48 73bd 7da1 a2bb
00000160: f396 563d a4a7 46bd 3d3a 843d 894f 143d
00000170: e3d0 92bd 1e63 04bb 0b18 793d 86ec 803c
00000180: 4c79 c8bc d016 22bd 5817 01bd cfba 8a3c
00000190: 1fa6 25bd 9107 b43d 9670 11bd 6b9f 993d
000001a0: 1642 9c3d fa00 3d3d 942b cb3d b4a5 47bd
000001b0: 2605 83bd 8914 82bd 9123 a8bc 47d0 e53b
000001c0: 3179 56bd af5c 093d 097d b53d 8f92 93bd
000001d0: e8fb f63c b55f 20bd b09c 3f3c 5eff 26bd
000001e0: 1448 aa3d d8ae 433d 79cd a1bc a786 f8bc
000001f0: b846 babd 1d49 debc 8d1c 43bc ce11 86bd
00000200: ab1e edbd 7e1a 2dba 1eb8 28bd 5ee1 d13d
00000210: 4ccb 893c 7073 05bd eea2 e5bb c694 d23d
00000220: 69ed 8f3d 2c49 8f3d fc44 a53d 7dbf 3cbd
00000230: 7ad8 6bbd 21e6 b3bd 2292 533c 48eb 623d
00000240: 05c5 76bd 2bfc 6a3d d9db 413d 0460 8a3d
00000250: 1752 023d e405 aabb 98a5 973d 2b32 d4bc
00000260: 94bc d3bb 37c1 c93c c132 94bd a0bf 983d
00000270: f59d 463d 7db2 a63d 765f 023e 583c a33d
00000280: 47ed bbbd b529 3bbd 3e84 cc3d 5a01 e33c
00000290: 4388 253d ec77 9a3c 50e8 95bc 98cf 7fbd
000002a0: a521 2dbb d7a9 913d 4496 e0bc 6316 32bc
000002b0: 53db c53d 762e c6bc f337 8d3d 4fdf 3dbd
000002c0: 3c96 d5bd 2c89 33bd f8c6 92bd 6fbb c0bd
000002d0: 9742 dfbd b4a9 f53d 5aaf 1cbc e407 9e3c
000002e0: 363a c5bd 5f6e d3bd a1ef b13d ed2f 1fbd
000002f0: b8b7 82bd ec2f dbbd 6870 863d db76 b23d
00000300: 8ef8 523d 9ee7 c83d 6dab a3bd a9c6 e83d
00000310: 4f9f 203d 5bfc 98bd a97d 203d 3eaf 893c
00000320: d269 94bd 5a9f 233d e858 933d 2975 3c3d
00000330: f879 083e 72af a8bd b98d c8bc bce5 acbd
00000340: c5d5 4e3d 0581 90bc 66e2 66bd 609f 9dbd
00000350: 39a0 953c 4aa5 eb3c 4ecc a3bc b84b 1b3d
00000360: 52ef 063e 9754 0bbd c9f4 bbbd 52b8 fc3d
00000370: 8c8c e43c c1d2 1f3e e3d4 11be da41 c83d
00000380: bd4b 453c 4cfc 8dbd e448 c43c 97fe a93d
00000390: 978f 8a3d 8adb b5bc 8c3c 68bd 5c6b 493d
000003a0: e203 0f3e cfef c03d f0c3 2fbd f677 e5bd
000003b0: 487a 85bd 88f9 79bd 2c56 ba3d 815d 8cbd
000003c0: 289d a3bd 62e8 003d f99f 67bc 2606 14bd
000003d0: d540 003c 2a57 0fbd 3690 4c3d 7b7b b33d
000003e0: 328f b03c 6b59 cd3d 0d6f 0e3d a776 403d
000003f0: 0f06 9f3d 0a79 a23c efa7 5d3d 0951 15bd

mlp2.0.bias f4 [100]
0.012725616 -0.10130137 -0.0024556038 0.044065334 0.047336962 -0.0022665933 0.0070541794 0.004964006
-0.034748524 0.0261343 0.032536294 -0.086387 0.08589607 -0.024778605 -0.055828817 -0.031166514
0.090818524 0.052841738 -0.05120973 0.053055987 0.056343503 -0.08306205 -0.022179553 0.10450745
0.0531625 -0.10390589 0.05525421 0.11978145 -0.0021944612 0.016442437 -0.09460422 -0.06668327
0.032375127 0.020003513 0.0069520012 -0.037653524 0.03722749 0.0630442 0.04030971 0.07566217
-0.040347572 0.104776025 0.015271733 0.10797777 0.0064767892 0.0636332 -0.050880175 0.074792586
-0.08884587 -0.07861027 0.08414306 -0.04167748 0.07133091 -0.01938257 -0.09928347 0.05105338
-0.044975016 0.12369419 -0.05279993 -0.04237294 0.07902194 0.010458347 -0.09807987 -0.06258227
-0.092523396 0.0719572 -0.032859128 0.04884888 0.057057343 -0.050696954 -0.032800965 0.07586045
0.18940014 0.083656326 0.12037663 -0.10821226 -0.07382287 -0.008869319 0.090249 -0.024280677
0.07189144 0.07029711 0.08046423 0.004739977 -0.045714665 -0.0864523 -0.0690861 0.032668706
-0.10656796 0.032749932 0.072212905 0.02304917 -0.001888547 -0.06450034 -0.07583294 0.039336488
0.05720059 -0.026316084 0.02317586 -0.050826233
00000000: 1a7f 503c 1877 cfbd 32ee 20bb da7d 343d
00000010: 67e4 413d 208b 14bb bf26 e73b 1aa9 a23b
00000020: 7854 0ebd 9917 d63c c744 053d abeb b0bd
00000030: 47ea af3d 80fc cabc c2ac 64bd eb50 ffbc
00000040: 10ff b93d 9470 583d 4bc1 51bd 3c51 593d
00000050: 72c8 663d 701c aabd e5b1 b5bc 0008 d63d
00000060: ecc0 593d 9ccc d4bd 3d52 623d fa4f f53d
00000070: f3d0 0fbb 4ab2 863c dbbf c1bd 3d91 88bd
00000080: c89b 043d 68de a33c 9dcd e33b 953a 1abd
00000090: da7b 183d 511d 813d cb1b 253d c5f4 9a3d
000000a0: 7f43 25bd d094 d63d 4a36 7a3c 7323 dd3d
000000b0: 3f3b d43b 2052 823d bb67 50bd db2c 993d
000000c0: d3f4 b5bd 6cfe a0bd 3253 ac3d 01b6 2abd
000000d0: f115 923d 32c8 9ebc 2255 cbbd 591d 513d
000000e0: b937 38bd 6153 fd3d bd44 58bd 3f8f 2dbd
000000f0: 41d6 a13d 7d59 2b3c 19de c8bd 222b 80bd
00000100: e87c bdbd 4c5e 933d 4b97 06bd c315 483d
00000110: f6b4 693d 9ca7 4fbd 4e5a 06bd b95c 9b3d
00000120: 1cf2 413e 0254 ab3d 0688 f63d 649e ddbd
00000130: 7230 97bd 9f50 11bc 78d4 b83d 45e8 c6bc
00000140: d23b 933d eef7 8f3d 6eca a43d cf51 9b3b
00000150: 4d3f 3bbd e70d b1bd 037d 8dbd 9fcf 053d
00000160: 4d40 dabd cb24 063d 5ce4 933d 9dd1 bc3c
00000170: 1f89 f7ba c118 84bd 4d4e 9bbd 4c1f 213d
00000180: 2a4b 6a3d d494 d7bc 4ddb bd3c 2b2f 50bd

mlp2.2.weight f4 [50, 100]
0.07229026 0.062538564 -0.050597068 -0.09878671 -0.034083243 0.07656098 0.090422064 0.09005142
-0.06707138 -0.060311142 0.07322015 -0.06819516 0.08328406 0.0038437578 -0.038520005 0.08445958
0.079325944 -0.071388535 0.08532167 0.07560321 0.10262794 0.008733096 0.07916784 0.073144935
0.037106697 0.037691753 0.08888652 -0.044246744 -0.084555425 0.09299344 -0.08828528 0.09303245
-0.011102171 0.067110136 0.0954184 -0.002752646 0.0101669105 0.029680457 0.0076696845 0.07867664
-0.000482094 -0.041206904 0.0597389 -0.06923737 0.024478845 -0.05007191 0.037258193 -0.0043746303
-0.06395327 -0.069718055 0.046718724 0.058210265 -0.06320999 0.10285566 -0.012613786 0.053244855
-0.026314497 -0.012786352 0.051251784 -0.01505951 0.11965339 -0.018858835 -0.056913495 0.11119409
-0.048830677 -0.08358596 -0.025716063 -0.039272595 0.02159172 0.01481514 0.07796343 -0.022994075
0.030002963 -0.11143174 -0.052883677 0.03707223 0.12048275 0.07097376 0.0988028 0.06532527
0.10512291 0.024279708 -0.041397896 -0.06575647 0.094512686 -0.08405625 -0.09613344 0.00068360544
-0.08753105 -0.06712404 -0.012899565 0.06779621 0.05105585 -0.016675763 -0.013596045 0.08233025
-0.06465521 0.05420658 -0.025725521 0.008161012 0.075871 -0.08126898 0.076100275 0.004311443
-0.054345347 0.030290054 -0.089102395 -0.120869204 -0.025012445 0.07851942 0.068313986 0.020959314
-0.08569725 -0.11441664 -0.0021974365 0.0929044 0.0046737385 0.06633356 -0.08055892 0.05042527
0.07980615 -0.004788515 0.06335916 -0.06130006 0.028057022 0.01912863 0.011949338 0.026372546
0.019454814 -0.056251638 0.07041724 0.050839458 -0.04789946 -0.07154581 -0.08578736 0.09042994
-0.10818534 0.026030473 -0.10451102 0.011191573 0.03143184 0.07354332 0.06884461 -0.12302039
-0.02979719 0.058503587 0.05066352 -0.08258469 0.0047534937 -0.099123746 -0.12310524 -0.03692033
0.045425225 0.07996309 0.013997847 0.0101674795 0.098151885 -0.078032486 -0.013929985 0.062458884
0.10581482 0.058962684 -0.09826677 -0.07824814 0.06824281 0.080854714 -0.025905931 -0.058879636
-0.010592751 0.014951491 -0.11262742 0.04459247 -0.064104676 -0.13380647 -0.002751872 -0.035772067
-0.032154083 -0.08219566 -0.08107517 0.00010238082 -0.07881303 -0.005906367 -0.014657739 0.04436038
-0.08154558 -0.0012969786 0.037800726 0.059075434 -0.03616635 0.11475728 -0.098368354 -0.039684437
-0.04696111 -0.028843876 0.0065221633 -0.07161505 -0.03293707 -0.071533605 -0.10374414 -0.054251358
-0.025243722 -0.098732665 -0.09292017 0.11146384 0.065802954 -0.07123214 0.00094087416 -0.041289367
0.0013305396 -0.07744258 0.10292239 -0.029399266 -0.09882939 -0.09690611 -0.027580258 -0.0679394
0.047731075 -0.034550223 0.055671856 -0.036963057 -0.04749244 -0.040044513 0.014060153 0.095814504
-0.12852876 0.02539559 0.08988919 0.008191742 0.067421205 0.0963133 0.030083256 -0.027098238
0.017237794 0.025481109 -0.08746738 -0.08540284 0.004852884 -0.107488275 0.0682008 0.035994235
-0.04207108 -0.045735832 -0.105309196 0.04586808 0.08165311 0.08218823 -0.16662936 -0.040380307
-0.013670829 -0.023427928 0.042937513 0.07498257 0.07575601 0.0052179173 0.066359356 -0.13470559
00000000: ea0c 943d 3814 803d df3e 4fbd b050 cabd
00000010: df9a 0bbd 01cc 9c3d 342f b93d e16c b83d
00000020: b85c 89bd d108 77bd 72f4 953d e7a9 8bbd
00000030: d590 aa3d 8ee7 7b3b 27c7 1dbd 25f9 ac3d
00000040: a475 a23d 2734 92bd 21bd ae3d dbd5 9a3d
00000050: 992e d23d 4215 0f3c c022 a23d 03cd 953d
00000060: 31fd 173d ab62 1a3d 230a b63d 133c 35bd
00000070: 652b adbd 5873 be3d eace b4bd cc87 be3d
00000080: e1e5 35bc 0a71 893d b96a c33d bd65 34bb
00000090: 1d93 263c 6e24 f33c fa51 fb3b 3821 a13d
000000a0: 90c1 fcb9 92c8 28bd c7b0 743d 52cc 8dbd
000000b0: dc87 c83c 3418 4dbd 0c9c 183d 0f59 8fbb
000000c0: eff9 82bd 57c8 8ebd 225c 3f3d e36d 6e3d
000000d0: 3d74 81bd fda5 d23d 0eaa 4ebc 4717 5a3d
000000e0: 8091 d7bc d97d 51bc 64ed 513d 2abc 76bc
000000f0: d60c f53d d87d 9abc 201e 69bd bab9 e33d
00000100: ad02 48bd 1e2f abbd 7eaa d2bc 4ddc 20bd
00000110: 1ee1 b03c 33bb 723c 4aab 9f3d 125e bcbc
00000120: c6c8 f53c 5336 e4bd 8e9c 58bd 0dd9 173d
00000130: a9bf f63d b15a 913d 1f59 ca3d 41c9 853d
00000140: ae4a d73d 3de6 c63c d790 29bd 54ab 86bd
00000150: de8f c13d af25 acbd 9ce1 c4bd fc33 333a
00000160: 7b43 b3bd 5478 89bd b258 53bc bdd8 8a3d
00000170: f01f 513d 9c9b 88bc f2c1 5ebc c39c a83d
00000180: f369 84bd b807 5e3d 54be d2bc c4b5 053c
00000190: 4162 9b3d 5a70 a6bd 76da 9b3d 0147 8d3b
000001a0: 3a99 5ebd d922 f83c 517b b6bd 468a f7bd
000001b0: e6e6 ccbc cace a03d 34e8 8b3d deb2 ab3c
000001c0: 0a82 afbd 4553 eabd de02 10bb a944 be3d
000001d0: 2926 993b e4d9 873d 13fc a4bd ba8a 4e3d
000001e0: 6871 a33d fae8 9cbb 73c2 813d c615 7bbd
000001f0: d7d7 e53c a5b3 9c3c 28c7 433c 3d0b d83c
00000200: b45f 9f3c 1e68 66bd ea36 903d 093d 503d
00000210: 3932 44bd 9c86 92bd 49b1 afbd 5533 b93d
00000220: 4790 ddbd dc3d d53c e009 d6bd dc5c 373c
00000230: acbe 003d e19d 963d 67fe 8c3d 1df2 fbbd
00000240: 3d19 f4bc 75a1 6f3d 8d84 4f3d 2922 a9bd
00000250: 32c3 9b3b 6401 cbbd 9a1e fcbd c639 17bd
00000260: cd0f 3a3d b0c3 a33d 3a57 653c 8095 263c
00000270: db03 c93d 7fcf 9fbd 983a 64bc e3d4 7f3d
00000280: 71b5 d83d db82 713d 1740 c9bd 9040 a0bd
00000290: e3c2 8b3d 2897 a53d ad38 d4bc c62b 71bd
000002a0: 388d 2dbc 19f7 743c 34a9 e6bd 98a6 363d
000002b0: 5049 83bd 9004 09be c058 34bb bb85 12bd
000002c0: 00b4 03bd 3356 a8bd bd0a a6bd 49b5 d638
000002d0: ba68 a1bd 338a c1bb 0327 70bc 3bb3 353d
000002e0: 5e01 a7bd 61ff a9ba efd4 1a3d 15f9 713d
000002f0: 2b23 14bd dd05 eb3d 5975 c9bd 268c 22bd
00000300: 4b5a 40bd fe49 ecbc dfb7 d53b e9aa 92bd
00000310: 05e9 06bd 3680 92bd cf77 d4bd ac36 5ebd
00000320: eccb cebc 5a34 cabd ee4c bebd 2747 e43d
00000330: b3c3 863d 28e2 91bd ffa4 763a 0a1f 29bd
00000340: 8065 ae3a 379a 9ebd f9c8 d23d bbd6 f0bc
00000350: 1067 cabd b676 c6bd feef e1bc d023 8bbd
00000360: a981 433d 8984 0dbd 2c08 643d 9366 17bd
00000370: 6f87 42bd b705 24bd 8e5c 663c 653a c43d
00000380: 0b9d 03be 6a0a d03c d317 b83d a836 063c
00000390: 2114 8a3d e83f c53d 2971 f63c 20fd ddbc
000003a0: 4636 8d3c c2bd d03c 1922 b3bd afe7 aebd
000003b0: f104 9f3b d022 dcbd dcac 8b3d b16e 133d
000003c0: ba52 2cbd 7f55 3bbd 59ac d7bd 2be0 3b3d
000003d0: bf39 a73d 4d52 a83d e3a0 2abe d265 25bd
000003e0: 9dfb 5fbc edeb bfbc 3fdf 2f3d 7690 993d
000003f0: f825 9b3d 10fb aa3b 6ae7 873d 43f0 09be

mlp2.2.bias f4 [50]
-0.07842139 -0.027131846 0.12795623 -0.02640176 -0.0016893069 0.036647737 0.05035012 0.0019974422
-0.0541054 -0.096999474 0.08659703 0.059295148 0.047274243 0.045429643 -0.02322256 0.01632932
0.036923394 -0.013417226 -0.15846646 0.05729305 0.06927946 0.03748654 0.085480824 0.1225845
-0.10296098 0.033323318 -0.074353546 0.07953281 0.010753165 0.06544197 0.021545067 -0.07762536
0.0021061944 -0.05366956 -0.037696704 0.015009329 -0.040231887 0.07512796 0.09771146 0.04310599
-0.07842029 -0.021119144 0.07271658 0.0936738 0.069532685 -0.010913974 -0.10997925 0.061393842
0.013925001 -0.03721442
00000000: 659b a0bd 9b43 debc f506 033e 8148 d8bc
00000010: bc6b ddba f01b 163d ed3b 4e3d 85e7 023b
00000020: a09d 5dbd a9a7 c6bd c959 b13d 78df 723d
00000030: a3a2 413d 6f14 3a3d 3d3d bebc 11c5 853c
00000040: fc3c 173d edd3 5bbc 0845 22be 1eac 6a3d
00000050: 64e2 8d3d 7c8b 193d 9210 af3d 950d fb3d
00000060: 35dd d2bd 087e 083d ac46 98bd 19e2 a23d
00000070: 0b2e 303c 7106 863d 487f b03c 0bfa 9ebd
00000080: 1408 0a3b 9dd4 5bbd dc67 1abd b0e9 753c
00000090: 31ca 24bd b0dc 993d f21c c83d e88f 303d
000000a0: d19a a0bd 0e02 adbc 6eec 943d 0dd8 bf3d
000000b0: 2767 8e3d 86d0 32bc cd3c e1bd 1c78 7b3d
000000c0: b025 643c 266e 18bd

attention.0.weight f4 [100, 200]
0.06505255 -0.009934499 0.012481865 0.036197852 -0.065071255 0.010836453 0.066478185 -0.0017313877
-0.04295143 0.05870159 -0.014230922 0.020332968 -0.00020805123 -0.011337148 -0.0007610492 0.049810003
0.010297362 0.0035640686 0.054156344 -0.04867935 0.005714452 0.04130474 -0.021921786 4.3752392e-05
0.039311618 -0.008459516 0.009354267 -0.0017987547 -0.011180125 0.0350182 -0.012377289 0.009923405
0.054252733 0.062963165 0.018333314 -0.01958099 -0.036061544 -0.02097284 0.0062891087 -0.064482555
-0.02049123 -0.027548471 -0.04727547 -0.053355493 -0.07038275 -0.05877539 0.000102182006 0.025343644
0.0363551 0.077394575 -0.008605859 0.058063548 -0.00061850843 -0.03355909 -0.035920035 0.001179978
0.011575276 -0.060190324 0.063370354 0.06762687 0.05698408 -0.0492046 -0.014093308 0.059539013
0.05442705 0.031132264 0.00812961 -0.024309466 0.065949276 0.0122509925 0.055811618 0.06980132
-0.011376876 -0.035933096 0.044281486 0.010674153 0.060348805 0.051265053 -0.07055748 0.07364604
0.021313092 -0.055853125 -0.03391166 0.036806513 -0.056962144 0.0238242 0.012536372 0.0659816
-0.015301505 0.012311176 0.04704658 -0.04892107 -0.045484565 0.008430265 -0.057992406 -0.058804005
-0.0714025 -0.02115426 0.013345177 -0.029072015 -0.060095392 -0.025468051 -0.014754676 -0.038177624
0.024792016 -0.046744134 -0.006061791 -0.019373862 0.042036626 0.04552009 -0.06507153 0.047800202
-0.029607782 -0.03548882 -0.027137684 0.03225154 -0.032747243 0.027019052 0.02725407 -0.0015270929
0.013718089 0.0049466714 0.01734302 -0.021345194 0.027618237 0.0001208216 -0.03126656 0.03278615
0.0312752 0.03490153 0.0473656 -0.0066765067 0.0073143425 0.046722688 0.05255352 0.06868125
-0.06308405 0.007896084 0.05356316 -0.070649266 -0.004784285 0.007610563 0.06438089 0.03698775
-0.039391626 -0.0016253984 0.061283875 0.04730612 -0.037524663 -0.024063906 -0.058686696 -0.03079216
0.039784882 0.036859937 0.009716639 0.055361 -0.012105327 0.043684416 0.06187404 -0.026761169
-0.036905542 0.009784018 -0.022010898 0.04483748 0.015010096 -0.026616724 -0.041830014 -0.04313781
0.039641358 0.043938518 -0.053737223 -0.057437576 0.046377264 -0.039804567 -0.014183365 0.021433907
-0.01648881 -0.056964226 0.027114535 0.006749106 0.056951355 5.8538157e-05 -0.048763838 -0.015488595
-0.009724979 0.05496213 0.04451001 0.042399462 -0.06943902 -0.018194389 -0.04376238 -0.013387194
-0.05937952 0.05205941 0.05831065 0.010839997 0.023547692 0.003522317 -0.01955596 0.038766097
0.045327857 0.00832434 -0.033622496 0.051012795 -0.059724566 0.019397033 0.043744374 -0.028407525
0.05251936 0.04285939 -0.021913841 0.035421353 0.0464747 0.033171527 0.043313757 0.021348711
0.03840439 -0.068872005 0.062121596 0.07065226 0.04906534 -0.0004516148 0.035703026 -0.054157134
0.05410176 -0.044234246 0.0430258 0.0011320433 -0.01143948 0.03635375 0.043911412 0.00688148
-0.06878333 -0.05516518 -0.03901522 0.0060012713 -0.004721994 0.061281458 -0.030716432 0.027160715
-0.007214175 -0.014359932 0.05696606 0.010107473 0.052132968 -0.0041068946 0.07029505 -0.045698863
0.050780296 0.018848011 0.032707013 -0.023873398 -0.035237994 -0.0030602736 -0.025582522 -0.013982668
00000000: 453a 853d 4fc4 22bc bc80 4c3c 3344 143d
00000010: 1444 85bd 618b 313c b725 883d bbef e2ba
00000020: d7ed 2fbd 1471 703d d028 69bc 5391 a63c
00000030: 5428 5ab9 72bf 39bc 2681 47ba 9305 4c3d
00000040: 44b6 283c 2693 693b 0bd3 5d3d 0064 47bd
00000050: 4c40 bb3b 292f 293d 5195 b3bc c682 3738
00000060: 3805 213d c899 0abc a442 193c 31c4 ebba
00000070: d82c 37bc 3e6f 0f3d 1dca 4abc c795 223c
00000080: 1d38 5e3d d5f2 803d bf2f 963c 5068 a0bc
00000090: 45b5 13bd 3ccf abbc de14 ce3b 6e0f 84bd
000000a0: 39dd a7bc 55ad e1bc eca3 41bd 4a8b 5abd
000000b0: d524 90bd 77be 70bd 8c4a d638 799d cf3c
000000c0: 16e9 143d 0c81 9e3d 97ff 0cbc 0bd4 6d3d
000000d0: 6623 22ba 4275 09bd e320 13bd 7ea9 9a3a
000000e0: 3aa6 3d3c 218a 76bd 51c8 813d f57f 8a3d
000000f0: 2368 693d c38a 49bd 9ee7 66bc 2edf 733d
00000100: e6ee 5e3d 1709 ff3c 0e32 053c a524 c7bc
00000110: 6a10 873d 63b8 483c b99a 643d fff3 8e3d
00000120: 1466 3abc 952e 13bd 8160 353d a5e2 2e3c
00000130: 4f30 773d 4efb 513d 7180 90bd bcd3 963d
00000140: cb98 ae3c 3fc6 64bd f4e6 0abd 6dc2 163d
00000150: 2351 69bd f82a c33c 5b65 4d3c 5c21 873d
00000160: 2ab3 7abc d1b4 493c eab3 403d 7661 48bd
00000170: 064e 3abd 181f 0a3c 7289 6dbd 78dc 70bd
00000180: 793b 92bd b34b adbc bba5 5a3c 6f28 eebc
00000190: 9626 76bd 60a2 d0bc 99bd 71bc 2460 1cbd
000001a0: a018 cb3c c776 3fbd fda1 c6bb efb5 9ebc
000001b0: 992e 2c3d 4673 3a3d 3944 85bd 25ca 433d
000001c0: 058c f2bc ba5c 11bd d94f debc 311a 043d
000001d0: f921 06bd 0f57 dd3c ed43 df3c bc28 c8ba
000001e0: d6c1 603c b017 a23b f312 8e3c 1edc aebc
000001f0: a43f e23c 9a61 fd38 5d11 00bd c54a 063d
00000200: 6d1a 003d e8f4 0e3d 6e02 423d 99c6 dabb
00000210: 27ad ef3b 4a60 3f3d 5c42 573d c1a8 8c3d
00000220: 3632 81bd 945e 013c 0b65 5b3d 90b0 90bd
00000230: 7ec5 9cbb 0862 f93b 21da 833d 7880 173d
00000240: 1d59 21bd 520b d5ba cd04 7b3d 10c4 413d
00000250: 76b3 19bd ab21 c5bc 7661 70bd d73f fcbc
00000260: 79f5 223d 72fa 163d 8a32 1f3c 37c2 623d
00000270: 6c55 46bc 6eee 323d a26f 7d3d 3d3a dbbc
00000280: 442a 17bd 254d 203c 3350 b4bc 81a7 373d
00000290: e8ec 753c 510b dabc f355 2bbd 46b1 30bd
000002a0: fa5e 223d e0f8 333d 901b 5cbd aa43 6bbd
000002b0: 16f6 3d3d 1d0a 23bd 5861 68bc 2996 af3c
000002c0: 8a13 87bc 5253 69bd 4d1f de3c 9b27 dd3b
000002d0: d345 693d de86 7538 97bc 47bd e0c3 7dbc
000002e0: 8555 1fbc f81f 613d 2150 363d 0fab 2d3d
000002f0: 0b36 8ebd 660c 95bc 2e40 33bd f655 5bbc
00000300: f137 73bd 3f3c 553d 26d7 6e3d 3e9a 313c
00000310: 17e7 c03c acd6 663b d233 a0bc 33c9 1e3d
00000320: b4a9 393d d062 083c beb7 09bd cbf2 503d
00000330: bfa1 74bd 87e6 9e3c 4d2d 333d e6b6 e8bc
00000340: 8a1e 573d 548d 2f3d a884 b3bc fb15 113d
00000350: 415c 3e3d dede 073d c469 313d 7ee3 ae3c
00000360: ec4d 1d3d c40c 8dbd 3773 7e3d 22b2 903d
00000370: bdf8 483d b6c6 ecb9 563d 123d dfd3 5dbd
00000380: cf99 5d3d f82e 35bd d23b 303d 1261 943a
00000390: a86c 3bbc abe7 143d 74dc 333d 0a7e e13b
000003a0: 46de 8cbd e2f4 61bd 6cce 1fbd 50a6 c43b
000003b0: f5ba 9abb 4402 7b3d 07a1 fbbc 2680 de3c
000003c0: e364 ecbb ec45 6bbc 3e55 693d d099 253c
000003d0: 6189 553d 2193 86bb daf6 8f3d bb2e 3bbd
000003e0: 00ff 4f3d 2567 9a3c caf7 053d 2592 c3bc
000003f0: b755 10bd df8e 48bb 7092 d1bc 8f17 65bc

attention.0.bias f4 [100]
-0.06380087 -0.06612759 -0.04023371 -0.0037452867 -0.07051394 0.006378956 0.06795542 -0.007489236
0.003908961 0.036859307 -0.02279703 0.029807482 -0.07072812 -0.05156558 -0.005701043 0.06234094
0.061505936 -0.026684884 -0.028882103 0.038015507 0.0621224 0.00033223638 -0.06916566 0.048676413
0.05269528 0.055527214 0.02003296 -0.0139178755 -0.03638236 0.012557035 0.01848191 -0.052767623
0.06783879 0.028350944 0.06617427 0.055232555 0.058649648 -0.041305196 0.06549703 0.0061352723
0.01731191 0.041811854 -0.06943206 -0.013483043 0.009722138 0.03176943 0.06799137 -0.049783107
-0.043236695 0.025445972 -0.06734504 -0.00066609995 -0.06433157 -0.018983783 -0.012180452 -0.024843952
0.024179764 -0.0322771 0.050468218 -0.025155298 -0.038568676 -0.008966999 -0.06722019 0.0660919
0.0010094607 0.074482515 -0.008097062 0.026089232 0.053833436 -0.06410394 0.0891949 0.027569557
-0.00213887 -0.0029162166 -0.0005085812 0.06856213 -0.034784168 -0.009455658 0.0542629 -0.03814087
-0.052923318 0.066733904 0.041499384 0.01976585 -0.045752168 0.016234174 -0.0039518415 0.02805759
-0.051471744 0.044355102 -0.018505465 0.011112375 -0.030641837 0.052665498 0.032161314 0.0425406
-0.015688488 -0.0063112685 -0.030100426 -0.061638087
00000000: 08aa 82bd e76d 87bd 1acc 24bd 7c73 75bb
00000010: 9d69 90bd 9006 d13b 362c 8b3d 4468 f5bb
00000020: be16 803b c9f9 163d d6c0 babc d22e f43c
00000030: e8d9 90bd 6e36 53bd d1cf babb 3759 7f3d
00000040: a6ed 7b3d 429a dabc 299a ecbc 26b6 1b3d
00000050: 0f74 7e3d 0330 ae39 baa6 8dbd eb60 473d
00000060: 02d7 573d 8170 633d 2a1c a43c cd07 64bc
00000070: ab05 15bd 06bc 4d3c 6067 973c dd22 58bd
00000080: 10ef 8a3d 3d40 e83c 6086 873d 883b 623d
00000090: 9d3a 703d a32f 29bd 4f23 863d 650a c93b
000000a0: b5d1 8d3c e842 2b3d 6532 8ebd fbe7 5cbc
000000b0: 9a49 1f3c a920 023d 0f3f 8b3d 5fe9 4bbd
000000c0: f618 31bd 1274 d03c 32ec 89bd 369d 2eba
000000d0: 45c0 83bd e183 9bbc 8590 47bc 8b85 cbbc
000000e0: a414 c63c fe34 04bd c3b7 4e3d 7c12 cebc
000000f0: 30fa 1dbd 52ea 12bc bdaa 89bd 315b 873d
00000100: e14f 843a 4a8a 983d 8aa9 04bc 16b9 d53c
00000110: 7380 5c3d ed48 83bd d1ab b63d 8dd9 e13c
00000120: 492c 0cbb ff1d 3fbb 4e52 05ba 4d6a 8c3d
00000130: d879 0ebd e7eb 1abc c642 5e3d 9a39 1cbd
00000140: 1fc6 58bd c9ab 883d 42fb 293d feeb a13c
00000150: a066 3bbd 88fd 843c 737e 81bb 08d9 e53c
00000160: 09d4 52bd b2ad 353d c698 97bc ae10 363c
00000170: 9704 fbbc c7b7 573d 95bb 033d 0d3f 2e3d
00000180: 2585 80bc c2ce cebb 2b95 f6bc 3878 7cbd

attention.2.weight f4 [100, 100]
-0.015814757 -0.021952868 -0.027976539 0.0121569 0.009211195 -0.05713965 -0.052015323 0.06687885
0.04995332 0.032555856 -0.022277063 0.023185028 -0.06420528 -0.025565704 0.019147636 0.086506926
-0.08223395 0.00030933775 -0.0056690834 0.053929176 -0.07192011 0.05949634 0.021540174 0.042656474
-0.014842191 0.038212106 -0.048843857 0.050018556 -0.023838205 0.09015933 0.04945168 0.004032351
-0.038828462 0.056021523 0.013212474 0.0838472 0.033967916 0.03253665 0.040685803 0.0035641673
0.054583143 -0.04559374 -0.07490551 0.05514102 -0.07530902 -0.06487557 0.017546363 -0.034726553
0.097525984 -0.04925149 -0.010556005 -0.090184726 -0.07224392 0.06044423 -0.05831187 0.07221883
-0.064464256 -0.019495776 0.09130386 0.015495583 0.0502723 -0.04605729 -0.079519674 0.0003037811
0.00798911 0.078453146 0.053711697 -0.07957771 -0.074098684 -0.018935328 -0.01508864 0.043387163
0.09204158 0.05574533 0.055702113 -0.06665042 0.051773693 0.08900897 -0.09059539 -0.015655069
-0.012139981 -0.06686603 -0.05429291 -0.005448594 -0.040708758 0.0060756463 -0.0031101676 -0.05580235
0.03422267 -0.026195196 -0.039673787 -0.011769794 -0.022304798 -0.039262194 -0.07004876 0.062075764
0.05493347 0.050150834 -0.011245048 0.060758136 0.047307044 -0.07665261 -0.030843278 0.06367686
-0.086483575 -0.045989778 0.050116155 0.018726582 -0.03073603 -0.05548377 0.04509994 0.0913075
-0.08110358 0.042242035 0.065478645 0.042118058 0.03323951 0.04338519 -0.032971777 -0.07588197
-0.07688986 0.058951955 -0.034695357 -0.08265093 -0.02712805 -0.047167514 0.04122867 -0.070722684
0.068511054 0.03695281 0.031658366 0.053778827 -0.0584346 0.09604159 0.034979485 -0.09977562
0.06341708 0.015378158 0.0759902 -0.006297326 0.01472631 0.052492928 0.024810541 0.07772553
-0.09146539 -0.037777588 0.06627275 -0.09597362 0.0010012371 0.0054077543 -0.09945729 0.051680963
0.027452698 -0.06069281 0.03385256 0.07079172 0.047723595 -0.030823927 0.057316255 0.009589562
-0.08337263 0.06868322 0.009744687 -0.06581221 0.08202056 0.06372344 -0.085701786 -0.06226488
0.07755051 0.09467066 -0.046912726 0.049961567 -0.036527228 0.016175283 -0.0088545345 -0.012690925
0.07190833 0.04542124 -0.03643024 -0.0581074 0.054949068 0.05543104 0.025846045 -0.050896663
0.05752701 -0.055429492 -0.014779069 -0.046613175 0.04991156 0.027305802 -0.061235253 0.04200824
-0.087570556 0.0701124 -0.031549208 -0.048695613 -0.058158163 0.012545873 0.04955008 0.0353533
0.049687512 0.03685035 0.066399164 0.029551884 0.04932307 -0.0909753 0.03686232 -0.10406953
-0.018108342 0.0020650625 -0.025360886 -0.018746158 0.049456794 -0.05644896 0.049970362 -0.05295623
0.009240301 0.08789536 0.053482898 0.09650534 -0.020921404 -0.040505692 0.039695363 0.008200884
0.032669224 0.03596113 -0.04337571 0.05966852 0.07174338 -0.08411061 0.049540076 0.025963135
-0.03188812 -0.03589559 0.027297314 0.049547818 0.021604352 -0.07923635 -0.013766979 0.060359824
-0.036353476 -0.04572561 0.023701197 0.010144691 0.0312718 -0.016907204 0.030086854 -0.07861374
-0.076743774 0.010734238 -0.01820039 -0.020059476 0.08550313 0.10291706 -0.058460914 0.075675055
00000000: f38d 81bc 80d6 b3bc 0e2f e5bc bc2d 473c
00000010: 8dea 163c 440b 6abd 050e 55bd c7f7 883d
00000020: da9b 4c3d 4a59 053d 637e b6bc 87ee bd3c
00000030: 0f7e 83bd 2b6f d1bc 81db 9c3c 8b2a b13d
00000040: 466a a8bd 9c2e a239 b8c3 b9bb d7e4 5c3d
00000050: da4a 93bd 6fb2 733d 0575 b03c 8eb8 2e3d
00000060: a92c 73bc 4c84 1c3d 7f10 48bd 42e0 4c3d
00000070: 5748 c3bc 74a5 b83d d88d 4a3d d021 843b
00000080: 980a 1fbd d376 653d 2279 583c 15b8 ab3d
00000090: f121 0b3d 2645 053d 28a6 263d ce94 693b
000000a0: 9392 5f3d 80c0 3abd 0f68 99bd 8ddb 613d
000000b0: 9e3b 9abd 7cdd 84bd 64bd 8f3c 6e3d 0ebd
000000c0: b4bb c73d eebb 49bd 18f3 2cbc c5b2 b8bd
000000d0: 9ff4 93bd 5e94 773d 6dd8 6ebd 77e7 933d
000000e0: d605 84bd 9bb5 9fbc 85fd ba3d 30e1 7d3c
000000f0: 54ea 4d3d 92a6 3cbd 36db a2bd cf44 9f39
00000100: c2e4 023c 0bac a03d cc00 5c3d a3f9 a2bd
00000110: 0dc1 97bd 431e 9bbc 5836 77bc bdb6 313d
00000120: 4c80 bc3d 3755 643d e627 643d 0480 88bd
00000130: a710 543d 564a b63d 138a b9bd 0f3f 80bc
00000140: c5e6 46bc 0ff1 88bd 3e62 5ebd 1f8a b2bb
00000150: 3abe 26bd 3716 c73b f4d3 4bbb 0191 64bd
00000160: 122d 0c3d 4f97 d6bc fb80 22bd 18d6 40bc
00000170: 8db8 b6bc 65d1 20bd b975 8fbd 2843 7e3d
00000180: eb01 613d f66a 4d3d 263d 38bc 86dd 783d
00000190: 08c5 413d 0bfc 9cbd 0bab fcbc 0369 823d
000001a0: 4d1e b1bd c75f 3cbd 9946 4d3d 7d68 993c
000001b0: 20ca fbbc f342 63bd b7ba 383d 6dff ba3d
000001c0: a219 a6bd fc05 2d3d ab19 863d fc83 2c3d
000001d0: 2726 083d abb4 313d 6a0d 07bd 0268 9bbd
000001e0: 6e78 9dbd 9b77 713d b81c 0ebd e444 a9bd
000001f0: a53b debc b932 41bd 65df 283d 0ed7 90bd
00000200: 864f 8c3d d45b 173d 34ac 013d 3047 5c3d
00000210: 1e59 6fbd 74b1 c43d a646 0f3d 2957 ccbd
00000220: d0e0 813d abf4 7b3c c0a0 9b3d cd59 cebb
00000230: 9f46 713c d302 573d 7a3f cb3c 902e 9f3d
00000240: 3552 bbbd acbc 1abd 02ba 873d d18d c4bd
00000250: f13b 833a 8833 b13b 43b0 cbbd 6baf 533d
00000260: 7be4 e03c 0699 78bd fba8 0a3d 40fb 903d
00000270: d179 433d 7682 fcbc 73c4 6a3d 8a1d 1d3c
00000280: 45bf aabd caa9 8c3d 2ea8 1f3c 8dc8 86bd
00000290: 65fa a73d 6f81 823d 6b84 afbd 7509 7fbd
000002a0: cdd2 9e3d b1e2 c13d 8f27 40bd 80a4 4c3d
000002b0: 939d 15bd 0782 843c 9c12 11bc 99ed 4fbc
000002c0: ad44 933d 9f0b 3a3d e037 15bd 0602 6ebd
000002d0: 4612 613d a80b 633d 16bb d33c 0579 50bd
000002e0: 71a1 6b3d 090a 63bd e923 72bc 75ed 3ebd
000002f0: 1070 4c3d 6bb0 df3c d1d1 7abd d510 2c3d
00000300: 3158 b3bd 1797 8f3d be39 01bd 0d75 47bd
00000310: 4137 6ebd 358d 4d3c 06f5 4a3d 9fce 103d
00000320: 2285 4b3d 65f0 163d 49fc 873d cb16 f23c
00000330: fd06 4a3d 4251 babd f2fc 163d 6822 d5bd
00000340: f257 94bc 0056 073b a2c1 cfbc 8b91 99bc
00000350: 3593 4a3d 0637 67bd b9ad 4c3d a2e8 58bd
00000360: a264 173c 7c02 b43d e210 5b3d 97a4 c53d
00000370: 5d63 abbc 4ce9 25bd 9b97 223d 005d 063c
00000380: 2ad0 053d fa4b 133d baaa 31bd fa66 743d
00000390: 31ee 923d 2f42 acbd 89ea 4a3d a4b0 d43c
000003a0: 1e9d 02bd 4107 13bd 9e9e df3c a7f2 4a3d
000003b0: 9cfb b03c ab46 a2bd e58e 61bc dd3b 773d
000003c0: 62e7 14bd c74a 3bbd 0329 c23c eb35 263c
000003d0: dc16 003d fa80 8abc b578 f63c 3e00 a1bd
000003e0: d72b 9dbd a8de 2f3c fc18 95bc c553 a4bc
000003f0: 441c af3d 2ec6 d23d b674 6fbd 86fb 9a3d
