arena_navigation/arena_local_planner/model_based/crowdnav_ros/scripts/crowd_nav/data/output/rl_model_cadrl.pth (torch, 392753 bytes, 20 tensors)

mlp1.0.weight f4 [150, 13]
0	0x3cbf26d9	0.023333954
1	0x3b685636	0.0035451776
2	0x3dec8cdd	0.11550305
3	0x3e3276fb	0.174282
4	0xbd7a73d3	-0.061145615
5	0xbe38a3b9	-0.18031205
6	0x3d41bdd9	0.047300193
7	0xbe35f192	-0.17767933
8	0x3e84847c	0.25882328
9	0x3d2794cc	0.040913388
10	0xbe8badfd	-0.2728118
11	0xbe11996e	-0.14218685
12	0x3e08c277	0.13355432
13	0xbb88a5d3	-0.0041701584
14	0xbd57c8c7	-0.05268171
15	0xbe171bf1	-0.14756753
16	0xbe5b3265	-0.21405943
17	0x3e85a55d	0.26102725
18	0xbe91ec8f	-0.28500792
19	0x3e86c2ed	0.26320592
20	0xbd123894	-0.03569849
21	0xbe53b476	-0.20674309
22	0x3d3a931b	0.045550447
23	0x3e196b12	0.1498225
24	0x3d3bcc01	0.04584885
25	0xbc669c84	-0.014075402
26	0x3c97c3fd	0.018526072
27	0xbd7d818a	-0.061891116
28	0xbe5de705	-0.21670158
29	0x3e305384	0.17219359
30	0x3cb570a9	0.022148447
31	0xbdbc0be1	-0.09181953
32	0x3d800218	0.06250399
33	0xbe63fa20	-0.22263384
34	0x3eb1a550	0.34696436
35	0x3e73923b	0.23786251
36	0xbde43f28	-0.111448586
37	0x3e2cfdd3	0.16893701
38	0x3e443859	0.1916212
39	0xbe7bc5fe	-0.24587247
40	0xbe83bab4	-0.2572838
41	0x3e348d62	0.17632058
42	0x3e8cedb7	0.27525112
43	0xbe62294e	-0.22086069
44	0xbe3cc742	-0.18435386
45	0xbe287201	-0.16449739
46	0x3e7ab949	0.24484743
47	0xbe8c7f6c	-0.27440965
48	0x3e05a6fd	0.13051982
49	0xbe8ca5cf	-0.27470252
50	0xbdd69273	-0.10477152
51	0xbdfd82cf	-0.123784654
52	0x3de1f9a3	0.110339426
53	0xbd6e4f09	-0.058180843
54	0x3e40ebec	0.18839997
55	0x3dabd650	0.08390486
56	0xbea5b9a0	-0.32368183
57	0x3dde2263	0.108464025
58	0xbe928e56	-0.2862422
59	0xbd03add8	-0.032148212
60	0x3e2e74fa	0.1703681
61	0x3e321335	0.1739014
62	0xbe598224	-0.21241051
63	0xbe7bf378	-0.24604595
64	0x3dc1a224	0.09454754
65	0x3d37a309	0.044833217
66	0x3e7a5289	0.24445547
67	0x3e8b44f5	0.27201048
68	0x3c48afce	0.012248946
69	0x3e9ad848	0.30243134
70	0xbe11f17a	-0.14252272
71	0xbe01fc57	-0.12693916
72	0xbda8a50e	-0.08234607
73	0x3eaa55ba	0.3326853
74	0x3dac1304	0.084020644
75	0xbd4787d4	-0.04871352
76	0x3e47541a	0.19465676
77	0xbe66340a	-0.22480789
78	0x3e13817b	0.14404862
79	0x3cb7f7c1	0.022457005
80	0xbd47fd4d	-0.04882555
81	0xbe39326b	-0.18085639
82	0xbd868134	-0.06567612
83	0xbeaee988	-0.34162545
84	0x3e0ecf1a	0.1394619
85	0xbe041daa	-0.12901941
86	0xbdf3b9d7	-0.119006805
87	0x3e644d76	0.22295174
88	0xbc043999	-0.008070373
89	0xbe75e8f5	-0.24014647
90	0x3e4a6663	0.1976562
91	0x3de1a455	0.11017672
92	0xbd8f06ff	-0.06983756
93	0xbc1cc2e5	-0.009567951
94	0xbe504f41	-0.20342733
95	0xbe7865d7	-0.24257599
96	0xbe92b94d	-0.28656998
97	0xbe3629d5	-0.17789395
98	0xbe715432	-0.23567274
99	0xbc701c99	-0.014655256
100	0x3e8399ed	0.25703374
101	0xbd3d181d	-0.046165574
102	0xbd85e0be	-0.06537007
103	0xbe0010dd	-0.12506433
104	0x3e2e218e	0.17004988
105	0xbea1adff	-0.3157806
106	0xbe7a6377	-0.24452005
107	0x3e69ae9b	0.22820513
108	0xbe914417	-0.2837226
109	0xbe8d4b14	-0.27596343
110	0x3eb6f7c8	0.35735917
111	0x3e4c05a0	0.19924021
112	0x3e18c434	0.14918596
113	0xbe7b69b6	-0.24552044
114	0xbe7c1c02	-0.24620059
115	0x3e2e262d	0.1700675
116	0xbe581fcd	-0.21105881
117	0xbe363981	-0.17795373
118	0x3d3d5ff0	0.04623407
119	0xbe512164	-0.20422894
120	0xbdf60569	-0.12012751
121	0xbe22c7ab	-0.1589648
122	0x3d2121e9	0.03933898
123	0xbe260431	-0.16212536
124	0x3c8bd0ff	0.01706743
125	0xbd19ff40	-0.03759694
126	0xbe62aafe	-0.22135541
127	0xbe85f5ea	-0.2616418
128	0x3e1f2805	0.1554261
129	0xbe0c9997	-0.13730465
130	0x3e51eb16	0.20499834
131	0xbdc6c064	-0.09704664
132	0x3e868e80	0.26280594
133	0x3d4322d3	0.047640633
134	0x3cdc6430	0.026903242
135	0x3de6ef21	0.11276079
136	0x3dade7e2	0.08491494
137	0x3cd5238d	0.026017928
138	0x3e99f123	0.30066785
139	0x3d474d47	0.04865768
140	0x3da3fe88	0.08007532
141	0xbe45ea80	-0.19327736
142	0xbe251748	-0.16122162
143	0x3d92de60	0.07171321
144	0x3dc10ecb	0.0942665
145	0xbd768676	-0.060186826
146	0xbd4308c9	-0.0476158
147	0x3bf735dc	0.0075442623
148	0x3dc4732d	0.095922805
149	0xbea8412b	-0.3286222
150	0xbea3e39f	-0.320096
151	0x3e9271ea	0.28602535
152	0xbe452283	-0.19251446
153	0x3b5cdeca	0.0033702129
154	0xbe98ff2f	-0.2988219
155	0xbdb5e71e	-0.08881973
156	0x3e45dc1b	0.19322245
157	0x3e8e090b	0.27741274
158	0x3e7e6f51	0.24847151
159	0x3e86965d	0.26286593
160	0x3e6ca2e9	0.2310902
161	0x3e682180	0.22669029
162	0xbe6dfd75	-0.23241217
163	0x3e89aa3a	0.26887685
164	0x3d085be6	0.033290766
165	0x3e27202d	0.16320868
166	0xbb16491d	-0.0022931763
167	0x3ba4930a	0.0050224112
168	0xbe51aca9	-0.20476021
169	0xbd5278fc	-0.05138491
170	0xbcfe84a7	-0.031069113
171	0x3d4c95c1	0.049947504
172	0xbcf2e5da	-0.029650617
173	0xbe21e446	-0.15809736
174	0x3df67adf	0.120351546
175	0x3e87cbfc	0.26522815
176	0xbe8eeb58	-0.27913928
177	0x3e120bbb	0.14262287
178	0xbe2658a2	-0.16244748
179	0xbe3ee4b0	-0.18641925
180	0x3d98603f	0.074402325
181	0x3df0587d	0.11735628
182	0xbe27756d	-0.16353388
183	0xbd758706	-0.05994322
184	0x3e5432e9	0.20722546
185	0x3e82b1ff	0.25526425
186	0x3e893d52	0.26804596
187	0xbdd0a721	-0.10188127
188	0xbde39ac1	-0.11113501
189	0x3be0659b	0.00684805
190	0xbe25e34f	-0.16199993
191	0x3e2a3c9e	0.16624686
192	0xbe840fe7	-0.25793383
193	0xbce1c1f0	-0.027558297
194	0xbe131508	-0.14363492
195	0xbe0ca393	-0.13734274
196	0x3de98504	0.11402324
197	0xbda51782	-0.080611244
198	0x3d6c7d02	0.057736404
199	0xbd94775a	-0.07249327
200	0xbe0f5f51	-0.14001204
201	0xbd15caf4	-0.036570504
202	0xbdd38ded	-0.103298046
203	0x3e655f05	0.22399528
204	0xbd738aa4	-0.05945839
205	0xbdfcba15	-0.1234018
206	0xbd84573c	-0.06461951
207	0xbe4901dd	-0.19629617
208	0xbd02c915	-0.031930048
209	0xbe32ca4e	-0.17459986
210	0xbdbef734	-0.09324494
211	0xbe2c451c	-0.16823238
212	0x3db44e26	0.08803968
213	0x3e84bb2e	0.25924057
214	0x3d91f84b	0.07127436
215	0xbeb6138a	-0.35561782
216	0x3d8c3ba3	0.06847312
217	0xbecfd27a	-0.40590268
218	0x3cca76bc	0.02471482
219	0x3de40fb7	0.1113581
220	0xbe02e1ee	-0.12781498
221	0xbe2b24ea	-0.167133
222	0x3e14d189	0.14533056
223	0x3e21b8c9	0.15793146
224	0xbe9019e6	-0.2814476
225	0xbd043ba7	-0.03228345
226	0x3e0e4831	0.13894726
227	0x3e7883c0	0.24269009
228	0xbe5bd6d1	-0.21468665
229	0x3d8ad68f	0.06779205
230	0x3e7b6dc9	0.24553598
231	0x3ba1e002	0.004940034
232	0x3e019bcf	0.12657093
233	0x3dab2da7	0.08358317
234	0x3d8e39c9	0.069446154
235	0x3e01e333	0.12684326
236	0xbcf819ef	-0.030285804
237	0xbe70c57e	-0.23512837
238	0xbe5e6c43	-0.21720986
239	0xbe8ce2a1	-0.27516654
240	0x3e0deb1e	0.13859221
241	0x3eb11936	0.34589547
242	0xbe01439d	-0.12623449
243	0x3e9da396	0.3078887
244	0xbd878ab4	-0.066182524
245	0x3d7e5765	0.062095065
246	0x3dc48a82	0.09596731
247	0xbd099e03	-0.033597957
248	0x3df4751d	0.119364
249	0x3e6b8839	0.23001184
250	0xbdcf10e0	-0.101106405
251	0xbdf7aa90	-0.12093079
252	0xbca875a2	-0.020563904
253	0x3e8c8276	0.27443284
254	0xbdf1facd	-0.118154146
255	0xbe3a1207	-0.1817094

mlp1.0.bias f4 [150]
0	0x3da4c5b9	0.08045525
1	0x3e6cc349	0.2312137
2	0xbddfe623	-0.10932567
3	0xbe5d72fc	-0.21625894
4	0x3c07eaf3	0.008295762
5	0xbd855f4c	-0.06512317
6	0xbe93dfd3	-0.28881702
7	0x3cc48f1e	0.023994025
8	0xbe8938cc	-0.26801145
9	0xbd7093ec	-0.05873482
10	0xbdfe0313	-0.1240293
11	0x3e9c011a	0.3046959
12	0xbe3e5c4e	-0.18589899
13	0x3e08c2e4	0.13355595
14	0x3d02252b	0.031773727
15	0x3e405146	0.18781003
16	0x3e0605fe	0.13088223
17	0x3da2ee14	0.07955566
18	0x3dc3d3ce	0.09561883
19	0x3e862335	0.26198736
20	0x3e312b79	0.1730174
21	0xbe304ed9	-0.17217578
22	0xbe643d2b	-0.22288959
23	0x3db7c105	0.089723624
24	0xbe4b21f2	-0.19837168
25	0xbbe0a5ae	-0.006855688
26	0xbe0e6fe2	-0.13909867
27	0x3d968380	0.073493004
28	0xbe1c4ca2	-0.15263608
29	0xbe425473	-0.18977527
30	0xbe76d079	-0.24102964
31	0xbe2575b3	-0.1615818
32	0x3dd91196	0.105990574
33	0xbe85fb49	-0.26168278
34	0xbe5411b1	-0.20709874
35	0xbd0da6a4	-0.03458275
36	0x3e9a7a6f	0.30171534
37	0xbd13e9f4	-0.036111787
38	0x3e441462	0.191484
39	0xbe1ff310	-0.15620065
40	0x3e144298	0.14478528
41	0xbe6308fe	-0.22171399
42	0xbe3fa5b5	-0.18715556
43	0x3e5e2dc1	0.21697141
44	0x3e4399f6	0.191017
45	0xbe8165df	-0.25273034
46	0xbe1a362f	-0.15059732
47	0xbe4f1061	-0.20221092
48	0x3e2865a2	0.1644502
49	0x3e8e2aaf	0.2776694
50	0xbe5f4d95	-0.21806939
51	0x3d8d17be	0.06889294
52	0xbe0ec51b	-0.13942377
53	0x3e291b62	0.16514352
54	0xbe9884aa	-0.29788715
55	0xbd98b68d	-0.07456694
56	0xbe7ff505	-0.24995811
57	0xbe9ef1eb	-0.31043944
58	0x3de3ddfc	0.111263245
59	0x3d823523	0.06357791
60	0xbe685345	-0.22688015
61	0x3da8a87d	0.082352616
62	0xbc43ec68	-0.011958219
63	0xbe1b495e	-0.15164706
64	0x3e46f2c3	0.19428544
65	0xbe8c2025	-0.27368274
66	0xbd43918c	-0.047746226
67	0x3e4800df	0.19531582
68	0xbe6bc2e8	-0.2302357
69	0xbe94e4da	-0.2908085
70	0x3e0bc5d0	0.13649678
71	0x3d55edda	0.052228786
72	0xbd275864	-0.04085578
73	0x3c8d761d	0.017268235
74	0xbe0568f8	-0.13028324
75	0xbd60b2e1	-0.054858092
76	0xbe727d5c	-0.23680633
77	0xbc4f4fd5	-0.012653311
78	0xbe37d70d	-0.17953129
79	0xbd75348b	-0.059864562
80	0x3db212f4	0.08695021
81	0xbde31ee0	-0.11089873
82	0xbe48d1f4	-0.19611341
83	0xbe1f6b18	-0.15568197
84	0x3e3b7899	0.18307723
85	0x3e1c6d19	0.15275992
86	0xbdd1a0a8	-0.10235721
87	0x3c8fd953	0.017559683
88	0xbd0d9225	-0.034563202
89	0x3e0361ff	0.12830351
90	0xbe38be1a	-0.18041268
91	0xbe5590d6	-0.20856032
92	0xbdd4b13b	-0.103853665
93	0x3e210053	0.1572278
94	0x3d87c27e	0.06628893
95	0xbd63c42b	-0.055607002
96	0xbd94e416	-0.072700664
97	0xbdf921a2	-0.12164618
98	0x3e5e6773	0.2171915
99	0xbe68cb22	-0.22733739
100	0x3d7cdf2b	0.061736267
101	0xbe3b66be	-0.18300912
102	0xbea18e08	-0.31553674
103	0xbda4e0de	-0.080507025
104	0xbdfe0504	-0.124033004
105	0xbe581df1	-0.21105172
106	0xbd975ebb	-0.07391115
107	0xbe0ab921	-0.13547184
108	0x3d664dfb	0.05622671
109	0x3e2f7ad2	0.17136696
110	0xbdbc0101	-0.09179879
111	0x3dab5e8f	0.08367645
112	0x3e7bbbe2	0.2458339
113	0xbdd958bb	-0.10612627
114	0x3e884b2a	0.26619846
115	0xbd5b45b2	-0.053533264
116	0x3c9441ec	0.01809784
117	0xbd8effd9	-0.06982393
118	0xbda57546	-0.08079009
119	0xbe1cdd07	-0.1531869
120	0xbe4020c3	-0.18762498
121	0xbdb10937	-0.08644336
122	0xbc184626	-0.009294068
123	0xb9c99bd4	-0.00038453809
124	0xbd8aabb1	-0.06771029
125	0xbc4cb447	-0.012494153
126	0xbe04ea32	-0.12979963
127	0x3d213ec4	0.0393665
128	0x3d0caf3b	0.0343468
129	0x3d4e2979	0.05033252
130	0x3e83ffa4	0.25780976
131	0xbe88396c	-0.2660631
132	0xbd8c02c6	-0.068364665
133	0xbd9ef281	-0.07761098
134	0x3e214418	0.15748632
135	0x3e777386	0.24165162
136	0x3dd3e604	0.103466064
137	0xbe5489ec	-0.20755738
138	0xbe0bff23	-0.13671546
139	0xbe20b041	-0.15692236
140	0xbd8bcc22	-0.068260446
141	0xbe4fde28	-0.2029959
142	0xbdaa5fb6	-0.08319037
143	0xbd4a559e	-0.049398057
144	0x3d467e50	0.048460305
145	0x3b460bc4	0.0030219415
146	0xbde17493	-0.11008563
147	0x3cc5c88f	0.024143485
148	0x3e5f739e	0.21821448
149	0xbd6534a9	-0.055958424

mlp1.2.weight f4 [100, 150]
0	0xbd612daa	-0.05497519
1	0x3de3dd99	0.11126251
2	0x3d6dfa43	0.058099996
3	0xbd99657e	-0.07490061
4	0x3dbdde2e	0.09270893
5	0x3d723cdf	0.059140082
6	0x3da402a3	0.080083154
7	0x3d3e8aef	0.046519216
8	0x3b213502	0.0024598246
9	0xbcfab933	-0.030605888
10	0xbdad6b34	-0.08467713
11	0x3da76088	0.08172709
12	0xbc519378	-0.012791507
13	0x3c1af8b4	0.0094587095
14	0x3d213d63	0.039365184
15	0xbc4bc77d	-0.012437698
16	0xbd9e3ccd	-0.077264406
17	0x3ce0557c	0.027384512
18	0xbc427ffb	-0.011871333
19	0x3d02cf6f	0.031936105
20	0x3d8a2458	0.06745213
21	0x3d281d86	0.04104378
22	0x3c359049	0.011081764
23	0x3c7af278	0.015316598
24	0x3ba568ea	0.005047907
25	0xbdc595f8	-0.09647745
26	0x3cac653a	0.021044362
27	0xbb46f79d	-0.0030359991
28	0xbd7969ff	-0.0608921
29	0xbd448c58	-0.047985405
30	0xbc67828f	-0.014130249
31	0x3cce4513	0.025179422
32	0xbd29189a	-0.041283228
33	0x3cd8ceec	0.026465856
34	0x3d7127b3	0.05887575
35	0xbd81af25	-0.06332234
36	0xbdd6f401	-0.10495759
37	0xbd2599f5	-0.040430028
38	0xbc0f0b5a	-0.008730734
39	0x3d053159	0.032517765
40	0x3ce37df5	0.027770022
41	0x3c5e8755	0.01358207
42	0xbd13a347	-0.036044385
43	0x3a2fb12a	0.000670212
44	0xbc8a19b4	-0.01685796
45	0x3d06a5f0	0.032873094
46	0xbc8e86d2	-0.017398272
47	0xba9f176c	-0.0012137718
48	0x3b8a10c6	0.0042134253
49	0xbd1d1c05	-0.0383568
50	0xbdcab658	-0.098980606
51	0x3d6f571f	0.058432695
52	0xbd0bc68a	-0.03412489
53	0x3c770e88	0.015079148
54	0x3d828984	0.06373885
55	0xbd20be8e	-0.039244227
56	0xbdc05f70	-0.09393203
57	0xbcd72501	-0.026262762
58	0xbd5e5a00	-0.05428505
59	0x3d6c69d7	0.057718124
60	0x3cfec3f5	0.031099299
61	0xbd1c3058	-0.03813204
62	0x3dd2beb4	0.1029028
63	0xba3f2fd6	-0.00072932
64	0xbcab453a	-0.020907033
65	0xbd1d9b7b	-0.038478356
66	0xbca20e57	-0.019782228
67	0x3d87d51a	0.06632443
68	0xbc658ad3	-0.014010149
69	0xbda03bfc	-0.07823941
70	0xbcab1763	-0.020885175
71	0xbd926ff9	-0.07150263
72	0xbd35fd75	-0.04443117
73	0x3db85033	0.08999672
74	0xbd9c76c6	-0.07639842
75	0xbc55e6be	-0.0130555015
76	0xbda06a68	-0.078327954
77	0x3d74d628	0.059774548
78	0xbd69545e	-0.056965224
79	0xbb787907	-0.0037913935
80	0xbcb188f6	-0.021671753
81	0xbc6d4dcd	-0.014483881
82	0xbd860891	-0.06544603
83	0x3d5e9f4b	0.054351132
84	0xbbeed603	-0.007288696
85	0x3b112dd7	0.0022152567
86	0x3d565ca9	0.05233446
87	0xbd0b9281	-0.034075264
88	0x3d58e542	0.052953012
89	0xbd862b58	-0.06551236
90	0xbc830652	-0.015994225
91	0x3d297e43	0.04138018
92	0xbd95d0b7	-0.073152
93	0x3c7d6d00	0.015467882
94	0xbd3f8712	-0.046759672
95	0xbd345dd3	-0.04403479
96	0xbd5c0d93	-0.053723883
97	0xbd61aca0	-0.05509627
98	0xbca89e26	-0.020583224
99	0x3d98c859	0.07460088
100	0xbd77cd45	-0.060498495
101	0xbd12165c	-0.035665855
102	0x3d662540	0.056187868
103	0xbd926ff7	-0.07150262
104	0x3d1254d9	0.03572545
105	0x3d7f4d9b	0.06232987
106	0x3d47a8ad	0.048744846
107	0x3da8adad	0.08236251
108	0x3d4ac624	0.049505368
109	0xbd1f82e4	-0.038943186
110	0x3c83607d	0.01603722
111	0x3cde311d	0.027123028
112	0xbd591659	-0.052999828
113	0xbd97a053	-0.07403626
114	0xbd5ccbb3	-0.0539052
115	0x3da1561f	0.078777544
116	0x3d84c5d1	0.06483043
117	0x3d334185	0.043763656
118	0xbc52cb3c	-0.012865838
119	0x3d87c9cd	0.06630287
120	0xbd3a7343	-0.04552008
121	0xbd11f1ba	-0.03563092
122	0xbda9904b	-0.08279475
123	0x3b3fc164	0.0029259557
124	0x3d45ab13	0.048258852
125	0x3ca96ba0	0.020681202
126	0x3d03b688	0.032156497
127	0x390401e5	0.00012589207
128	0xbd28032f	-0.04101866
129	0xbd33b6dc	-0.04387556
130	0x3d981757	0.07426327
131	0x3dc92cae	0.09822975
132	0xbd6a41a2	-0.0571915
133	0x3d4481bf	0.047975298
134	0x3e19f76d	0.15035792
135	0xbcb80f22	-0.022468153
136	0x3b2a05d8	0.0025943425
137	0xbd978ec8	-0.0740028
138	0x3cc9acc9	0.024618523
139	0x3d6268fb	0.0552759
140	0xbd1cfa47	-0.03832462
141	0x3b85003f	0.004058867
142	0x3c013109	0.007885226
143	0x3d6c3867	0.057670977
144	0xbde0a6d3	-0.10969319
145	0xbd7585ba	-0.059941985
146	0xbcebd0ab	-0.028786024
147	0x3a9829b8	0.0011609113
148	0xb96c5931	-0.0002253994
149	0x3c074800	0.008256912
150	0xbd8bbb0f	-0.06822788
151	0x3d8bc3ab	0.0682443
152	0xbc3e814a	-0.011627505
153	0x3d1104ad	0.03540485
154	0xbd4f11e2	-0.050554164
155	0x3b2878da	0.0025706799
156	0x3d725c16	0.05916985
157	0xbbbd2e69	-0.005773355
158	0x3d897e0a	0.06713493
159	0x3d853ee7	0.06506138
160	0xbc47d64d	-0.012197089
161	0x3d8e5b3f	0.069509976
162	0xbd0db311	-0.0345946
163	0x3bc12d79	0.0058953133
164	0xbd47893d	-0.048714865
165	0x3d3e5fb6	0.046477996
166	0xbd950c93	-0.07277789
167	0xbd3bfb91	-0.04589421
168	0x3cae13df	0.02124971
169	0x3d07463c	0.033025965
170	0x3c08b7a9	0.008344569
171	0x3d22b464	0.039722815
172	0x3dcdab3e	0.100424275
173	0x3cd9b4f2	0.02657554
174	0xbca47e3c	-0.020079724
175	0xbcc5b5e8	-0.024134591
176	0xbbd50511	-0.006500848
177	0xbcbcc6d0	-0.02304402
178	0xbdf31a43	-0.118702434
179	0x3d3fb90a	0.046807326
180	0xbc824f80	-0.01590705
181	0x3d82f807	0.06394964
182	0x3d8f66bc	0.07002017
183	0x3da229df	0.079181425
184	0x3d537ed5	0.05163463
185	0x3d8d4595	0.06898037
186	0xbc0b7c3e	-0.008513508
187	0x3d3a762a	0.045522846
188	0xbd174c67	-0.036938097
189	0xbd696549	-0.05698136
190	0x3dc53cba	0.09630723
191	0xbda098d6	-0.07841651
192	0x3c69ad91	0.014262573
193	0x3c7c8bc0	0.015414178
194	0xbd1d9ee9	-0.038481627
195	0x3d4bb2e5	0.049731154
196	0xbb41e74e	-0.0029587331
197	0xbda73b65	-0.081656255
198	0x3c524311	0.012833373
199	0x3d58d9b4	0.052941993
200	0xbd948107	-0.072511725
201	0xbc447e97	-0.011993072
202	0xba11a0af	-0.0005555255
203	0x3cac74c2	0.021051768
204	0x3d4b7e7b	0.049681168
205	0x3da75c24	0.08171871
206	0xbb494854	-0.0030713277
207	0xbd72a9cf	-0.059243973
208	0xbd398a5f	-0.045297977
209	0x3c3320de	0.010933129
210	0xbd8fe7d4	-0.070266396
211	0xbd50c873	-0.050972413
212	0x3d4545c6	0.048162244
213	0xbcc683f1	-0.024232836
214	0x3a4d7b3b	0.0007838492
215	0x3d68d439	0.056843016
216	0x3dbb0fe8	0.09133893
217	0x3d9332eb	0.07187446
218	0x3dc66e23	0.09688976
219	0x3d06ef8a	0.032943286
220	0xbd95316d	-0.07284818
221	0x3db309ef	0.08742129
222	0x3dc578a9	0.09642155
223	0xbb937321	-0.0044998084
224	0x3d8c0900	0.06837654
225	0xbcce6b45	-0.025197634
226	0x3c8ead31	0.017416568
227	0x3dfe18a6	0.12407045
228	0xbd955a7b	-0.072926484
229	0xbd8320f3	-0.06402769
230	0xb9c2df64	-0.00037169002
231	0x3c07ce48	0.008288927
232	0x3da06065	0.07830886
233	0x3b8493dc	0.0040459465
234	0x3dc71546	0.097208545
235	0xbd6eaf74	-0.058272794
236	0x3dc93228	0.0982402
237	0xbd574f35	-0.052565772
238	0x3d8d4ccf	0.06899416
239	0x3dd2b567	0.10288506
240	0xbc73ab88	-0.014872439
241	0xbcc709f6	-0.024296742
242	0x3d509e0e	0.050931983
243	0xbc9b1e2e	-0.01893529
244	0xbdba246d	-0.09088979
245	0x3cf73f4b	0.030181548
246	0x3d99eaaf	0.075154655
247	0x3dd250b8	0.10269302
248	0x3c0bf93f	0.008543312
249	0x3d4632d9	0.048388336
250	0xbdb37204	-0.08761981
251	0xbcf3566d	-0.029704297
252	0xbdd9b77f	-0.10630702
253	0x3d3c123b	0.045915823
254	0xbd90d3a5	-0.07071618
255	0x3d1b7ccc	0.037960812

mlp1.2.bias f4 [100]
0	0x3b8eea49	0.004361425
1	0x3d0dc9e8	0.03461638
2	0x3bb6f957	0.005583923
3	0xbdc604b5	-0.096688665
4	0xbd139d56	-0.03603872
5	0x3cc45d11	0.023970159
6	0x3d430c48	0.047619134
7	0x3d350019	0.044189546
8	0xbd0ae46b	-0.033909243
9	0xbab9122e	-0.0014119798
10	0x3ca9dc1a	0.020734835
11	0xbc843c48	-0.016142026
12	0x3da599c3	0.08085968
13	0xbd6b201e	-0.057403676
14	0x3d575052	0.052566834
15	0xbc0cfc55	-0.0086050825
16	0xbda62473	-0.08112421
17	0x3b8299e6	0.0039856313
18	0xbd1294c8	-0.03578642
19	0x3df3f8f3	0.11912718
20	0x3d569996	0.052392565
21	0xbd8cb592	-0.06870569
22	0xbdb4d61f	-0.08829903
23	0x3d89f551	0.067362435
24	0xbdbe2653	-0.092846535
25	0x3d47a4e4	0.048741236
26	0x3dc5b545	0.09653715
27	0x3ca498b9	0.020092355
28	0xbd59e5f9	-0.053197835
29	0xbcc2c074	-0.02377341
30	0x3d8e29f3	0.06941595
31	0x3d6c1414	0.057636335
32	0xbe085883	-0.13315015
33	0x3d816953	0.06318917
34	0x3dc3a201	0.09552384
35	0x3d3c8112	0.04602153
36	0x3c1cc7e7	0.009569145
37	0x3d82b67d	0.06382463
38	0x3d1dee58	0.03855738
39	0x3d036b64	0.032084838
40	0x3c8fd464	0.01755733
41	0xbd47c105	-0.048768062
42	0x3d963429	0.073341675
43	0xbd8c032e	-0.06836544
44	0x3ccd0404	0.025026329
45	0xbd365b2c	-0.044520542
46	0x3ded5233	0.11587944
47	0x3d44c380	0.048038006
48	0xbda1a72d	-0.078932144
49	0x3dcc6c52	0.09981598
50	0x3d1a02bd	0.037600268
51	0xbceb672f	-0.028735725
52	0xbcacf7cd	-0.021114254
53	0xbcd38915	-0.025822202
54	0x3ba55cfd	0.0050464855
55	0xbdb1b876	-0.08677761
56	0x3d71d9ad	0.059045482
57	0x3c8870a9	0.016655283
58	0x3d57dd14	0.05270107
59	0xbd9c7832	-0.07640113
60	0x3d833d57	0.06408184
61	0xbc0b0d39	-0.008487039
62	0x3d1ea06b	0.038727205
63	0x3d6a6bd8	0.057231754
64	0x3c5632ac	0.013073605
65	0x3cd7d4b2	0.026346538
66	0x3c9fd9e5	0.01951308
67	0xbd074959	-0.033028934
68	0x3d9d05b5	0.07667104
69	0x3d78f4eb	0.060780447
70	0x3d25236b	0.04031698
71	0x3c9e9d92	0.019362245
72	0xbd5f8935	-0.05457421
73	0x3c63eaa6	0.013910925
74	0xbcc0f649	-0.023554938
75	0xbe501221	-0.20319416
76	0x3cae77b9	0.021297323
77	0xbd5b1e94	-0.05349596
78	0xbda2a15a	-0.079409316
79	0x3dbb091b	0.09132596
80	0x3d471019	0.048599336
81	0x3d8111c0	0.06302214
82	0x3d2da4a5	0.042393345
83	0xbd059df4	-0.03262134
84	0x3d65b1dd	0.056077827
85	0xbd3aaae5	-0.045573134
86	0xbd5f519d	-0.054521192
87	0x3d646834	0.05576344
88	0x3c9a52d0	0.018838316
89	0x3ba43ff4	0.0050125066
90	0x3c0370a8	0.008022465
91	0xbdfa7170	-0.12228668
92	0xbd2466eb	-0.040137213
93	0x3d2c0de1	0.042005423
94	0xbdcae25f	-0.09906458
95	0x3c739772	0.01486765
96	0xbdb1c99f	-0.08681034
97	0xba7eccfe	-0.0009719877
98	0xbc0e4b0c	-0.008684885
99	0x3c9e7d23	0.01934678

mlp2.0.weight f4 [100, 100]
0	0x3d8d905c	0.069123
1	0xbbeb2518	-0.007176053
2	0x3d5ae422	0.05344022
3	0xbdb88ff9	-0.090118356
4	0xbb3e101c	-0.00290013
5	0x3ddffe43	0.109371684
6	0xbdbf18a3	-0.09330871
7	0xbddf4531	-0.10901869
8	0x3c29cce5	0.010363792
9	0xbdaf5d82	-0.08562757
10	0xbc81ac76	-0.015829306
11	0x3d1ed866	0.038780592
12	0xbdb482b0	-0.08813989
13	0xbd0e7c52	-0.03478653
14	0x3da95f12	0.08270086
15	0xbd54b79e	-0.051932923
16	0xbdb6670f	-0.089063756
17	0x3daed22b	0.0853618
18	0xbda88d70	-0.08230102
19	0x3d5e3692	0.05425126
20	0x3c0a120e	0.008427156
21	0xbd2d02c5	-0.04223897
22	0x3d78d7c8	0.06075266
23	0xbd949698	-0.07255286
24	0x3c552494	0.013009209
25	0x3cc3e985	0.023915062
26	0xbdc7f298	-0.09763068
27	0xbd070efb	-0.03297327
28	0xbdde6dde	-0.10860799
29	0xbd24b858	-0.040214866
30	0xbd9942bb	-0.07483431
31	0x3cdc225e	0.026871856
32	0x3d945303	0.07242396
33	0xbdbfe0ce	-0.0936905
34	0x3e14366d	0.14473887
35	0xbd5b8233	-0.053590965
36	0xbca5e8f0	-0.020252675
37	0x3d146b19	0.03623495
38	0x3dec0ebd	0.115262486
39	0x3e035b18	0.12827718
40	0xbdd81f2b	-0.1055282
41	0xbd79abf3	-0.060955
42	0x3e01f4ce	0.12691042
43	0xbdcbf893	-0.09959521
44	0x3c2cca60	0.010546297
45	0x3d90ba6a	0.07066806
46	0xbdb98774	-0.09059039
47	0xbd609231	-0.05482692
48	0xbde316f8	-0.11088365
49	0xbd760199	-0.060060117
50	0xbd9762cc	-0.07391891
51	0xbdb748f7	-0.08949464
52	0x3d520add	0.05127989
53	0x3d1e1958	0.03859839
54	0xbdbb1204	-0.091342956
55	0xbc08dcef	-0.008353456
56	0xbd62e531	-0.055394355
57	0xbe0ac87b	-0.1355304
58	0xbb37a654	-0.0028022723
59	0xbca8e1d5	-0.020615498
60	0x3dc14b2c	0.09438166
61	0xbe11bf09	-0.1423303
62	0xbcbfc03c	-0.023407094
63	0x3d6a69e9	0.05722991
64	0xbdb45d36	-0.08806841
65	0x3d3863b8	0.045016974
66	0xbd9016be	-0.07035588
67	0xbd9fb821	-0.07798792
68	0x3d633a96	0.055475794
69	0x3dcdea77	0.10054486
70	0x3dbc5f89	0.091979094
71	0x3aedccff	0.0018142759
72	0xbd770fdb	-0.060317855
73	0x3d8cc227	0.06872969
74	0xbe14c9de	-0.14530131
75	0x3e117a46	0.142068
76	0xbbfa4839	-0.007638004
77	0x3dc1c168	0.094607174
78	0xbde8d751	-0.11369193
79	0xbdb3a535	-0.08771745
80	0x3e0b100e	0.13580343
81	0x3d76ea69	0.060282145
82	0x3de15ae5	0.11003665
83	0x3d24220a	0.040071525
84	0xbd47c64e	-0.048773102
85	0xbdf226d6	-0.118238136
86	0xbd8a3a91	-0.06749452
87	0x3dd32ae9	0.10310919
88	0x3d9d9d1a	0.0769598
89	0xbd7c43cb	-0.06158809
90	0xbce3bbf2	-0.02779958
91	0x3da4b6f8	0.08042711
92	0xbd5cea40	-0.053934336
93	0x3dc5958f	0.09647667
94	0x3d943e0c	0.07238397
95	0xbcc41141	-0.023934009
96	0xbdc40b25	-0.09572438
97	0x3d575627	0.052572396
98	0x3d91ac30	0.0711292
99	0x3dd9fb70	0.10643661
100	0xbda1457e	-0.07874583
101	0xbd84ddc3	-0.0648761
102	0x3c8fb49b	0.017542174
103	0x3d65ac0b	0.056072276
104	0xbcec0b1c	-0.028813891
105	0x3bc792b3	0.006090486
106	0xbda325c3	-0.07966187
107	0xbcf9c75c	-0.03049057
108	0x3d140af6	0.036143266
109	0xbd7bed81	-0.0615058
110	0xbd2da133	-0.04239006
111	0x3d004c43	0.03132273
112	0x3d997019	0.07492084
113	0x3bb915ec	0.0056483652
114	0xbd927f09	-0.07153136
115	0x3cd89004	0.02643586
116	0xbd3e3744	-0.046439424
117	0x3c1a3648	0.009412356
118	0xbcbd7320	-0.023126185
119	0xbd1db789	-0.03850511
120	0xbd8d9f2d	-0.06915126
121	0x3d85a28d	0.06525145
122	0x3d919f50	0.071104646
123	0x3c629945	0.013830488
124	0xbd40134d	-0.046893407
125	0xbc9c5945	-0.019085536
126	0x3c65b6fc	0.014020678
127	0xbd91abb8	-0.07112831
128	0xbc6ede85	-0.01457942
129	0x3d39bb15	0.04534443
130	0x3d94e499	0.07270164
131	0xbd641042	-0.055679567
132	0x3d146382	0.03622771
133	0xbdc9ffd3	-0.09863248
134	0x3d9b5f3e	0.075865254
135	0x3bffe76b	0.0078095696
136	0x3cb82f31	0.02248344
137	0x3d645e7b	0.055754166
138	0x3da4a09b	0.080384456
139	0xbd00225a	-0.03128276
140	0x3d848178	0.06470007
141	0xbd31ee5a	-0.0434402
142	0xbcd01304	-0.025399692
143	0x3d313757	0.043265667
144	0xbc11b75f	-0.008893817
145	0x3d94f7fb	0.07273861
146	0xbd260750	-0.040534317
147	0x3d5a66b9	0.05332062
148	0xbdcaebc7	-0.09908252
149	0x3dc83426	0.097755715
150	0x3c9c8179	0.019104706
151	0xbd8ea720	-0.0696547
152	0xbda58416	-0.08081834
153	0x3d13f257	0.036119785
154	0xbdc98ca8	-0.09841281
155	0x3d303082	0.04301501
156	0x3d24a5f5	0.04019733
157	0x3dbb81cb	0.091556154
158	0x3cdce4a2	0.02696449
159	0xbd53494e	-0.05158358
160	0xbdc60fbd	-0.096709706
161	0xbc805f8a	-0.015670557
162	0x3db38ed4	0.08767477
163	0xbdd05ee9	-0.10174353
164	0xbbcc5c5b	-0.0062365956
165	0xbdc6803a	-0.09692426
166	0xbdbafbf1	-0.09130085
167	0x3d4f2173	0.05056901
168	0xbdb30085	-0.087403335
169	0xbd4a6d77	-0.0494208
170	0x3c0fb6ff	0.008771657
171	0xbd91b1c7	-0.071139865
172	0xbc92155b	-0.017832449
173	0xbda453cc	-0.080237955
174	0xbdb4d8d8	-0.08830422
175	0xbccfa940	-0.02534926
176	0xbce4be28	-0.027922705
177	0x3d891d80	0.0669508
178	0xbd99e70d	-0.075147726
179	0xbb17074f	-0.0023045128
180	0xbdc734c1	-0.09726859
181	0x3d5c6928	0.053811222
182	0xbce6c37b	-0.028169384
183	0xbdc6a8f5	-0.09700195
184	0xbdbac8f1	-0.09120358
185	0x3db5e4b7	0.088815145
186	0x3c8cbe9a	0.01718073
187	0xbdaf464c	-0.0855833
188	0xbc61ac91	-0.013774053
189	0x3db7e3ec	0.089790195
190	0xbcfb9cb3	-0.030714368
191	0x3d7fd293	0.06245668
192	0x3db18ecb	0.08669814
193	0xbd9a6289	-0.07538325
194	0xbc4229f3	-0.011850822
195	0xbd8a03cc	-0.067390054
196	0x3d0905e8	0.0334529
197	0x3bbcfa59	0.0057671485
198	0x3a2a4733	0.0006495595
199	0xbdaea034	-0.0852665
200	0xbc18a072	-0.009315597
201	0xbd59788e	-0.053093486
202	0x3cc57846	0.024105202
203	0xbdd90606	-0.10596852
204	0xbc5a0fb6	-0.01330941
205	0x3d80f655	0.06296984
206	0x3dbf1ec2	0.093320385
207	0xbd9b2984	-0.07576278
208	0xbd91e3c9	-0.07123525
209	0x3d96f92f	0.07371747
210	0x3dab5cdf	0.08367323
211	0xbd26bf4e	-0.040709786
212	0xbce34c7d	-0.027746433
213	0xbd97ca0c	-0.07411584
214	0xbd03cbbe	-0.032176726
215	0x3d0bcbc5	0.034129877
216	0xbd19a663	-0.037512194
217	0xbd8ec77c	-0.069716424
218	0xbdacbd37	-0.08434527
219	0xbd33937e	-0.04384183
220	0xbcb90b1f	-0.02258831
221	0xbddde18c	-0.10834035
222	0xbda470f5	-0.08029357
223	0x3d2b4b73	0.04182
224	0x3dea3b91	0.11437143
225	0xbcbbf88d	-0.022945667
226	0xbc26f729	-0.0101907635
227	0xbcc1f372	-0.023675654
228	0x3d9e1c00	0.07720184
229	0x3be93cc7	0.007117841
230	0xbd818e88	-0.06326014
231	0xbbd6d208	-0.0065557994
232	0x3d483097	0.048874464
233	0x3d0064fc	0.031346306
234	0x3cabe703	0.020984178
235	0x3caf73d1	0.02141753
236	0xbcc5ca38	-0.024144277
237	0x3de52581	0.11188794
238	0x3db9f211	0.09079374
239	0xbcf2b93b	-0.02962934
240	0xbd950dff	-0.0727806
241	0x3dabafef	0.08383166
242	0x3d4e6b2b	0.050395172
243	0xbd7dd517	-0.061970796
244	0x3db82cca	0.08992918
245	0x3db35804	0.08757022
246	0xbcc9f4c0	-0.024652839
247	0x3cc7d60a	0.024394054
248	0xbd5d36d9	-0.054007385
249	0xbc23c0e1	-0.009994716
250	0x3dbb95c1	0.09159423
251	0xbda93de9	-0.082637616
252	0xbdc55be9	-0.09636671
253	0x3d08af8d	0.033370543
254	0xbccf294e	-0.02528825
255	0x3d29abd2	0.041423626

mlp2.0.bias f4 [100]
0	0xbccb1774	-0.024791457
1	0x3cd76e42	0.026297692
2	0x3dec9ff0	0.11553943
3	0x3e00b4ce	0.12568972
4	0xbd2958fe	-0.041344635
5	0x3e3b0cd7	0.18266617
6	0x3d6f5d79	0.05843875
7	0x3da72526	0.081613824
8	0x3d99e8d7	0.07515114
9	0xbc1f61a7	-0.009727872
10	0xbb3e9c18	-0.0029084738
11	0x3e3b791c	0.18307918
12	0x3d0ef084	0.034897342
13	0xbd092104	-0.03347875
14	0xbd0eb778	-0.03484294
15	0x3cec0457	0.028810663
16	0xbd4c74ce	-0.04991608
17	0x3d731e90	0.05935532
18	0x3c9f5282	0.019448522
19	0xbd81843a	-0.06324048
20	0x3c17e5d3	0.009271103
21	0x3dedfb27	0.11620169
22	0x3d24e81e	0.040260427
23	0xbdaa02c3	-0.08301308
24	0x3a3cbdfe	0.0007199942
25	0xbd6e7700	-0.058218956
26	0x3d00c6c6	0.031439565
27	0x3daa2de7	0.083095364
28	0xbcb387b2	-0.02191529
29	0x3da1c367	0.07898598
30	0xbdac95c1	-0.08427001
31	0xbd51f9d9	-0.051263664
32	0x3e103e0b	0.14086168
33	0x3d7c8bdd	0.06165682
34	0x3c903c1b	0.017606786
35	0xbcb51447	-0.022104396
36	0x3e08a0a4	0.1334253
37	0x3c15db73	0.009146559
38	0x3db31051	0.087433465
39	0xbd7bcdcf	-0.06147557
40	0xbd3ba951	-0.04581577
41	0x3cc21bac	0.023694836
42	0x3b062070	0.0020466112
43	0x3d8e5918	0.06950587
44	0xbd0c1d0c	-0.03420739
45	0xbe1ba794	-0.15200645
46	0x3d86c9a1	0.065814264
47	0x3db66fd6	0.0890805
48	0xbdc2024e	-0.09473096
49	0x3d84e0c9	0.06488187
50	0xbd8ee03c	-0.06976363
51	0x3dfd4806	0.12367253
52	0xbd34244e	-0.043979935
53	0x3d4cc377	0.049991097
54	0x3ccc7f3d	0.024963016
55	0xbd55959c	-0.05214463
56	0x3c1e168b	0.009648929
57	0x3c9e0b00	0.019292355
58	0x3deb8bea	0.11501296
59	0xbd13034b	-0.035891812
60	0xbdad1bb6	-0.08452551
61	0xbd4ffe9e	-0.05077993
62	0xbde7f459	-0.113259025
63	0xbd4eb3cc	-0.050464436
64	0x3e38d038	0.18048179
65	0x3de210b0	0.11038339
66	0xbd8580fb	-0.06518742
67	0xbd992719	-0.074781604
68	0xbd2607b5	-0.040534694
69	0xbadd411b	-0.0016880365
70	0xbb31fabf	-0.0027157513
71	0x3d932bf7	0.0718612
72	0x3b6e7e12	0.0036391062
73	0x3d7a1f18	0.06106481
74	0x3e148609	0.14504255
75	0x3dcef6e3	0.10105684
76	0x3cc1daeb	0.023663959
77	0x3e058e98	0.13042676
78	0xbd1e8570	-0.038701475
79	0x3d794507	0.060856845
80	0x3dbb9db7	0.09160941
81	0x3d28d867	0.041222002
82	0x3cc4c93b	0.024021735
83	0xbd66bcc9	-0.056332383
84	0xbce33508	-0.027735248
85	0xbd000fa8	-0.03126493
86	0xbd6adfe6	-0.057342432
87	0x3c3d598f	0.011556997
88	0xbc8f2519	-0.017473744
89	0x3e02b670	0.12764907
90	0xbd4ab7ea	-0.0494918
91	0x3ca2eea4	0.019889183
92	0x3e0c8396	0.13722071
93	0xbd785aa4	-0.060633317
94	0x3e1c6a49	0.1527492
95	0x3d038491	0.032108847
96	0x3bd13092	0.006383964
97	0xbd862eb1	-0.065518744
98	0x3ccf71c4	0.025322802
99	0x3d09e1f3	0.033662748

mlp2.2.weight f4 [50, 100]
0	0xbd6f19e1	-0.05837429
1	0x3ccf7d07	0.025328172
2	0xbd5450c3	-0.051834833
3	0x3da9970a	0.082807615
4	0x3c1d8af0	0.009615645
5	0x3dcd7d08	0.100336134
6	0x3e0abcd8	0.135486
7	0xbd95992e	-0.07304607
8	0xbd3fdcfb	-0.046841603
9	0x3e066137	0.13123022
10	0xbd33851e	-0.043828122
11	0xbd412088	-0.047150165
12	0xbdcd45d4	-0.10023084
13	0xbd435c85	-0.047695655
14	0xbcd76009	-0.02629091
15	0x3dbc574c	0.09196338
16	0xbcab8b14	-0.020940341
17	0xbe078172	-0.13232973
18	0xbcc615ba	-0.024180282
19	0xbd5b58ad	-0.053551365
20	0xbce1a4e7	-0.027544452
21	0x3dec0ba2	0.11525656
22	0xbdc7e914	-0.09761253
23	0xb9eb27aa	-0.00044852245
24	0x3d297626	0.04137244
25	0xbd0a59b5	-0.033776958
26	0xbd21f806	-0.039543174
27	0x3c9501b0	0.018189281
28	0x3d46cf30	0.048537433
29	0x3dabfc44	0.08397725
30	0xbe0147ba	-0.12625018
31	0xbd72bb0e	-0.05926042
32	0x3dd30b4a	0.103048876
33	0xbd6d36cc	-0.057913586
34	0x3ca1365e	0.019679245
35	0xbce37968	-0.027767852
36	0xb9205651	-0.00015290944
37	0x3db464ef	0.08808314
38	0x3df1a765	0.11799506
39	0x3d9ac3ec	0.075569004
40	0x3cf7c77c	0.030246489
41	0xbd63c9b4	-0.05561228
42	0x3cf7cd12	0.030249152
43	0x3d2bd8b5	0.041954715
44	0x3d321554	0.04347737
45	0x3e214e4f	0.15752529
46	0x3c4d804b	0.012542794
47	0x3d11e845	0.0356219
48	0x3d13d751	0.036094014
49	0x3d24520f	0.04011732
50	0xbd7656b3	-0.060141277
51	0xbd88b8bc	-0.0667586
52	0xbdf29d59	-0.11846418
53	0x3db83ae4	0.089956075
54	0x3df35006	0.11880498
55	0x3aa3f030	0.0012507495
56	0x3d8ab92f	0.06773602
57	0x3d5baf01	0.053633694
58	0x3ca427da	0.020038534
59	0xbc0519f8	-0.008123867
60	0x3d6da150	0.058015168
61	0xbbcf10fa	-0.0063191624
62	0x3cb91793	0.022594249
63	0xbd549d88	-0.051908046
64	0x3dd97559	0.106180854
65	0xbc8080f6	-0.015686493
66	0xbd0798f1	-0.03310484
67	0x3dd2fa04	0.10301593
68	0xbcd8cb1f	-0.026464043
69	0x3d35e576	0.044408284
70	0x3d04f6c4	0.032461897
71	0x3d6acfa1	0.057326917
72	0xbc8f6732	-0.017505262
73	0x3d149f24	0.03628458
74	0x3d9234bf	0.07138967
75	0x3dd9d924	0.106371194
76	0x3c594f33	0.0132635115
77	0x3def6c63	0.11690595
78	0x3cf3d174	0.029762961
79	0x3d0b394e	0.033990197
80	0xbc789aba	-0.015173608
81	0x3be60a8f	0.0070203017
82	0x3df45aa8	0.11931354
83	0x3ca3e997	0.020008845
84	0xbcf1bbd9	-0.029508518
85	0xbde62eef	-0.112394206
86	0xbb289f92	-0.0025729877
87	0xb7582d20	-1.288511e-05
88	0x3dc42f28	0.09579307
89	0x3dc9ccce	0.098535165
90	0x3c69f619	0.014279866
91	0xbdaa7999	-0.08323974
92	0x3e17e0eb	0.14831893
93	0xbd9b9af4	-0.07597914
94	0x3e2fb013	0.1715701
95	0x3db1b277	0.086766176
96	0xbd8fa7db	-0.07014438
97	0x3d27c402	0.040958412
98	0xbdea4e56	-0.11440723
99	0x3cb93d1a	0.022612143
100	0xbe2275f1	-0.15865304
101	0x3d43d3b6	0.047809325
102	0xbd670e40	-0.056410074
103	0xbc8e91e7	-0.017403556
104	0xbe050ab8	-0.1299237
105	0x3dcc6835	0.099808134
106	0x3e008456	0.12550482
107	0x3c03e1e5	0.008049463
108	0x3c5034cf	0.012707903
109	0x3e1b5887	0.15170489
110	0x3d30f6ea	0.043204226
111	0xbe08a39e	-0.13343665
112	0xbd720e01	-0.059095386
113	0x3d70583f	0.058677908
114	0x3d8894cd	0.066690065
115	0x3d807c6e	0.06273733
116	0xbd7689de	-0.060190074
117	0xbe22ea55	-0.15909703
118	0xbb0d004e	-0.0021515074
119	0x3cf51b63	0.029920286
120	0xbdbe64e3	-0.09296586
121	0x3db764b0	0.089547515
122	0x3db4b1f9	0.08823008
123	0x3be81380	0.0070824027
124	0x3dcf4ec2	0.10122444
125	0xbd80448b	-0.062630735
126	0x3d9eeab3	0.07759609
127	0x3d89b1cc	0.06723365
128	0x3e1411a9	0.14459862
129	0xbda4554c	-0.080240816
130	0x3d021829	0.031761322
131	0xbd20bfb6	-0.03924533
132	0x3d3a55d2	0.045492
133	0x3c7438de	0.014906136
134	0x3dabdb07	0.083913855
135	0x3d3bc96c	0.045846388
136	0x3dc97302	0.09836389
137	0xbdae9cfa	-0.08526035
138	0xbd091b62	-0.03347338
139	0xbc874314	-0.016511478
140	0x3ca1ace0	0.019735754
141	0x3d9a86f2	0.0754527
142	0xbdafe11f	-0.0858786
143	0x3d3341ff	0.04376411
144	0x3c9aed7c	0.01891207
145	0x3e06c98d	0.13162823
146	0x3d0bd619	0.034139726
147	0xbe3c1c8c	-0.18370265
148	0xbc6ad3d4	-0.01433273
149	0xbe0011c4	-0.12506777
150	0x3d9b155b	0.075724326
151	0x3d725d5c	0.059171066
152	0x3d67a15c	0.05655037
153	0x3d77cef1	0.06050009
154	0xbdce210f	-0.10064899
155	0x3d3809e2	0.0449313
156	0x3de9f357	0.114233665
157	0x3d8ae3ec	0.06781754
158	0x3e3d06ed	0.18459673
159	0xbd946128	-0.072450936
160	0x3d7d631c	0.061862096
161	0x3c071335	0.008244325
162	0x3c574f92	0.01314153
163	0x3c8ab1be	0.016930457
164	0x3e103103	0.14081196
165	0x3db84388	0.089972556
166	0xbd10bac8	-0.03533438
167	0xbdcc749e	-0.099831805
168	0xbcf060b9	-0.029342996
169	0xbbd34860	-0.0064478368
170	0x3dfc49a3	0.123187326
171	0x3e16755f	0.14693211
172	0xbda13988	-0.07872301
173	0xbd83bdfd	-0.06432722
174	0xbce5b124	-0.028038569
175	0x3df21a3a	0.118214086
176	0x3dbffd67	0.093745045
177	0x3e15b9e2	0.1462169
178	0x3d519c69	0.051174555
179	0xbdd5205c	-0.10406563
180	0xbd6f4d22	-0.05842317
181	0xbd478ccf	-0.04871827
182	0x3ce4516a	0.027870853
183	0xbde23593	-0.11045375
184	0x3cc507e8	0.024051622
185	0xbdfd2795	-0.12361065
186	0xbcb63700	-0.022243023
187	0x3d921bc1	0.071342
188	0xbcf757ff	-0.030193327
189	0xbc784a21	-0.015154392
190	0x3daaf66a	0.08347781
191	0xbd521ba9	-0.05129591
192	0x3b2ac746	0.0026058718
193	0x3c914749	0.017734187
194	0x3e2f47ed	0.17117281
195	0xbdbabfe0	-0.091186285
196	0xbd5f3ea3	-0.054503094
197	0xbd3f8280	-0.046755314
198	0xbe0e7d12	-0.13914898
199	0xbc5a030d	-0.013306391
200	0x3c2ca64e	0.010537697
201	0x3b46fe62	0.0030364026
202	0x3c825af6	0.015912514
203	0x3df771bc	0.1208224
204	0x3de1da96	0.1102802
205	0xbe04a2ae	-0.12952682
206	0x3e06e505	0.13173302
207	0x3c2c3497	0.010510585
208	0xbcf9fb44	-0.03051532
209	0xbde6c152	-0.11267342
210	0x3ce1d745	0.027568469
211	0xbdb5b715	-0.08872811
212	0xbd070cca	-0.03297118
213	0x3d0e1802	0.034690864
214	0xbce5a65e	-0.028033432
215	0x3d1b7d65	0.037961382
216	0x3d98dcab	0.07463964
217	0xbd8f57f7	-0.069992
218	0x3dba7d95	0.09105984
219	0xbd69d462	-0.05708731
220	0xbd8cc5a4	-0.068736345
221	0xbdcd1aff	-0.10014915
222	0xbdad0638	-0.08448452
223	0x3cb6e6a7	0.02232678
224	0xbd10dfa0	-0.035369515
225	0xbc766035	-0.015037586
226	0xbdcb0107	-0.09912305
227	0xbd697cc5	-0.057003755
228	0xbd97b009	-0.07406623
229	0xbc92546d	-0.017862523
230	0xbd8b4d0a	-0.068018034
231	0x3d82d507	0.06388288
232	0x3b26b9b9	0.002544029
233	0x3d48c99a	0.049020387
234	0x3d885d89	0.066584654
235	0xbbb98b2f	-0.005662344
236	0x3df4f128	0.119600594
237	0x3d59184a	0.05300168
238	0x3ca91403	0.020639425
239	0x3c9e138f	0.019296436
240	0xbdb7dea6	-0.08978014
241	0xbd623a9c	-0.055231676
242	0x3d01f865	0.031731028
243	0x3d537b17	0.05163106
244	0x3dbcb652	0.09214462
245	0xbd1aed39	-0.03782389
246	0x3dc563a9	0.09638149
247	0x3d867a56	0.065663025
248	0x3c9b2528	0.018938616
249	0x3d47f4e9	0.04881755
250	0x3a8170ab	0.0009875497
251	0xbdbbacc1	-0.091638096
252	0x3cbc213d	0.022965068
253	0x3da09095	0.07840077
254	0x3e261cc8	0.16221917
255	0xbd985f1b	-0.07440015

mlp2.2.bias f4 [50]
0	0x3c8393a3	0.01606161
1	0x3c8421f7	0.016129477
2	0x3d240a57	0.040048923
3	0x3db6e736	0.08930819
4	0xbaea61cc	-0.0017881929
5	0xbc8cd60e	-0.017191913
6	0x3b9c8bb9	0.0047773984
7	0xbb81affb	-0.003957746
8	0x3b948afa	0.004533169
9	0x3c506afc	0.01272082
10	0xbda6b585	-0.08140091
11	0xbdc728d8	-0.09724587
12	0x3c86bd49	0.01644768
13	0x3cc13c91	0.02358845
14	0xbcf71600	-0.030161858
15	0x3d9fec24	0.07808712
16	0x3c9a3e76	0.018828612
17	0xbab3d3eb	-0.0013719773
18	0xbd10682d	-0.0352556
19	0xbbe39c84	-0.0069461484
20	0xbd9f9d16	-0.07793634
21	0xbd389004	-0.04505922
22	0xbd8e154b	-0.06937655
23	0x3d6717d7	0.05641922
24	0x3d8a3a09	0.067493506
25	0x3ccf3af1	0.02529666
26	0x3c2748c2	0.010210218
27	0x3c5efda7	0.01361028
28	0xbc7ffd18	-0.015624307
29	0x3d5d0b1c	0.053965673
30	0x3d387f96	0.04504355
31	0x3cde791d	0.02715736
32	0x3cc18165	0.02362127
33	0xbe00165d	-0.12508531
34	0xbdca4b74	-0.09877673
35	0x3c813b2f	0.015775291
36	0x3d5d9494	0.054096773
37	0x3d56f709	0.052481685
38	0xbdf821ac	-0.121157974
39	0xbd934fb8	-0.071929395
40	0xbca10e00	-0.019659996
41	0xbda95545	-0.08268217
42	0x3e053de8	0.13011897
43	0xbd277714	-0.040885046
44	0x3de4fc55	0.11180941
45	0xbdeb34c5	-0.11484674
46	0x3be69f0f	0.007038004
47	0xbd19d7ef	-0.037559446
48	0x3dc0f6dd	0.094220854
49	0xbc0842de	-0.008316724

attention.0.weight f4 [100, 200]
0	0xbb9b6e84	-0.004743399
1	0xbcf0792a	-0.02935465
2	0x3c879795	0.016551772
3	0x3d41b1cc	0.0472887
4	0xbd180dec	-0.037122652
5	0xbd515979	-0.05111072
6	0x3ca961c9	0.02067651
7	0x3d45218d	0.0481277
8	0x3cb7b565	0.022425363
9	0xbca1b134	-0.019737817
10	0x3cbbeb90	0.022939473
11	0xbd51c273	-0.05121083
12	0xbd81a1c9	-0.06329686
13	0x3d94f269	0.072727986
14	0x3c756430	0.0149775
15	0x3d0a727d	0.03380059
16	0xbd088357	-0.03332838
17	0x3cd7449f	0.026277838
18	0xbd453b31	-0.048152152
19	0xbc8d53a6	-0.0172518
20	0x3d70a65c	0.058752403
21	0xbcd2edaa	-0.025748093
22	0xbd1ee3d1	-0.03879148
23	0x3c5ae97c	0.013361331
24	0x3d27bb23	0.04094995
25	0x3d948769	0.0725239
26	0x3bfa36a2	0.0076359073
27	0xbcef4227	-0.029206349
28	0x3d090af8	0.033457726
29	0x3d275c24	0.040859357
30	0x3cb452c1	0.022012116
31	0x3d470109	0.04858497
32	0xbca86322	-0.020555083
33	0x3d840ad1	0.064473756
34	0xbd486107	-0.048920657
35	0xbcefc84b	-0.029270312
36	0xbcee32e3	-0.029076999
37	0x3d45d801	0.0483017
38	0xbd14e334	-0.03634949
39	0xbc958ecc	-0.018256567
40	0xbd1ea610	-0.03873259
41	0x3d375012	0.044754095
42	0xbd122fce	-0.03569012
43	0x3c858d3a	0.016302694
44	0x3d069321	0.032855157
45	0xbcb324be	-0.021868106
46	0x3d7c8f55	0.06166013
47	0x3d8faea4	0.07015732
48	0x3d737062	0.05943335
49	0xbd00b6ab	-0.031424206
50	0xbd7fc7e3	-0.062446486
51	0x39c97195	0.00038422333
52	0xbd710a93	-0.058847975
53	0x3c76ec70	0.0150710195
54	0x3d2f2629	0.042761
55	0x3bb7bd97	0.0056073177
56	0x3a30e0cc	0.00067473645
57	0x3d0dac74	0.034588292
58	0x3d84645d	0.06464455
59	0x3cf2f8de	0.029659685
60	0x3d87410a	0.06604202
61	0x3d8a6c21	0.06758905
62	0xbd56541e	-0.052326314
63	0x3ca55b67	0.020185186
64	0xbd408780	-0.047004223
65	0x3d857ec4	0.06518319
66	0xbca7dc0c	-0.020490669
67	0xbcb7d050	-0.022438198
68	0xbb4ae125	-0.003095695
69	0x3d073227	0.033006813
70	0x3be302ef	0.00692784
71	0xbd3de3ca	-0.046359815
72	0x3b93677c	0.0044984203
73	0xbd5d007b	-0.053955536
74	0x3d58214b	0.052766126
75	0x3ccd441c	0.025056891
76	0x3d139b9d	0.036037076
77	0xbcb306c7	-0.021853818
78	0x3cefa885	0.029255161
79	0x3c2586cd	0.01010294
80	0xbd30d48a	-0.043171443
81	0x3d68947d	0.056782234
82	0xbb5e9422	-0.0033962806
83	0xbd0e668e	-0.034765773
84	0xbc778cf8	-0.015109293
85	0x3d6f92aa	0.05848948
86	0x3d6d7f5b	0.057982784
87	0x3d3bc44c	0.0458415
88	0xbcb255c1	-0.021769406
89	0x3c093224	0.008373771
90	0x3cc40a63	0.023930734
91	0x3c73cd6a	0.0148805175
92	0xbcf279e9	-0.029599147
93	0x3ceacc07	0.028661741
94	0xbd464074	-0.04840131
95	0x3c9b5c69	0.018964963
96	0x3d7e5e8c	0.062101886
97	0x3d2fbe35	0.042906005
98	0xbc445d58	-0.0119851455
99	0x3d59098b	0.052987617
100	0xbd8b4b36	-0.06801455
101	0xbd01d945	-0.031701345
102	0xbd45ed40	-0.048321962
103	0x3d055393	0.032550406
104	0xbc6aa8b3	-0.014322448
105	0xbc2e485e	-0.010637371
106	0xbd90cbb6	-0.07070105
107	0x3d124d8d	0.03571849
108	0x3c595872	0.013265716
109	0xbccbcc09	-0.024877565
110	0xbce3cb62	-0.027806941
111	0xbbf3b96c	-0.0074378755
112	0x3d10a903	0.035317432
113	0xbd7b2544	-0.061314836
114	0xbd1272b1	-0.03575391
115	0xbd881f97	-0.0664665
116	0xbd1605d7	-0.036626663
117	0xbd1b3d13	-0.03790004
118	0xbd816e6e	-0.06319891
119	0x3d8f61d3	0.0700108
120	0x3d6f6d36	0.05845376
121	0x3ce71bdd	0.028211528
122	0xbd40441e	-0.04693996
123	0x3cbfcf19	0.023414182
124	0xbd898d35	-0.06716386
125	0x3c8eab96	0.017415803
126	0xbcb2f49b	-0.021845153
127	0xbd125524	-0.035725728
128	0x3d291a61	0.041284923
129	0x3d29bba9	0.041438732
130	0x3d2353a4	0.039874688
131	0xbd0d4994	-0.034493998
132	0x3ccad43e	0.024759408
133	0x3d667b4a	0.05626992
134	0x3d49c110	0.049256384
135	0xbc18eb2c	-0.009333413
136	0xbcec752b	-0.028864464
137	0xbd8a3504	-0.06748393
138	0x3c90d6d3	0.017680561
139	0x3d90954e	0.070597276
140	0x3d651507	0.055928256
141	0x3d564049	0.0523074
142	0xbd3a57e5	-0.04549398
143	0x3cbe30d2	0.023216639
144	0xbc73d4c3	-0.014882269
145	0xbd7d54e6	-0.061848544
146	0x3b8a6b99	0.0042242524
147	0xbd33a368	-0.04385701
148	0x3d7786c4	0.060431257
149	0x3d3ea627	0.046545174
150	0x3ce47953	0.027889883
151	0xbd80abf4	-0.062827975
152	0xbc196a84	-0.009363774
153	0xbd8a31b5	-0.06747762
154	0x3c9fb9b4	0.01949773
155	0xbccaa50a	-0.0247369
156	0xbc012b75	-0.007883896
157	0x3c8db304	0.017297275
158	0x392af292	0.00016302828
159	0xbc3c6d04	-0.011500601
160	0x3d443222	0.047899373
161	0xbce5d8dc	-0.028057508
162	0x3bee92d9	0.007280689
163	0x3af0c688	0.0018369714
164	0xbd042857	-0.032265034
165	0x3d602598	0.054723352
166	0xbc266973	-0.010156977
167	0xbc0f0210	-0.008728519
168	0xbc908b9a	-0.017644692
169	0xbce5f0b3	-0.028068876
170	0x3ce66c7e	0.028127905
171	0x3cb12d50	0.021628052
172	0xbd9570bd	-0.07296894
173	0xbc188367	-0.0093086725
174	0x3d313c66	0.04327049
175	0xbcab3f28	-0.020904139
176	0xbd15e8e4	-0.036599055
177	0xba1d2678	-0.0005994807
178	0x3c2349a5	0.009966289
179	0x3b423805	0.002963544
180	0x3c6c68bd	0.014429268
181	0x3d8fa81a	0.07014485
182	0x3d461aca	0.04836539
183	0x3c10dd74	0.008841861
184	0x3c1a19d6	0.009405574
185	0xbd774a24	-0.06037344
186	0x3c04c0d6	0.008102616
187	0xbd8df33c	-0.06931159
188	0x3c8a0d59	0.016852068
189	0xbce458a0	-0.027874291
190	0x3d4adbdd	0.049526084
191	0xbbf33bb2	-0.0074228877
192	0xbccc3ccb	-0.024931332
193	0x3d849063	0.06472852
194	0xbd9fc205	-0.07800678
195	0x3c2a1d92	0.010383027
196	0xbc9178c1	-0.017757775
197	0xbd7c1098	-0.061539263
198	0x3cddee89	0.027091281
199	0xbd1e80da	-0.0386971
200	0xbd10c89b	-0.035347562
201	0x3d0b7ce9	0.03405467
202	0x3cabf798	0.020992085
203	0x3d64ce0a	0.055860557
204	0xbaafa873	-0.0013401642
205	0xbd075d61	-0.033048037
206	0x3c744aef	0.014910444
207	0xbd06d872	-0.032921262
208	0x3d790fda	0.060806133
209	0xbc71a355	-0.014748414
210	0x3cc1e79b	0.023670008
211	0xbb9c5761	-0.0047711586
212	0xbca89cf7	-0.02058266
213	0x3ce44bc1	0.027868154
214	0xbd28f060	-0.041244864
215	0xbb8f6c6f	-0.00437694
216	0xbceefef3	-0.029174304
217	0x3c9ae67d	0.018908734
218	0xbce04cbc	-0.02738034
219	0x3d4069b1	0.046975795
220	0xbd336c97	-0.04380473
221	0xbc12a3c4	-0.008950178
222	0xbc6e4d2d	-0.014544767
223	0x3c5ff025	0.013668095
224	0xbd6185be	-0.055059187
225	0x3c9a5508	0.018839374
226	0x3ccccd0a	0.025000114
227	0x3bb3ce25	0.005487221
228	0xbd2ca645	-0.042150754
229	0xbc0a6678	-0.008447282
230	0x3d50866e	0.050909452
231	0x3b436daa	0.0029820004
232	0x3d8028bd	0.0625777
233	0x3d42f79a	0.047599413
234	0xbc88b0eb	-0.016685924
235	0xbd81ad30	-0.06331861
236	0x3d937b76	0.07201283
237	0x3d8f69c7	0.07002597
238	0x3c91984d	0.017772818
239	0x3d1d2bb4	0.038371757
240	0x3b311263	0.0027019016
241	0xbc9f867f	-0.019473312
242	0xbd5cdc99	-0.053921316
243	0x3b90a92d	0.0044146986
244	0x3d466c31	0.048443023
245	0xbced5814	-0.028972663
246	0x3bac78fe	0.005263447
247	0x3d27edc4	0.040998235
248	0x3ca636b8	0.020289764
249	0x3afa614f	0.0019102487
250	0x3d470bf0	0.04859537
251	0x3d29f009	0.04148868
252	0x3d205404	0.039142624
253	0xbd1c8c5d	-0.0382198
254	0xbd86c4ee	-0.0658053
255	0x3c5b7b6f	0.013396128

attention.0.bias f4 [100]
0	0xbd94c7d2	-0.07264675
1	0xbd075520	-0.033040166
2	0x3cb5776b	0.02215167
3	0x3c3c5930	0.011495873
4	0xbc9ff52d	-0.019526089
5	0xbd1f7bad	-0.038936306
6	0x3b568a2e	0.003273617
7	0xbd981552	-0.074259415
8	0xbc9b3d5b	-0.018950155
9	0xbced2f55	-0.028953234
10	0x3d1ec52e	0.038762264
11	0x3c850bcb	0.016240975
12	0xbd58b8c7	-0.052910592
13	0xbd3dffeb	-0.04638664
14	0xbcac7546	-0.021052014
15	0x3d4c7f91	0.049926344
16	0x3d1c41c4	0.038148656
17	0xbd7791f8	-0.06044194
18	0x3d2f96ca	0.042868413
19	0x3d0e7b79	0.03478572
20	0xbd483aeb	-0.048884314
21	0x3b11471b	0.0022167626
22	0x3d83917b	0.064242326
23	0x3b50580b	0.003179076
24	0x3d5a7a39	0.053339217
25	0x3c69af6b	0.014263014
26	0x3d4e9413	0.050434183
27	0x3c4adff0	0.012382492
28	0x3d89a569	0.067210026
29	0x3c6e7085	0.014553194
30	0xbd0fc590	-0.03510052
31	0x3d0dae01	0.03458977
32	0xbd4eb5ee	-0.05046647
33	0x3b97483f	0.0046167667
34	0xbd16179c	-0.03664361
35	0x3ce17ed4	0.027526297
36	0xbd7600b0	-0.06005925
37	0xbd0425a1	-0.03226245
38	0x3d9412e5	0.07230166
39	0xbd17fbcd	-0.03710537
40	0xbce41220	-0.027840674
41	0x3d9ee58e	0.07758628
42	0xbcb808cd	-0.022465134
43	0xbd9076d8	-0.07053918
44	0xbd983e0b	-0.07433709
45	0xbd73f592	-0.059560366
46	0x3d10a0cd	0.0353096
47	0x3dbe1375	0.09281055
48	0xbd00d198	-0.031449884
49	0x3b62e0f7	0.0034618953
50	0xbcf269ee	-0.029591527
51	0xbd43eaa6	-0.0478312
52	0x3d41dd00	0.047329903
53	0xbd6bcc46	-0.057567857
54	0xbd775c4a	-0.060390748
55	0xbc2f7f21	-0.010711462
56	0x3d77ec11	0.060527865
57	0x3d892035	0.06695596
58	0xbbf746c2	-0.007546277
59	0x3cde32cf	0.027123837
60	0xbd1250f6	-0.03572174
61	0xbcaa11f4	-0.020760514
62	0xbc7debf4	-0.01549815
63	0x3d0ce42a	0.03439728
64	0xbc10a11d	-0.008827475
65	0xbccecde5	-0.025244663
66	0xbd245084	-0.04011585
67	0xbd482f18	-0.048873037
68	0xbce14f97	-0.027503772
69	0x3d5727f1	0.052528325
70	0xbd0d0791	-0.034431044
71	0xbc8ff46a	-0.0175726
72	0x3c4038ed	0.011732322
73	0xbd883c38	-0.06652111
74	0x3bae2bf9	0.0053153005
75	0xbd846fe6	-0.064666554
76	0xbd5b1655	-0.053488094
77	0xbd4e7a86	-0.050409816
78	0x3cd0f5e2	0.025507871
79	0xbc811906	-0.015759002
80	0xbd7d575b	-0.061850887
81	0x3ced43b6	0.028962951
82	0x3d1b5f32	0.037932582
83	0xbc1bbae3	-0.0095050065
84	0x3d1d737f	0.038440224
85	0x3d0fca9a	0.035105325
86	0x3d0ede34	0.03487988
87	0x3cae01fa	0.021241177
88	0xbd736004	-0.05941774
89	0xbc3f56a1	-0.011678369
90	0x3bb7385f	0.0055914368
91	0x3d86782e	0.06565891
92	0xbc629c84	-0.013831262
93	0x3ce84409	0.028352754
94	0xbd47a869	-0.048744593
95	0x3cb1f113	0.021721398
96	0xbd15c9e1	-0.03656948
97	0xbca0a1e6	-0.01960845
98	0xbbd837bf	-0.0065984423
99	0xbbafa0f2	-0.0053597623
