arena_navigation/arena_local_planner/model_based/sarl_star/sarl_star_ros/CrowdNav/crowd_nav/data/output/il_model.pth (torch_old, 349348 bytes, 20 tensors)

mlp1.0.weight f4 [150, 13]
00000000: b399 ff3d 679d 6cbe b6a3 88bd 715c 0f3e
00000010: 0fd1 3ebe 6f8d c93d 1593 aa3e 72af a7be
00000020: 2a3e 513d 018c 2ebe d692 1a3c da7e 893d
00000030: c72a 83be f9ef 71bd 8306 603c 4fea 4ebd
00000040: 2d18 79bd 0c0a ef3d b203 0cbd ed16 68be
00000050: 11a4 0d3d aa2c f43d 3dd7 32be 37e1 48bc
00000060: b46d 1ebb 2ab7 c5bc d86b 57bc 6f77 1c3e
00000070: 8774 323e 4b97 843d 7c2a 263e f26a 273e
00000080: c510 e338 72f8 b13e b591 c83d 2ef8 21be
00000090: 5234 69be 510e 843d 5bf8 ef3d 595a 0a3e
000000a0: 7891 ba3d 8a75 24be 4343 b63d 40ba c2bd
000000b0: c827 633e a92c 2a3e d661 353e 26cb 32bd
000000c0: 7343 9e3d 5e0a 1c3e b8fd 75be 6932 4f3e
000000d0: 6abf 46be fb32 c83d 7962 753e b0d3 8dbe
000000e0: 6ced 543e 71fb be3b 7f57 44bd 25a2 f13d
000000f0: 00c5 ce3d 1604 05be bce7 06bd b343 62be
00000100: 393b 26be b130 c33d 21bc 41bc c67a 683d
00000110: fe73 66bd 71a1 303e 608d a03d 862f 1e3e
00000120: 26d0 b2bd 4579 c0bd 9902 26be e2fd 6dbe
00000130: 5c65 72be c771 fdbd b09a 713e e1d1 88be
00000140: 86b8 2d3e b1c9 bb3b c6b1 56be 6de6 63be
00000150: 8e9f 4f3d 0d58 4a3d 82bc 9a3c d1fa 8a3e
00000160: f4e3 ad3d 173e 90be 9cf2 13be b818 da3d
00000170: bd28 fb3d d4d4 773e a359 67be 28a2 813d
00000180: 125c 8d3d df46 a4be 9e2c 07be 42e9 4ebe
00000190: fc6c 8a3e 4787 bdbd ca5a 31bd 8dee 08be
000001a0: a4e3 093e fa27 78be 18f2 46bd b9a5 32be
000001b0: cb91 c43d 288b fdbd b1fa 32bd b635 013d
000001c0: 8fe7 8d3e 68df 3c3e 8455 75be 1a91 8e3d
000001d0: 5884 e3bd e8a5 153e cb45 83be 1bff 3b3d
000001e0: 60c9 efbd 1e6c 7d3e 88fc 8c3e f2c9 83be
000001f0: 3e25 1bbe f0dc d63d f3e5 69be 9914 16be
00000200: 1b89 123e b1fb 353e 73ed 493e 6556 2fbd
00000210: 5041 6e3e 184a 8ebe 2e86 8abe a641 b83e
00000220: 2c02 bb3d e689 67be a039 313e 333f 243e
00000230: 74cb 953c b0ae 30be 88dc 3abd 6b10 b73a
00000240: 467e 3bbd 2748 fd3d 0784 903d 4cb3 063e
00000250: 01a3 95be 63e4 5d3e 330a 873e bdcb fd3d
00000260: 96b6 4e3d bd16 90bd 5f49 0e3e f0a8 843e
00000270: 450a e83c 85ea 733d 899a f4bd bfe0 5d3e
00000280: 1279 03be a879 12be 85d4 0fbe 375d 243e
00000290: 1cb0 6ebd 69c7 893e 8dc9 23be 564e 593e
000002a0: aa0d 50be 17af 12be feb2 8d3e 976f dfbc
000002b0: b958 a3bd 1f89 d4bd 40df 0bbe 4ed6 f0bd
000002c0: 8ef5 323c e147 3fbe fb83 59be 871f d33d
000002d0: 5e08 5fbe 6a1a 893e 214c 603e 1326 54be
000002e0: d475 0b3d c5bd b83d b374 5cbe 0f00 9bbe
000002f0: 8ef0 e6bd 0155 293e 10aa 99be d0e8 ae3e
00000300: fc6a 11be 677d 9bb9 df11 e8bd 776e 2d3e
00000310: 61e4 e7bd 323a 62be 76f2 073e 803c d3be
00000320: 41bb f03d d83e 9c3e 063f 60be 5e04 00be
00000330: 2e8c c2be 7906 6d3e c9e7 8ebe 9531 35bd
00000340: 011f 153e f47b 0f3e 6258 10be 9f2b 87be
00000350: 91d3 6d3e 02d4 b9bd 42a9 a5bd 1fdc 85bd
00000360: 9df7 53be 5158 fcbb 4cdb 80be 1e37 0abe
00000370: af46 653e 1469 7cbd 3f90 253d 0e4d a13c
00000380: 2cd4 623e 851d b23d 13e1 2e3e bb50 ca3c
00000390: 8bde 94bd 43ff 51be d5bf 5ebd f429 1f3e
000003a0: 7ba7 73bd 6373 09be 2144 6a3d 8e17 633e
000003b0: a3df 5dbe 961d f7bd 56b0 9b3e 9d72 e93d
000003c0: 53a1 a2be 3b3c 87be 3fb6 753d 903b 283e
000003d0: 798a 233d 7c42 5c3c 83a1 5f3d 8ba4 35be
000003e0: 6422 83be df7c 653e 5478 1cbe 9efc 793e
000003f0: b027 05be e7e5 debd 984d 13be df53 773d
0.12480488 -0.23106919 -0.066718504 0.14000107 -0.18634437 0.098414294 0.3331534 -0.32751042
0.051084675 -0.17045595 0.0094344225 0.06713648 -0.25618574 -0.059066746 0.0136734275 -0.050516423
-0.06081407 0.11671838 -0.03418321 -0.22664995 0.034580294 0.119225815 -0.1746492 -0.012260727
-0.0024174275 -0.024135191 -0.013148271 0.15279935 0.17427264 0.06474169 0.16227144 0.1634939
0.00010827327 0.3475986 0.097934164 -0.1581733 -0.22773865 0.06448043 0.11717292 0.13511027
0.09109777 -0.16060463 0.08899548 -0.095081806 0.22183144 0.16618599 0.17713103 -0.04365077
0.07727709 0.1523833 -0.24022567 0.20234074 -0.19408956 0.09775349 0.23963346 -0.27700567
0.20793694 0.005828314 -0.047935005 0.11798505 0.100961685 -0.1298984 -0.032935843 -0.22096138
-0.16233529 0.095307715 -0.011824639 0.05675771 -0.056262963 0.17249085 0.07839465 0.15447816
-0.087311074 -0.0939813 -0.16211928 -0.2324138 -0.23671478 -0.12375217 0.23594165 -0.26722625
0.16964921 0.0057308306 -0.20966253 -0.22255869 0.050689273 0.049400378 0.018888716 0.27144483
0.08490744 -0.2817237 -0.14448017 0.10649246 0.122636296 0.24202281 -0.22592787 0.06329757
0.06902327 -0.3208532 -0.13200614 -0.20206168 0.27036273 -0.09254318 -0.043299474 -0.1337225
0.13465744 -0.24234 -0.048570722 -0.1744603 0.0959812 -0.123800576 -0.04369611 0.031545363
0.27715728 0.18444598 -0.23958403 0.0696127 -0.11109227 0.1461407 -0.25639185 0.045897584
-0.11708331 0.24748275 0.27536416 -0.2574001 -0.15150926 0.10491359 -0.22841625 -0.14656295
0.14310114 0.17771794 0.19719486 -0.042807 0.23267102 -0.27790904 -0.27055496 0.35987586
0.091312736 -0.22611198 0.17307138 0.16039734 0.01828549 -0.17254138 -0.04562047 0.0013966685
-0.04577472 0.123672776 0.07056432 0.13154334 -0.29225925 0.21669154 0.2637497 0.123923756
0.050467096 -0.07035587 0.13895176 0.2591014 0.02832521 0.059549827 -0.11943538 0.21667765
-0.12839153 -0.1430422 -0.14045914 0.16051184 -0.05827342 0.2690995 -0.15994854 0.21221289
-0.20317712 -0.14324604 0.27675623 -0.02727489 -0.07975907 -0.10377716 -0.13659382 -0.117596254
0.010922803 -0.18679763 -0.21241753 0.10308748 -0.21780536 0.26777965 0.21904041 -0.20717649
0.034047917 0.09020571 -0.21528892 -0.30273482 -0.11276351 0.16536333 -0.3001256 0.34161997
-0.14200968 -0.00029657336 -0.11331534 0.1693667 -0.11322857 -0.22092512 0.13276085 -0.41257095
0.11754466 0.30516696 -0.21899042 -0.12501666 -0.37997574 0.23147 -0.27911213 -0.04423674
0.14562608 0.14012128 -0.14096215 -0.26400468 0.23225237 -0.090736404 -0.08088924 -0.065361254
-0.20699926 -0.007700958 -0.2516731 -0.13497588 0.22390245 -0.061623648 0.040420767 0.019690063
0.2215125 0.08697037 0.17078047 0.024696698 -0.07269009 -0.20507531 -0.054382164 0.15543348
-0.059485894 -0.13422923 0.05719388 0.22176954 -0.21667342 -0.1206619 0.3040797 0.11398814
-0.31763706 -0.2641314 0.059988257 0.16428971 0.03992698 0.0134435855 0.05459739 -0.1773855
-0.25612175 0.22410916 -0.15280277 0.24412772 -0.13003421 -0.10883694 -0.14385068 0.06038272

mlp1.0.bias f4 [150]
00000000: 120f bdbb 2106 363e d1ad 5cbe c029 863e
00000010: 9f86 75bd 87d1 5ebe bee1 8cbe 22a2 d03d
00000020: 4a96 7fbe ebfc 95bd a351 f23d b3ea 4abe
00000030: c8af edbc e370 ccbd 3e28 cb3d 65a3 16be
00000040: 5bf0 663e 8592 33bd 2ef0 9d3a 7b66 713c
00000050: d0ea 843a 0f18 26be 858a fcbd c066 ac3d
00000060: 52f2 a63d b37e 89be 3805 9f3c dc6d 823e
00000070: eb30 44be 97ad 69be ba3a 893d 355d 483e
00000080: 2c5e 12be 11da 003e 89e7 8a3c ac3f 463d
00000090: 802d 933d 6d29 06be fccd 8cbe 97a6 793c
000000a0: d7a3 4dbe 25d5 39be b188 513d c380 3cbe
000000b0: a680 c1bd 383d e0bd 4e17 973b 9b96 09be
000000c0: 3258 953e a15e 5e3d a087 1fbe 400a 71be
000000d0: 171e 663d 9771 063e acce f83d f12c 09be
000000e0: 7b4b 41be b471 3bbe 41ac 723c 3789 863e
000000f0: a4cb cb3d 4972 36be c31d 4cbc ed59 afbd
00000100: 1c49 713e d467 603e a899 553e fcee 96be
00000110: c5cb 6fbe fa5b fd3d fdd9 583e 396b 513d
00000120: 91ab fd3d 3325 343e 676c f93c 012e 42be
00000130: f600 3b3e 23ac 9dbd 67bd 20be 8425 88be
00000140: 768a 30bd 4acd 45be d1e5 09be e173 393e
00000150: b41a e83d 8a75 6a3e 2722 143c 2206 35be
00000160: 9762 2cbe e485 733e 15fc 31be 3f99 aebc
00000170: 9c1e 70be 42ee 633e ff43 af3d 3da3 edbd
00000180: 38de 2b3d d54f 8d3c aa3d 6a3e a414 1abd
00000190: 896d 953c 7c8b 49be 8623 2e3e 4a7b 7bba
000001a0: fdc4 53be 5110 3e3e 01b1 a6bd 6705 c2bc
000001b0: 24d8 b3bb 841e 1e3e a30a c83d ba35 01bd
000001c0: 7c31 cb3c 88b5 013e 3690 86be 5627 3e3e
000001d0: a0eb 49be ffa0 d53d 11fc 0abd e74b 2a3e
000001e0: 84ac 4f3e 2de8 1c3e 1a5e 09be 5ddd 89be
000001f0: 0f0d 283e 30d1 823e 9661 0ebe cc11 4ebe
00000200: 846b 54be bb8e 35bd 4cfc 50be 9eaf b1bd
00000210: 889c 6bbe 3021 83be 8db5 25be 03b8 89be
00000220: d3ba 743e cb87 a13c 69b9 183e 2a8c f43d
00000230: 1f93 a93b 3d22 2f3e 8469 043e b184 78be
00000240: 7b00 24be 044d 6fbc 8ed3 e83d 5f9e 183e
00000250: 7122 17be f2b1 343e
-0.005769619 0.17775775 -0.2155068 0.26203728 -0.059942838 -0.21759616 -0.27515978 0.101871744
-0.24959674 -0.07323631 0.11831977 -0.19816093 -0.029014483 -0.09982469 0.09919785 -0.14710768
0.22552626 -0.043840904 0.0012049729 0.014733906 0.001014078 -0.16220115 -0.12331108 0.084180355
0.08151688 -0.26854476 0.019411668 0.2547444 -0.19159286 -0.22820126 0.06700654 0.19566806
-0.14293736 0.12583186 0.016956108 0.048400566 0.07186413 -0.1310174 -0.27500904 0.015237472
-0.20082031 -0.18147714 0.05115575 -0.18408494 -0.09448366 -0.109491765 0.0046109324 -0.13436358
0.2916885 0.054289464 -0.1557908 -0.23539066 0.05618104 0.13129269 0.121487945 -0.1339605
-0.1887645 -0.18305093 0.014811576 0.26276562 0.09950951 -0.17817034 -0.012458268 -0.08562074
0.23563045 0.21914607 0.20859396 -0.29479206 -0.23417576 0.12371059 0.21176906 0.051127646
0.12386239 0.17592315 0.030447198 -0.18962862 0.18262085 -0.07698848 -0.15697251 -0.26591122
-0.043100797 -0.19316593 -0.13466574 0.1811061 0.11333218 0.228964 0.009041346 -0.1767812
-0.16834484 0.23781544 -0.17381318 -0.021313308 -0.23449177 0.22258857 0.08557891 -0.11603401
0.04195997 0.017249981 0.22875085 -0.03761734 0.018240707 -0.19682115 0.17005739 -0.00095932616
-0.20680614 0.18560912 -0.081392296 -0.023684217 -0.0054884125 0.15441328 0.09767654 -0.03154538
0.02480387 0.12666905 -0.262819 0.18569693 -0.1971879 0.10431098 -0.033931796 0.16630517
0.20280653 0.15322943 -0.13414803 -0.269267 0.16411231 0.25550222 -0.13904414 -0.20123976
-0.20744139 -0.04432557 -0.20408744 -0.086760744 -0.2300893 -0.25611258 -0.16182537 -0.26898202
0.23899393 0.019718071 0.14914478 0.11940797 0.005175009 0.17102905 0.12930876 -0.24269368
-0.16015808 -0.014605764 0.11368476 0.14904164 -0.14759232 0.17646006

mlp1.2.weight f4 [100, 150]
00000000: 9119 d93d 4baf 27bd 0d95 c8bd 83ea dfbb
00000010: 2f29 86ba 7b3c 493d 58ef 073e bb78 19bb
00000020: 8440 a83d b25a 8dbd 1f77 e73d afc5 70bd
00000030: d71d 663d c93d cd3c 9d02 013d 313a 063e
00000040: 1357 783d 8432 bdbc 40ec d1ba 7f7c a43c
00000050: e6e8 aa3d 7d0c b73a 1e93 41bd 0862 22bd
00000060: 862d 0b3d c053 d23d 1607 9fbc 49e1 61bd
00000070: 910a 073c 54a6 863d 87b3 5cbd 71e7 af3d
00000080: a1ab 96bd ef46 6a3d 748b 83bd a696 adbb
00000090: 62bd 0e3d 8eea 55bd ef4b 5b3d 52dc a9bc
000000a0: adc1 523b f4f8 733d e9e8 84bd 4d15 17bd
000000b0: e790 2d3d e79a 903d a4ec bebc d824 35bd
000000c0: 0532 d8bb de38 99bd 17cd 073d e266 143d
000000d0: be81 573d 888f 4fbd bc49 a13c 82b1 703d
000000e0: 74cd f8bc b4d5 acbd a8c9 8bbd 972d e03c
000000f0: 3f13 893d b744 433d e77e ce39 1f83 8b3c
00000100: c810 9b3c 4798 20bd 4f77 5dbd 4115 5f3d
00000110: aad1 513d fa7d 8e3d d74a 633d ab6e 2dbb
00000120: 8dc3 2e3d 2fc2 be3d 6bed 49bd df38 aabc
00000130: f0ff 313d 4fe0 61bb 8918 833d 8ef0 b73c
00000140: 0c97 383d a924 5cbd e041 1f3d 3478 6dbd
00000150: ac13 49bd d392 99bd 6151 78bd dc29 c53d
00000160: 202f 3a3c 864f 6abb 52b7 3c3d 3c9f 0fbd
00000170: bf8e 8dbc c70d 4fbd 6f1a 013c 9110 d9bb
00000180: 92bf 83bd 92f9 98bc e9d4 933d af0b 37bd
00000190: 61a8 a23d fee5 a33d b10b 1b3d d3a1 973d
000001a0: 6c74 89bc 56f4 60bd d79c be3d 1dd8 8fbc
000001b0: ca0a b53d a3c5 943d fb72 7a3c 12b5 cbbd
000001c0: 57cf 453d 665c d8bc a174 8b3d 926a 433d
000001d0: 667d 41bd 709b 8b3d 4a0a 803b 3fab 08bd
000001e0: 1c19 8f3d c134 88bd 85d8 6abc 484b eb3c
000001f0: 866a 09bd 52d2 9ebc 078a 55bd aeec 67bd
00000200: 71db c13a c6e0 78bb 7c25 883c 3f70 8abd
00000210: c27a 5a3d 9578 65bd 8f9f 08bd 9b9e 87bd
00000220: 5024 7dbd 8319 1e3e f1e3 293d 84f6 6dbd
00000230: 20af 88bd 558b 9bbc 6600 0fbd a0c5 33bd
00000240: 8578 98bd 7ee8 01bc 9f31 4e3d c8a6 0bbc
00000250: 7264 e4bc ccfa 15bc 47e7 84bc f0cc a83b
00000260: 1d0b 92bd 0d7f 353d a43a 7abd ac3a 27bd
00000270: df95 81bd 777d 9e3d 7f02 193c a56e 94bd
00000280: 3bcc 9d3d 920c 373d b610 a0bd 9b04 193d
00000290: 27ee 4ebd ceef a0bc e661 283d 6623 95bc
000002a0: 0c81 f23c 4572 0b3d 8bf5 123c b1bb 94bd
000002b0: 48e6 6bbd 3f25 e33c 9df9 f9bc 5586 14bd
000002c0: 4d74 cdbb 7513 543d e211 63bd 671d 5dbc
000002d0: 9a60 063d cce7 82bd 6e4d 043d 7012 83bd
000002e0: 981c 8fbc 5b6b 3dbd 301b aa3c 4e94 aabd
000002f0: fa80 4ebd 1a09 47bd 711e aabd 1037 eb3c
00000300: 5ed5 8f3d 28b8 5e3d 9ac8 9e3d 508f 43bd
00000310: cf95 d73c 8e99 963d 6c4e 24bd acc8 09bb
00000320: 7cec b7bc 8733 223d 43fd 863d 922a 703c
00000330: 1631 39bd 1702 043d d227 8e3d f874 f8bc
00000340: d5b1 84bc 0192 a63d d925 e23c a2b3 5d3d
00000350: 1b1a 16bd 42db 023d 161d 2fbd 4123 6d3c
00000360: a65d 24bc d871 63bd 5384 8abd 13b3 fa3b
00000370: 09b1 80bc 9f98 5c3c 23b4 67bd aaf1 573d
00000380: f889 953d 891b 2ebd b5e3 82bd 4fd7 03bd
00000390: 4af3 7a3d 6c83 26bd 33d6 a5bd 08d0 713c
000003a0: a40c 93bd d39b 95bd cc0a a13c 3021 9abd
000003b0: 14ec abbc cde9 3c3c e587 073d d2bf 823c
000003c0: 3c3f 89bc 854b 373c 260e 4a3c cb56 41bd
000003d0: 1e02 1cbd 3c26 f2b9 b7e6 8d3d a157 9c3d
000003e0: 2e18 6a3d cf79 99bd 61f7 27bd 61c9 4e3c
000003f0: 40b9 a4bb d7ec 25bc 243d ab3c c242 3b3d
0.106005795 -0.040938657 -0.09794054 -0.006833376 -0.0010235662 0.049129944 0.13274896 -0.0023417908
0.082154304 -0.069020644 0.113020174 -0.058782276 0.0561808 0.025053876 0.031496633 0.13108136
0.060629915 -0.023095377 -0.0016015843 0.020078896 0.08345203 0.0013965514 -0.047259443 -0.03964427
0.03397896 0.1026988 -0.019412559 -0.05514649 0.008242265 0.06574693 -0.053882148 0.08589066
-0.07356954 0.057196554 -0.06423083 -0.0052974997 0.03484858 -0.052225642 0.053539213 -0.02073494
0.0032158897 0.059563592 -0.064897366 -0.03688555 0.042374518 0.07060795 -0.023306198 -0.04422459
-0.0065977597 -0.0748155 0.033154573 0.03623093 0.052613966 -0.05067399 0.01968848 0.058763035
-0.030371405 -0.08439198 -0.06825572 0.027365489 0.06693124 0.047672953 0.0003938593 0.017030297
0.0189289 -0.039207723 -0.05406886 0.05446363 0.05122534 0.06957622 0.055491295 -0.0026463668
0.04266696 0.09314381 -0.049298685 -0.020779071 0.04345697 -0.0034465974 0.06401164 0.022453573
0.045065925 -0.0537459 0.038881183 -0.057975963 -0.049091026 -0.074987076 -0.060624484 0.09627125
0.011363775 -0.0035752966 0.046073265 -0.035063967 -0.01727998 -0.05055025 0.007879837 -0.0066242893
-0.064330235 -0.018673692 0.07218344 -0.044688877 0.07942272 0.08002852 0.037852947 0.074039124
-0.016779147 -0.054920517 0.093072586 -0.017559106 0.088399485 0.07264259 0.015286203 -0.09946646
0.048293438 -0.026411247 0.068093546 0.047709055 -0.04723873 0.06816757 0.0039074766 -0.033366438
0.06987211 -0.06650687 -0.014333849 0.02872242 -0.033548854 -0.019387398 -0.052133586 -0.0566222
0.001479013 -0.0037975772 0.016619436 -0.067596905 0.053339727 -0.0560232 -0.033355292 -0.066220485
-0.06180221 0.1543942 0.041477147 -0.058096424 -0.066740274 -0.018987337 -0.03491249 -0.04388964
-0.07444862 -0.007928966 0.05034029 -0.0085236505 -0.027879927 -0.009154033 -0.016223563 0.0051513836
-0.07131026 0.04431062 -0.06109108 -0.04082744 -0.06327414 0.07738774 0.009338974 -0.07247666
0.077049695 0.044689722 -0.07815687 0.037357908 -0.05052009 -0.019645598 0.04110899 -0.018205356
0.02960255 0.034044523 0.008969675 -0.07262362 -0.05759266 0.027727721 -0.030514533 -0.03626092
-0.0062699676 0.05177637 -0.055436976 -0.01349578 0.03280697 -0.06391868 0.032300405 -0.06400001
-0.01746969 -0.04624496 0.020764917 -0.08329068 -0.05041597 -0.048592664 -0.083065875 0.02871278
0.070231184 0.054374844 0.077531055 -0.047744095 0.026316551 0.07353507 -0.04011385 -0.002102415
-0.022451632 0.03959992 0.065912746 0.014658587 -0.045212828 0.032228556 0.06941189 -0.030329213
-0.016198078 0.08133317 0.027605938 0.05412639 -0.03664599 0.03194738 -0.042752348 0.014473737
-0.010032093 -0.05552849 -0.0676352 0.007650742 -0.015709417 0.013464122 -0.056568276 0.052720703
0.07301706 -0.04250673 -0.06391088 -0.032187756 0.061267175 -0.040652677 -0.08097496 0.014759071
-0.071801454 -0.07305112 0.019658469 -0.07525861 -0.020986594 0.011530352 0.033088583 0.015960608
-0.016753785 0.011187439 0.012332475 -0.047201913 -0.038087957 -0.00046186324 0.06928771 0.076339014
0.057151966 -0.07493936 -0.041007403 0.012621255 -0.0050269663 -0.010127268 0.020903178 0.045717962

mlp1.2.bias f4 [100]
00000000: 2217 d9bd 6881 5a3d dbd5 953d 3eb0 cdbb
00000010: 7566 b03d eb92 5ebc a9d5 bb3d 98de 0fbd
00000020: 315b 663a 175c a53c ab16 47bd e63e e4bd
00000030: b610 933d 0f10 90bd 8101 753d bcec f4bc
00000040: d169 833d e2fd 283d 04da 92bc 5dd9 a63c
00000050: 7cfe 1cbd 3170 c53d 7c32 643d ab8d 0dbd
00000060: 3132 61bc 094e 793d 8577 90bc 2a38 0d3e
00000070: 2734 9a3d 9707 553d 1b0d 52bd 28f7 813d
00000080: c670 8abc 3ad3 5d3d ad8c aa3d d51c cb3d
00000090: ad98 ef3b 7b42 7abd 3926 c5bc c198 6b3d
000000a0: b5d4 af3d 11b3 093d fa77 823d 1bc2 383d
000000b0: 9b11 89bd f7d2 f4bc 0570 5e3c d949 76bd
000000c0: 364d e8bc dcda c0bc a225 5dbd e474 b2bd
000000d0: 2908 303d b5ff 35bd df7f 68bc c5e0 9c3c
000000e0: 0230 f4bc 2697 c6bd 38ff 9dbc 1e56 8cbd
000000f0: c31e 863d 2a18 58bd b58f d33b 978d bf3d
00000100: cc45 32bd 687f 0f3c 1ad4 253c 245e 0ebd
00000110: 6492 eabd a12c c73c af65 42bc be3a 7e3b
00000120: db7a 6f3d 905e a63d e5b7 f23d 1825 91bd
00000130: 801f fa3c 540f f9bc 8710 523b 7914 b63c
00000140: 22b5 873d a86b ee3d b318 12bc 5ab5 5e3c
00000150: 96a2 94bd aa77 ba3c 2a90 773d 4a34 19bd
00000160: 83df 57bc 0c62 96bd e7a5 2d3d 6ae0 333c
00000170: 540d 673d b5bb b1bc fde9 a23d 16da 81bd
00000180: 61c4 afbc 7324 9abd 5842 04bd dc66 59bd
-0.10600115 0.053346068 0.0731618 -0.006277113 0.08613292 -0.013584833 0.09171612 -0.03512439
0.0008787392 0.020185513 -0.048605602 -0.111448094 0.07180922 -0.07034313 0.059815887 -0.02989804
0.06416667 0.041257747 -0.017926224 0.020367319 -0.038328633 0.096405394 0.05571221 -0.034558933
-0.013744877 0.060865436 -0.017635116 0.13790956 0.075294785 0.05200919 -0.05128203 0.063459694
-0.016899478 0.05415652 0.08327613 0.09917609 0.0073119015 -0.061098557 -0.024066078 0.057518724
0.085854925 0.033618037 0.0637054 0.04510699 -0.06692811 -0.029885752 0.013576512 -0.06012902
-0.02835713 -0.02354186 -0.053990968 -0.08713701 0.042976532 -0.044433314 -0.014190643 0.019150147
-0.029808048 -0.09696798 -0.019286737 -0.06852363 0.06548836 -0.05275742 0.00645634 0.09353178
-0.043523595 0.008758403 0.01012137 -0.03475775 -0.11453703 0.024313273 -0.011865064 0.0038792337
0.058466773 0.08123505 0.11851481 -0.07087153 0.030532598 -0.030402817 0.0032053308 0.022226559
0.06626345 0.116416276 -0.008917022 0.013593042 -0.07257573 0.022762138 0.06044022 -0.037403382
-0.013175848 -0.0734292 0.042394545 0.010978797 0.056409195 -0.021695951 0.07954786 -0.06340425
-0.021455945 -0.075264834 -0.032289833 -0.05307661

mlp2.0.weight f4 [100, 100]
00000000: a646 663c eb77 b53b 51a3 12bc e4ef 9e3b
00000010: 753d b33d 802e 9ebd 63ac 8ebd 7bc5 b6bd
00000020: cb95 c73d d59d 0c3e 8033 b93c 4529 913d
00000030: 9309 823c 8def ebbc 4818 073d a7ea d4bd
00000040: 6845 9abc 0986 8fbd afb8 3ebd 475c 1fbe
00000050: 80ca 14be b05b afbd 8811 bf3d 77dc 3f3d
00000060: 9aca 963d 9949 cdbd bfd5 98bd 9737 983d
00000070: 9bc3 f03d 6bfa 15bc 4485 a3bd cc77 ac3d
00000080: 2717 91bc 8b90 c8bd e932 9f3c 0591 b43b
00000090: 2e63 903d 5489 c43d 6036 aa3c 9e23 9fbd
000000a0: 9ec8 38bd cbeb a63d 3847 b43d 2a84 33bb
000000b0: 425c 0f3c 8e87 c8bc ab8c 60bd c796 e4bd
000000c0: 539a 0dbd f20a 3bbd 7713 553c 669e 1ebd
000000d0: 1755 b13d 1e5a a23d b8a7 aa3d d8e9 4f3d
000000e0: f44a 2fbc 7ed7 9f3c 15ea f9bc 5190 a4bc
000000f0: 4fee a6bd 1247 8ebd 8776 d73c 3729 edbd
00000100: df7e 8c3d 232e 7fbc 6d42 37bc ec90 93bd
00000110: 95d6 03be 71a4 c4bc 1ee4 a8bd 26b2 853d
00000120: ae20 a0bc 313c b8bd d7c1 a53d 4bb8 b4bd
00000130: 9b5c 7c3d 4aa0 8e3d f38d 473d b1bb cdbc
00000140: 0535 f5bc 3bcb 083d f6df f93c 28f8 afbc
00000150: 0791 a03d d91f c73d 2be1 733d 05e5 bf3d
00000160: ed5c a33d d33c cfbd 6077 083d 9ae7 483d
00000170: 357f 0c3d 2638 07bd a078 e63d 553b 843d
00000180: 5701 34bd 3c46 d93c 9704 46bd 509b f5bd
00000190: 4be4 5bbc f4ea a63c 6f1c e03c 691c 01be
000001a0: ec61 263d 1eef 6abd 861a 013e 5f37 c1bd
000001b0: 1641 4ebd 94c2 313d 0329 84bc a358 1b3d
000001c0: 716d 43bd f5a1 7dbd 04fe 60bc a1fb 99bd
000001d0: 82f2 a23c bed4 353b b2d8 13bc 9673 10be
000001e0: 1ef5 77bd 4eef 8a3c 0929 41b9 2d86 09be
000001f0: e167 563d fd53 d33d c34c 9ebc c46f a13d
00000200: 6df1 d13d 2c18 95bd 6d78 b4bc 23c5 b63d
00000210: 0cd2 34bd feb5 7a3d 98c7 093e cff9 30bd
00000220: fbd1 813d 4149 61bc 25dd c7bd 8523 923d
00000230: 6262 1f3e ce66 89bd 58db f43d 9ec2 8c3d
00000240: dc12 bf3d be6f 3dbc 9473 9d3d 8cfe b03d
00000250: a3fb b53d f8f1 823d e4cc b93a f49f c6bd
00000260: 6c38 91bd 5a0c 873d 2230 09bd e09b 513d
00000270: cdcd 093d c5ca 04bd 42db a73d d073 5abd
00000280: c61b 14bd 3174 403b a97d 24bb 32c2 36bd
00000290: dd3c 463d 8857 54bd 980d c8bd bb7c dc3d
000002a0: 103f 5cbd a751 433d c825 9abc 496e 52bc
000002b0: b1a4 bdbd cf70 5d3d 2ab0 9e3d 65ad 013d
000002c0: 8c16 24bd dbb4 a23c 282e 3a3c b7ab 15bd
000002d0: 4a73 de3d c1cf 2a3c 9d71 51bd 2f76 cc3b
000002e0: c664 843d f976 9cbd 163b b83c d8a0 22bd
000002f0: e521 0a3d 61db 953c 700e bcbd f943 e43d
00000300: f394 03be 97cf 363d 33bb c8bc 5795 75bd
00000310: 5886 b73b 6830 edbd 1b7b 5cbd ebfe c6bb
00000320: 7ec6 1f3c bada 963d 7081 203d 5e41 a1bd
00000330: ebe4 0a3d 133f a2bd c3bc eabc 0d83 46bd
00000340: 3d5c 06bd 17b4 333b c9d5 8c3d 0d2f 27bd
00000350: 3d00 bd3d 89de 68bd f66f 293c b688 7abd
00000360: 4207 bfbd 388e 163d 9ce5 85bc d6c0 403d
00000370: 37d3 a93d cef8 48bd b8c3 48bd 2c84 863d
00000380: 8736 b63d f844 8bbd fd3b 11bd 479a 833d
00000390: 0994 b03d f4b4 10bd 09c3 283d 2b34 803d
000003a0: e0e4 69bd 3f1f 383d 35f1 f83c fb12 a43d
000003b0: 14d2 1b3c 31b7 55bd 72c7 bdbd ae7e 82bc
000003c0: c76d 773d 631c d0bd 20ed b23d 6d9b 293c
000003d0: 09da 193b 10b8 1dbb 952b 213d c836 a5bd
000003e0: ec32 90bd 66df 01bd 83e4 c6bd 400e 4b3c
000003f0: adf5 76bd f390 9f3c 13cc 73bb 38b0 8b3d
0.01405493 0.005537977 -0.0089500705 0.0048503745 0.087519564 -0.07723713 -0.06966474 -0.08924385
0.097453676 0.13732083 0.022607565 0.0708795 0.015873706 -0.02880075 0.03298214 -0.10396319
-0.018831924 -0.07007987 -0.046562847 -0.15562545 -0.14530373 -0.0856241 0.09329516 0.04684111
0.07362862 -0.10023803 -0.07462644 0.07432478 0.11756059 -0.009153943 -0.07984403 0.08421287
-0.017711235 -0.097931944 0.019433456 0.0055104517 0.07050167 0.09596506 0.020777881 -0.07770465
-0.0451132 0.08150443 0.088026464 -0.0027392008 0.008750023 -0.0244787 -0.05482165 -0.11161571
-0.034571003 -0.045664735 0.013005129 -0.03872528 0.08658808 0.07927345 0.08332771 0.05076012
-0.010699023 0.019511934 -0.030507127 -0.020088347 -0.081509225 -0.06947149 0.026301635 -0.11580127
0.06860136 -0.015574965 -0.011185271 -0.07205376 -0.12874825 -0.024004193 -0.08246635 0.0652812
-0.019546833 -0.089958556 0.08093613 -0.088242136 0.061611753 0.069641665 0.048719358 -0.025113912
-0.029932508 0.03339694 0.0305023 -0.021480635 0.07840162 0.09722871 0.05954091 0.09369854
0.079767086 -0.10119023 0.03331697 0.049048997 0.034301 -0.03301253 0.11253476 0.06456629
-0.04394659 0.026522748 -0.04834422 -0.11992514 -0.0134211285 0.020375706 0.027357308 -0.12608494
0.04062073 -0.057356946 0.12607774 -0.09434389 -0.05035504 0.043398455 -0.016132837 0.037926327
-0.047711793 -0.061922032 -0.013732437 -0.075186975 0.019891027 0.0027745212 -0.009023832 -0.14106593
-0.060536496 0.016959812 -0.00018421201 -0.1343009 0.05234516 0.10318754 -0.019323712 0.07882646
0.102511264 -0.07280001 -0.02203008 0.089243196 -0.04414563 0.061208718 0.13455045 -0.043206986
0.06338879 -0.013750375 -0.09758977 0.07135681 0.15564874 -0.067090616 0.11955899 0.06873058
0.09329769 -0.011562286 0.076880604 0.08642301 0.088858865 0.06393808 0.0014175442 -0.096984774
-0.0709084 0.06594153 -0.03349317 0.051174045 0.033643533 -0.03241994 0.08196117 -0.053333104
-0.0361593 0.002936613 -0.0025099313 -0.044618793 0.048397887 -0.05184129 -0.09768218 0.10765978
-0.05377108 0.04768529 -0.018816844 -0.012843677 -0.09259928 0.05406266 0.077484444 0.031659503
-0.040060565 0.01986163 0.011363544 -0.036540713 0.108618334 0.010425509 -0.05113374 0.0062396745
0.064645335 -0.0763988 0.022489112 -0.039704174 0.03372373 0.018293085 -0.09182441 0.11145777
-0.12849788 0.044631567 -0.024503326 -0.059956875 0.005600732 -0.115814984 -0.05382834 -0.006072869
0.009751914 0.073659375 0.03918594 -0.07873796 0.03390972 -0.07922187 -0.028654462 -0.048464824
-0.03280281 0.0027420574 0.06876714 -0.040816355 0.09228561 -0.05685285 0.010341635 -0.061165534
-0.09327556 0.036756724 -0.016344838 0.047058903 0.08292239 -0.049065404 -0.049014777 0.065681785
0.08897119 -0.06800264 -0.0354576 0.064259104 0.086219855 -0.03532882 0.041201625 0.0625995
-0.057103038 0.044951674 0.030388454 0.08011433 0.009510536 -0.052176658 -0.09266557 -0.015929546
0.060407426 -0.10161664 0.08736634 0.010351998 0.0023475906 -0.0024066009 0.039348204 -0.08067089
-0.070409626 -0.03170719 -0.09711554 0.012393534 -0.06029289 0.019478297 -0.0037200495 0.068207204

mlp2.0.bias f4 [100]
00000000: df7b bbbb 33b1 60bd 06d7 e43d 9e88 c53d
00000010: 3e93 083d 0187 ac3c 84f9 e5bd 4941 8fbd
00000020: 2d56 a43d 6c85 073e 78c0 25bd 0488 29bd
00000030: 5667 8b3d c590 883d 99d1 8d3d ce93 c63c
00000040: 5c27 ae3b a6c2 c6bd 99da 75bd 92e2 a6bb
00000050: 59f4 8f3d 788a 0cbd a993 1abd d4f3 db3c
00000060: 23ae 9e3d 137f bebc b223 abbd 6988 6f3d
00000070: 21b8 053d d2cc 8abd 332b 22bd 66b1 923d
00000080: 1f7d 353d 3a9d 4b3d 7f7f cbbd ab5c e53c
00000090: a89a 85bd dd1d 12bd 173d bcbd 6b34 1c3d
000000a0: 7562 23bd 0238 8fbd 8d62 213d 62c2 623c
000000b0: 2f8a 3e3d 3ce3 023d a32a b43d c959 d4bd
000000c0: aeb1 2fbc 934f f3bc 3b25 8fbd d600 fdbc
000000d0: 02e3 183e d5ff 9cbd c246 4ebd 1a2a 4bbd
000000e0: dfca 92bd 64e7 c93d 09c3 10bd f4bc 2bbd
000000f0: 4291 c1bd a862 94bc 3425 cd3d 6907 36bd
00000100: ca18 963d 2ca8 213d 77f4 9a3d 3007 043e
00000110: 5a84 143d 2b49 93bd 41de a7bc f514 563d
00000120: 1a1f dc3c aab8 79bd d1fb 29bd 6839 f53c
00000130: 4208 eb3d 0581 373d 9758 80bd 654d c83d
00000140: e9be 02bc 10e4 153d 4e86 7e3d 0c31 a03c
00000150: 6355 58bd 433b 1f3b 5686 09bd 7f55 a8bd
00000160: d313 8f3d 03cf ec3d d957 27bd a566 263d
00000170: 0f6f 4abd 1195 e1bc 6a52 973d fab9 6d3d
00000180: eebd aaba 9279 943c 6665 dc3c 23d7 923d
-0.0057215537 -0.05485649 0.11173825 0.09645198 0.033343546 0.021060469 -0.11229232 -0.06994874
0.08024249 0.1323449 -0.040466756 -0.04138948 0.06806819 0.066682376 0.06924743 0.0242404
0.0053147506 -0.09705095 -0.060022924 -0.0050929273 0.070290275 -0.03431174 -0.037738476 0.026849665
0.07748058 -0.023253953 -0.08356418 0.0584797 0.032646302 -0.067773476 -0.03959198 0.07162742
0.044308778 0.04971049 -0.09936427 0.02799829 -0.06523639 -0.03567301 -0.091913395 0.038135927
-0.039888818 -0.069931045 0.039400626 0.01384029 0.0465185 0.03195499 0.08797195 -0.10368688
-0.0107235145 -0.02970103 -0.06989523 -0.030884188 0.14930347 -0.076659836 -0.05036045 -0.049600698
-0.07167601 0.098585874 -0.03534225 -0.041928247 -0.09451534 -0.01811345 0.100168616 -0.04444066
0.07328947 0.03946702 0.07566159 0.12893367 0.036259033 -0.0719169 -0.020491721 0.05226608
0.0268703 -0.060967125 -0.041499916 0.0299346 0.114761844 0.044800777 -0.06266897 0.09780387
-0.007980087 0.03659445 0.0621398 0.019554637 -0.052815806 0.0024296797 -0.03357538 -0.08219432
0.06986203 0.11562922 -0.040855262 0.040625233 -0.04942232 -0.0275369 0.07388766 0.05803869
-0.0013026574 0.018124375 0.02690382 0.0716994

mlp2.2.weight f4 [50, 100]
00000000: a72b 483d 8c31 00bd efdf 6a3c 3983 7a3d
00000010: 1b46 28bd ba7c a0bd 2e2a 9b3d c14e 973d
00000020: a33f 4dbd 3373 79bd ac5d 02bd e84d 4cbd
00000030: bc82 313d faaa 65bd 3416 15bd b6c4 79bd
00000040: 9547 babb 8fea f4bc a061 43bd 51ef 6abc
00000050: c24d b73d a49f 083d 9547 4e3d 5bda 87bd
00000060: 3fc1 5d3c 4690 7e3b a3af 823d 36ff c0bd
00000070: f667 6ebd 7f4d 0bbd fd26 07bd 03ce 45bc
00000080: 73fb 74bd f81e cfbc ee0c dc3c 189d a23d
00000090: a1f4 77bd 2fc8 c63c 67e0 15ba 3bae 293d
000000a0: 3489 26bc cddf b1bd ab01 f4bb 3d10 ebbc
000000b0: bf80 35bd 85e8 0a3d aef1 bbbd 359b ce3c
000000c0: 2804 1cbd 28e4 ba3d 0d79 90bd 0108 613d
000000d0: af3c 04be 1a71 8a3d 5023 85bc 2186 bdbd
000000e0: f34f ac3d 9d7e 84bd f0ff 8e3d 0d4d 0abd
000000f0: aad3 6a3d 0413 92bb 3dcc c13d 9107 71bd
00000100: cfed 093d 3546 923d 418c 6e3d 3cd3 5a3d
00000110: e378 1cbd ee56 433d 0da7 8b3c b211 aabd
00000120: 83cd 97bd 03f5 9ebd 0d1d b0bc f14b 9f3d
00000130: f306 a5bc 07cb 793d 0f2c 5f3d 7fff 7e3d
00000140: b10b d13c 4988 ae3d 2808 043d 9dd3 523d
00000150: 0f43 adbd 3a08 ffbb 3cc5 533d b69a 34bd
00000160: c4fc f4bc d3d5 dfbd 98be 3a3d 0ad5 b6bc
00000170: 08fd 33bd 3342 46bd d28f 2cbd d69d 963d
00000180: 7042 ec3c 1f6d 813c d817 bb3d c6d3 bbbc
00000190: eadd e63d 793a 46bd eeb3 4e3d e3a4 bc3d
000001a0: 3ae0 e1bc bde6 89bd f6fe 6c3d 3e1e 59bd
000001b0: 2dfe 083c 0c56 873d 6eb3 9c3d a94e d03d
000001c0: 2498 d7bd 9bbc 123c 21df cabd 4a6b 74bd
000001d0: ea5f bd3d 95ca ccbd 94d9 ac3d 293e 0e3d
000001e0: 6701 b4ba ffae c03d 3a8f 18bd 3c92 d9bd
000001f0: b882 45bd 2df2 97bd 4eea 24bd ef82 f2bc
00000200: 335a 643d e66a 393d 2872 46bd 730f 33bc
00000210: 45b3 85bd a93a 0b3e ccc9 aa3d 52a6 15bd
00000220: 82c3 d4bd 2810 263d a0b7 983d 02d9 993d
00000230: 474e 6db9 8b2b 1d3d 8237 5ebb da06 d9bd
00000240: 13de da3c ba71 0ebe d0e0 be3d 7746 a6bc
00000250: eb7e 9b3d 23b6 eabc ff4b 8a3d ac82 053d
00000260: 9074 d13d 4c08 c0bd f4bd ddbc e5ef 07bd
00000270: e756 c7bd 184b ecbc 0fb3 103e e863 e6bb
00000280: 885e 02be 23f9 323c 8577 853d fca1 6ebd
00000290: 0bd3 113d 50ac 8c3d d60d 90bd a018 13be
000002a0: 9754 d83a 90da 2abc 0ee9 a03d 9c76 643d
000002b0: dbbd 65bd b452 d4bd d83a 9f3d 23d3 2abd
000002c0: ed0a eebd a094 ca3d 5af4 adbd 66c6 e33c
000002d0: 99b1 a13d 0ca8 f7bd a3c8 abbd 2648 663c
000002e0: 4c8f 61bd c4de a33c 8ba9 abbd 6568 ac3d
000002f0: df81 e0bd d5a3 59bd c449 2cbe c33f d43d
00000300: d755 96bd aec2 c5bd 9edb 03be ef0b 843d
00000310: 429f 3ebd 9023 9dbd c5e4 3dbd f782 c2bc
00000320: 62ae 843d 449c 913d 8dd8 bb3c 5b91 fa3d
00000330: 15c1 c9bd 8212 6e3c 3ad4 9fbc bece 2c3d
00000340: 60e6 5abd 82cf 1ebe a79e c23b 3174 913d
00000350: 7da2 f9bc 7e83 9b3d af80 edbc 6519 f83c
00000360: 56ac 9c3d 7c78 2dbd d518 223c 489a 49bd
00000370: 4716 823d bd75 363c 149d b6bd 0d95 35bd
00000380: 1aa1 fd3a 1ea1 c23d a5cb a0bd 9ae1 c73d
00000390: 25ba fcbb 0995 2a3d 5252 023d 0ae3 8dbc
000003a0: 919e 95bd 1e5c 313d d2f3 d73d 19f5 8a3d
000003b0: eaca d1bd 87b2 703c 3fd6 adbb 38b6 9a3d
000003c0: 3dab 883c 6421 173c 5eec 0c3d 1e66 d63d
000003d0: e073 73bd 562c c7bd 12bf b33d e521 64bd
000003e0: 068c e8bb e4e8 fbbc 1852 97bc 5991 e9bd
000003f0: b1f3 80bd 0d07 0e3d 5e3c 213d be5d b7bd
0.048869755 -0.03129725 0.0143356165 0.0611603 -0.041082483 -0.0783629 0.075764045 0.07388068
-0.050109517 -0.06090088 -0.031827614 -0.049878985 0.04333757 -0.05607126 -0.036398128 -0.060978614
-0.005684803 -0.029897003 -0.047700524 -0.014339284 0.08950378 0.03335537 0.050361235 -0.06633445
0.013534843 0.0038843318 0.06381156 -0.094236776 -0.058204614 -0.034009453 -0.032996166 -0.012073043
-0.059810113 -0.025283322 0.026861634 0.079401195 -0.06053603 0.024265377 -0.00057173375 0.041425925
-0.010164548 -0.08685265 -0.007446488 -0.028694266 -0.044312235 0.033913154 -0.09176956 0.025220493
-0.0380899 0.091255486 -0.070543386 0.054939274 -0.12913774 0.06759854 -0.01625219 -0.09254099
0.084136866 -0.06469462 0.0698241 -0.033764888 0.057330765 -0.0044578332 0.094627835 -0.058845107
0.033674058 0.07142297 0.058239225 0.053424105 -0.038201224 0.047690324 0.01704743 -0.08304156
-0.07412245 -0.07761576 -0.021498227 0.077781565 -0.020144915 0.060984638 0.054485377 0.06225538
0.02551827 0.08522088 0.03223434 0.05147134 -0.08460056 -0.007782963 0.05170177 -0.044092856
-0.029905684 -0.109294556 0.04559192 -0.022318382 -0.04394248 -0.048402976 -0.042129345 0.073543236
0.028840274 0.015799103 0.09135407 -0.02292813 0.112727955 -0.048395608 0.050464563 0.09211137
-0.02757274 -0.06733463 0.057860337 -0.053007357 0.0083613815 0.06608209 0.07651411 0.10171253
-0.105270654 0.0089561 -0.0990584 -0.05967263 0.0924681 -0.09999577 0.08439937 0.03472725
-0.0013733328 0.09408378 -0.037245966 -0.10623595 -0.048220366 -0.07419238 -0.040262513 -0.02960345
0.055750083 0.045267962 -0.04844871 -0.010928976 -0.065283336 0.13596596 0.08339271 -0.03653557
-0.10388853 0.04054275 0.07456899 0.07512094 -0.00022631242 0.038371604 -0.0033907597 -0.1059701
0.026717221 -0.1391057 0.09320223 -0.020297272 0.07592567 -0.028651303 0.06752776 0.03259532
0.10227311 -0.093765825 -0.027068116 -0.033187766 -0.09733372 -0.028844401 0.14130805 -0.0070309527
-0.12731373 0.010923657 0.06516937 -0.05825995 0.035601657 0.068688035 -0.07033889 -0.14364862
0.0016504702 -0.010428086 0.07856952 0.055777177 -0.056089263 -0.10367337 0.077748954 -0.041705262
-0.11623178 0.09891629 -0.08493872 0.027804565 0.07895202 -0.12092599 -0.08387878 0.014055287
-0.0550683 0.020003684 -0.08381947 0.08418349 -0.10962271 -0.053134758 -0.16825014 0.10363724
-0.073405914 -0.09656273 -0.12876746 0.06447589 -0.0465386 -0.07672799 -0.04636075 -0.02374409
0.064785734 0.071098834 0.022930408 0.122347556 -0.098512806 0.01453078 -0.019510377 0.042189352
-0.05344236 -0.15508845 0.005939323 0.0710224 -0.030472988 0.075934395 -0.028992025 0.030285547
0.07650058 -0.04235123 0.009893616 -0.0492194 0.06351905 0.011136469 -0.08916679 -0.0443316
0.001935038 0.09503387 -0.07851342 0.09759827 -0.00771262 0.041646037 0.031816788 -0.017320175
-0.07305635 0.04330074 0.10544552 0.0678503 -0.10243781 0.014691002 -0.005305081 0.07554287
0.016683215 0.00922427 0.034405105 0.10468696 -0.05943668 -0.09725253 0.08776678 -0.055696387
-0.00709677 -0.0307507 -0.018471763 -0.11404676 -0.062964804 0.034674693 0.03936421 -0.08953427

mlp2.2.bias f4 [50]
00000000: d248 423c 3226 bf3d 84bd 963d 8f12 7f3d
00000010: 752f e73b 3c12 b83d 827b 9fbd 1fdf 95bc
00000020: ed0a 78bd 2684 c8bd 85b7 c83c 1658 6abd
00000030: 62c4 9e3d 50c0 bdbd cc68 b53c 0759 c03d
00000040: f656 503d 1365 3bbd 79db 923d 3cdd d5bc
00000050: b143 73bd 4502 95bd 4f3f c23d 6b91 4dbb
00000060: 0f5e e9bc bf0e 56bd 4fef e7bd 12e2 42bd
00000070: f65b de3d 1dc5 ab3c c558 3e3d 3c6f e8bd
00000080: eec8 a03d 01b9 a03d 6173 813c d877 b43d
00000090: 186a a73d 05c1 7eba 35c3 0e3d 5c2f f4bc
000000a0: f6c9 523d 75b7 603d ed2c 2dbd dfee 8cbd
000000b0: cd2f 0f3d 19e2 18bd 635a 0dbd 4bff f6bc
000000c0: 0549 9cbd c2b6 91bd
0.011858182 0.09333457 0.07360366 0.06227356 0.007055218 0.08987853 -0.07787229 -0.018294869
-0.060557295 -0.0979083 0.024501571 -0.05721291 0.07752301 -0.09265196 0.022144698 0.093919806
0.050864182 -0.04575069 0.07170767 -0.02610647 -0.059390727 -0.072758235 0.094847314 -0.0031367193
-0.028487233 -0.052260157 -0.11324941 -0.04757888 0.10857384 0.020968014 0.046471376 -0.11349341
0.07850824 0.07847787 0.015802087 0.08811921 0.08174533 -0.0009718093 0.034854133 -0.029807739
0.051462136 0.05486246 -0.042279173 -0.068814985 0.034957696 -0.037325 -0.034510028 -0.03015103
-0.07631115 -0.071149364

attention.0.weight f4 [100, 100]
00000000: 9e84 b9bc fd34 053d a240 8f3d ee72 4f3c
00000010: 1b51 6dbd ab80 39bc 0ac8 a6bd 2d41 7a3d
00000020: 3e13 c6bd 8b2d 88bc 2017 3dbd 96f5 4cbd
00000030: 7857 86bd 174a 4ebd 2c95 8e3c b4e9 76bb
00000040: 6a9d 6d3d 21ec 3cbd b200 e1bc c770 4cbd
00000050: fc00 723d 8cd4 c73d 0023 00bc 588e 7c3d
00000060: 74df 4d3d 61d8 5abd 66c5 3f3d c802 c33d
00000070: fa50 50bb 9565 adbd 8aa9 b33a 0612 89bd
00000080: befe 81bd 7c4b bb3d 5fee b8bd a4e8 01bd
00000090: 9d89 19bd 50ca d238 001f 5dbb 4c5c 0ebd
000000a0: 0dc3 93bc 4a33 bcbd da33 9abd f7aa 24bd
000000b0: 0df7 59bd 18f3 c9bd 8ac2 2bbb 25fa bbbd
000000c0: f55a 82bd 5e9d 00bd 7853 c63d 3107 9d3d
000000d0: 0f4e b13d ec55 4abd 61fa 883d 6aaf fcbc
000000e0: 405f 0c3b 7a35 a73d 13d2 95bd eea2 53bd
000000f0: 8bae 333d 0f91 06bc 1b2f b63c ae5e 29bd
00000100: 0f05 973d ce36 9b3d 143b fbbc 077f 69bd
00000110: 5b2f 0ebc f8d3 4bbd c103 f03c be68 a7bd
00000120: 7bad b8bd 6f9f 88bc ac1b 5e3d b206 b6bd
00000130: f8c7 59bc 75b9 273d c225 ca3c d623 c9bc
00000140: c069 69bd 4d02 ca3d a47d 983d 359d 803d
00000150: 8ffd 8fbd 8d5d ab3c 9df4 cbbd 3f79 d33b
00000160: e65f f73c 6db2 be3d b13d 8bba a543 8b3c
00000170: ffb3 a93d 98e0 323d 8302 26bc 7391 5a3d
00000180: 6388 28bd 5f3f a73d ce70 9d3d 8df1 db3c
00000190: a003 20bd 686a 8bbc 432a be3d 1d0b 683d
000001a0: 5667 bbbd 85ee eb3b 9b2e 93bd 941b 7f3d
000001b0: f040 b939 fbf6 7fbd 870a bfbb a7c1 a43d
000001c0: 116b ccbd 6ae4 343b 3a28 283d 2484 973d
000001d0: fb84 b5bd fd3d 74bd 57b5 8e3d aee7 0b3c
000001e0: 8f17 a23c 3978 653d d9c5 b2bd 66fe ccbd
000001f0: 2a9d 24bc 788c 983a cd82 7ebd 1bf6 a6bd
00000200: 0332 9b3c b238 64bb 8668 ba3d 3381 aeba
00000210: cddb 9f3b 4876 10bc e2c3 8e3d 5f8f a83d
00000220: 8b80 f43c 1592 9a3d 27ee acbd d8ce c7bc
00000230: faf8 93bc a853 be3d d415 2fbd edcd cdbc
00000240: 2c30 64bd f498 ba3d e91c 183d e341 933d
00000250: 548e ad3d e1e4 bd3d cc72 13bd c740 2e3d
00000260: 145a 9ebd 747b b2bc 9557 00bc caf5 2abd
00000270: 1982 053d 4c74 c63c 8b59 a93d 9f7f 613c
00000280: ab3e 393c 558d 0cbd 5016 1a3d e40b a43c
00000290: 747f 57bd 78de 8f3d 2457 a43c 2d55 1d3d
000002a0: 724f e7bb 53f1 8dbd 3ed1 123d 99b0 8dbd
000002b0: 5a0b 9cbd 5ab9 cfbc fd13 ea3c eb99 343d
000002c0: ea98 5d3d 0c50 1bbd bb61 2d3d fc23 cbbd
000002d0: 52cf cf3d e676 f33c 6737 9cbd 3897 ae3d
000002e0: e78b 703d da74 96bd 1d9c 40bc 08d5 97bb
000002f0: 4b04 34bd 9037 773c 3f1d a1bd a841 3e3b
00000300: c840 4abd 2091 96bd b542 0f3d 987a ccbd
00000310: ce29 b03d 165c 80bd 0260 8dbd ff0c 89bc
00000320: 20da 2cbb e901 3c3d b405 9d3d 5e41 94bb
00000330: 5e05 83ba e9d3 69bd 4c08 573d c798 88bd
00000340: 5639 1ebd b0db 8dbd 862c 0d3d 57f6 7d3c
00000350: e2d2 8abd 178d ddbc f83c cd3d 90ea 873d
00000360: 4907 4dbd 4dd3 66bd 800f bdbd 5dad 01bd
00000370: 053e db3c 1e96 2e3d 0548 9abc 132e cc3c
00000380: 2d99 57bc 0183 1ebd 5458 b43d 01f7 adbd
00000390: b2b4 fcbc 4d94 603d 4e05 673d b8ea e2bb
000003a0: 48cc 263d 4b8b b03c 3b3d cd3d 2e56 89bd
000003b0: 4133 edbc 3055 993d 50ca 46bd be0d 83bc
000003c0: 2a3a 57bd 3794 383d 1f2f 9d3d 43d5 ed3c
000003d0: fdd2 a33d c31d 18bd 8a89 6cbd 797f a3bc
000003e0: fefa b1bd 89d5 35bd 22e2 3bbb 4d38 a0bc
000003f0: 3f5a bc3d 4f25 69bd 6ec0 143d 62e2 9b3d
-0.022646245 0.032521237 0.069947496 0.012661679 -0.057938676 -0.011322181 -0.08143623 0.061097313
-0.09671639 -0.01662328 -0.04616463 -0.050038897 -0.06559652 -0.050363626 0.017405115 -0.003767592
0.05801145 -0.046123628 -0.027466152 -0.04991224 0.05908297 0.09757337 -0.007820845 0.061659187
0.05026193 -0.05342901 0.046819113 0.09522015 -0.0031786547 -0.08466641 0.0013707143 -0.06692891
-0.06347416 0.09145257 -0.09029841 -0.031716004 -0.037484754 0.00010051264 -0.0033740401 -0.03475599
-0.018037343 -0.0918947 -0.07529421 -0.040202107 -0.05321412 -0.098608196 -0.0026208484 -0.09178571
-0.06365005 -0.031400077 0.09683889 0.07667387 0.086574666 -0.049398348 0.06688381 -0.030845363
0.0021419078 0.08164497 -0.07315459 -0.051669054 0.04386763 -0.008213296 0.022239259 -0.04135006
0.07374012 0.075788125 -0.03066782 -0.05700591 -0.008678283 -0.049762696 0.029298665 -0.08174275
-0.09017464 -0.016677586 0.05422561 -0.08887996 -0.013292305 0.04094835 0.024676207 -0.02455322
-0.056985617 0.0986372 0.07445839 0.06279985 -0.07030784 0.020918632 -0.09958766 0.0064536626
0.030197095 0.09311376 -0.0010623244 0.017000029 0.08286285 0.04367122 -0.010132435 0.053361367
-0.041145694 0.08166384 0.076875314 0.026848579 -0.039065957 -0.017018512 0.092854045 0.056651223
-0.09150569 0.0072000646 -0.07186624 0.06228216 0.00035334332 -0.0624914 -0.0058301124 0.08044749
-0.09981359 0.0027601966 0.041053988 0.07398251 -0.08863255 -0.05962943 0.069681816 0.008539123
0.019786624 0.056022856 -0.08729143 -0.1000946 -0.010047236 0.0011638543 -0.06213646 -0.0815241
0.018944746 -0.0034823832 0.091019675 -0.0013313651 0.004878497 -0.008817263 0.069709554 0.08230471
0.02984645 0.07547394 -0.084438615 -0.024390623 -0.018063057 0.092933 -0.042745426 -0.025122607
-0.055710003 0.09111205 0.037136946 0.07190301 0.084744126 0.09272171 -0.03599815 0.042542245
-0.07732025 -0.021787383 -0.007833381 -0.04173831 0.032594774 0.024225377 0.08269032 0.013763337
0.011306445 -0.034314472 0.037618935 0.020025201 -0.052611783 0.070248544 0.020061083 0.038411308
-0.007059031 -0.069307946 0.03584408 -0.06918449 -0.07619353 -0.025356937 0.028573984 0.0440921
0.05410091 -0.037918136 0.04232953 -0.09918973 0.10146965 0.029719781 -0.07627755 0.085249364
0.05872717 -0.073465064 -0.01175597 -0.0046335496 -0.043949407 0.015088931 -0.078669064 0.0029030833
-0.049378186 -0.07351899 0.034975726 -0.099843204 0.086017236 -0.06267564 -0.06903078 -0.01672983
-0.002637513 0.04590026 0.076671034 -0.004524394 -0.0009996106 -0.05708686 0.052498147 -0.06669765
-0.0386289 -0.06926668 0.03446629 0.0155006265 -0.06778504 -0.027044816 0.100213945 0.06636536
-0.050055776 -0.056353856 -0.09231472 -0.031659473 0.026762972 0.04262363 -0.01883317 0.024924314
-0.013159079 -0.038699154 0.0880591 -0.08494378 -0.030847881 0.05482893 0.056401543 -0.0069249533
0.04072216 0.021550795 0.100214444 -0.067058906 -0.028955104 0.07486951 -0.048532784 -0.015997764
-0.052545704 0.045063224 0.07675003 0.029032355 0.07999227 -0.037137758 -0.057748355 -0.019958245
-0.08690451 -0.044393096 -0.0028668721 -0.019558096 0.091969006 -0.056920346 0.036316328 0.076115385

attention.0.bias f4 [100]
00000000: 74bd bcbd 64d6 9e3c 5ced adbd a070 1239
00000010: 8477 5dbd 9b76 073d 4488 33bd 752d e13b
00000020: 57c4 113d 2806 0abd 58ed 013d c33b 2d3d
00000030: 4652 c03d f1da 51bd ede9 e5bc 08a1 38bd
00000040: d73e 473d 7d60 43bd baf1 90bd f3f5 a7bc
00000050: 47dc 93bc 4d7d d1bd ec7d 77bd 043d 6f3d
00000060: 7318 afb9 1afd 1abb 1233 c4bd 8939 9f3d
00000070: 6e02 77bd 2510 333c 00cc c63d 9815 8b3d
00000080: bd96 9e3c d1c3 88bd 7554 d43c a43a 6bbc
00000090: c60e abbc d642 80bc 3ce6 9b3d 5f27 c2bb
000000a0: 598b 5ebd 60f7 84bd dafd 79bd a9b9 463d
000000b0: 1d61 623d db41 5abd 7bb3 573d 7bf6 75bb
000000c0: 7da6 2cbc ead5 b238 cad1 183d 12a8 9fbc
000000d0: 2809 8cbc 6877 6bbd e8ee ab3c 3b8f b2bc
000000e0: ed6f f33d 96d7 ca3d 8082 b53d e1aa 063d
000000f0: a774 153d b403 b93d 5f46 aabc 4316 4a3d
00000100: af67 a5bd 7824 893d 538b 2c3b c951 89bc
00000110: ef50 fe3c bdff 72bb 8546 fd3c b843 8e3d
00000120: 80d3 bebc 5df7 853d d137 a7bc 6a48 b2bd
00000130: 0573 48bc 0717 86bd 71b8 c93d abfe 933c
00000140: 9154 c5bc b141 cbbd fd6e 763d eee8 4cbd
00000150: ff4e 04bd 1e49 ab3b 5b85 7a3c 122d c4bd
00000160: 482c b93d 0a6e abbd ba0e f4bb a12e a23c
00000170: a809 fdbc 9c4b 43bd 993d c739 bc00 90bd
00000180: 6ad4 9cbd 1102 74bd 391f a1bd ac6b 17bd
-0.09215823 0.019389339 -0.08492538 0.00013965601 -0.054069057 0.033072095 -0.043831125 0.006871874
0.035587635 -0.033697277 0.03172049 0.04229332 0.093906924 -0.05123419 -0.028065646 -0.045075446
0.048643913 -0.04769944 -0.07077356 -0.02050302 -0.018049372 -0.10228977 -0.060422823 0.0584078
-0.00033396817 -0.0023649395 -0.095800534 0.07774646 -0.06030505 0.010929142 0.09706879 0.06791228
0.019358987 -0.06677974 0.025919179 -0.014357243 -0.020881068 -0.01565687 0.07612273 -0.0059251036
-0.05433211 -0.064924955 -0.061033107 0.048516903 0.055268396 -0.05328546 0.0526614 -0.0037530947
-0.010537741 8.527546e-05 0.037309445 -0.019489322 -0.01709421 -0.05748692 0.020987943 -0.021796813
0.118865825 0.09904401 0.088627815 0.032877807 0.0364882 0.090339094 -0.020785509 0.049337637
-0.08076417 0.06696409 0.002632816 -0.016762631 0.031044452 -0.0037078701 0.030917415 0.0694651
-0.02329421 0.065413214 -0.020412358 -0.08705218 -0.012234454 -0.06547361 0.098496325 0.018065771
-0.024088176 -0.09924639 0.06016444 -0.050026827 -0.0323019 0.005227222 0.0152905835 -0.09578909
0.09041649 -0.08370598 -0.0074480446 0.019797625 -0.030888394 -0.04767953 0.00038002132 -0.0703139
-0.07657702 -0.059572283 -0.078672834 -0.03696792

attention.2.weight f4 [100, 100]
00000000: 46a3 39bd fcd3 2a3d ce47 c53d df80 0dbd
00000010: 4f18 8cbd 08be 633d 83ae 8c3c 501a 983c
00000020: 3298 553d 9c66 e3bb 2044 093d 1864 80bd
00000030: 796b 98bd 6901 303c 8d50 aebd 271c ac3d
00000040: 542f 4f39 156a 95bd 418b d13c bfa3 cd3c
00000050: 5e2a 3a3c 5299 ad3b 5d5c 3b3d 9eda aabb
00000060: 2fe8 cdbb 55bb bf3d d9c4 823d 49f6 90bd
00000070: 8f7b 623d e74f 5d3c a3a1 243c b39a 803d
00000080: 5c12 05bc 138e 9f3d b830 833d f337 923d
00000090: 1f8a 513d 97b1 9f3d 00a1 9d3d f4ae 993d
000000a0: 1508 92bd ae56 803c f2df 41bc 37e5 443d
000000b0: c25e 99bc a91b 283d a6d0 c2bd b9e8 aa3d
000000c0: 3850 ff3c 261d 46bd 3f15 febb 51d1 c43d
000000d0: fe8d 5cbd 653e 083d 75be c1bd 0f58 0d3d
000000e0: 2526 57ba 32bf 993c 1c83 59bd fcef 093d
000000f0: 21f7 653d ec28 f8bc 84c2 2dbd d6fe 97bd
00000100: 8286 9cbd c84a c6bd 9a87 19bc bc28 a5bd
00000110: 97f1 77bd 64e9 3cbc 8dd9 9e3d 63d5 95bd
00000120: c240 2abc b612 b33d 982c 05bc d387 463d
00000130: 1d95 a53b 6b08 b13d f160 cabd e8d9 4f3d
00000140: f0e2 ab3d ec56 f83c fdc4 1dbc 9feb bdbd
00000150: 4843 cabd 5150 b8bd 618b 8c3d cd55 babd
00000160: 43e8 a03d 2772 b93d 9ed1 d4bc b12e 83bd
00000170: 81ee bd3d f05c a23d 22ee 84bd c28d c63d
00000180: 4436 a0bd 5cb5 33bc e9c1 b53d fd1c b23c
00000190: 5c62 7dbd 5af9 943d 633c 773d cd12 0f3d
000001a0: 9881 be3d 880c ff3c f293 983c 7982 98bd
000001b0: ec8e 99bc eca4 9fbd aff2 8f3d ad93 c73d
000001c0: cb91 aebd 7dee cbbd 6f6a 973d 59aa 87bd
000001d0: 32e4 c5bd dc89 7dbd 54b9 03bd b5d6 8e3d
000001e0: dfa3 7e3d 5565 7f3d aa47 a33b f11e 85b9
000001f0: 177f 603b f707 86bc c24f 0f3c 72e1 aa3d
00000200: 983b 023d 3253 d0bc 7323 9cbd 053c 8b3d
00000210: e289 aebd 7e54 10bd 82fe 34bd 44ca b83d
00000220: 7c54 ac3c f919 3dbd 9f6a 8cbb d332 afbc
00000230: d375 84bd d5e7 4f3d 4a57 b23d 048b b7bc
00000240: 5a12 ff3c 5dc6 333d 19b5 12bd 0b5b a23c
00000250: 618a e5bc 73c3 84bb 426a 8fbd 753f 583b
00000260: 053e febb 2673 703d 0251 b83d 7ba2 283d
00000270: 4413 b4bd 79be 783d d4e5 67bc ba45 31bd
00000280: 0351 5fbd 5764 603d d3ab 163d 07d9 143d
00000290: 35dd b53d 7ca7 be3d 50fd 7bbd f80b 05bd
000002a0: fd96 833a 6913 e53c 0a83 c13c 03f8 1b3d
000002b0: 0e7c 073d 872e 5bbd fb7b 6d3d 07d7 55bd
000002c0: 95e2 953d ee1a 313d f82e 56bd 6f19 1cbd
000002d0: b515 98bc fc76 3e3d 346e 4fbd 0667 09bd
000002e0: f1bc 603d a843 b13d 6437 7939 c9e5 06bd
000002f0: fd4d b6bd 95c4 b1bd fca0 cabd cfa4 73bc
00000300: e094 3d3d 613f 9abb c3f5 5b3d 8d31 233d
00000310: 54d8 f5bc 2d87 8e3d e89f b93d 535d 6cbc
00000320: 317c 243d 3bdd 53bd ddf0 a43d ca0f 58bd
00000330: b1fe a9bd 7b53 843c e4b5 61bc 2ebe ac3d
00000340: c951 bebd a5cb 8d3d 5760 bcbd e775 3dbc
00000350: 1ad6 af3d 2f1f bbbd 938b 3b3c e461 4abc
00000360: 5611 b1bd 24a4 bcbd 374b b0bd f952 27bd
00000370: ff2c 1ebd 8593 47bd 8d56 533d c9b0 9e3d
00000380: 876a 73ba 4990 7b3d dafe 843c 94e6 38bd
00000390: 6061 7dbd 8587 c8bd d381 b0bb da05 053c
000003a0: 7184 8abc 40c0 8c3d ca1f 9ebd 80a0 813b
000003b0: 2aea b83b 140b 9f3d f0d0 803d ecfc a13d
000003c0: a741 823d de08 913d 0d85 173d ed4f 86bd
000003d0: 66e6 d0bc 3f42 c4bd 642b 25bd 47c0 bc3c
000003e0: 3df3 8ebd 5a3f b43d 7c0c 8b3d 7c30 39bc
000003f0: 2400 97bd df7d 963c 6b52 343d bc10 72bd
-0.045321725 0.04170607 0.09632836 -0.03454673 -0.06840574 0.05560115 0.017173057 0.018567234
0.052147098 -0.006939722 0.033512235 -0.06269091 -0.07442374 0.010742524 -0.085114576 0.08403807
0.0001975869 -0.07295624 0.025579097 0.025102494 0.01136264 0.005297818 0.04574238 -0.0052140495
-0.006283782 0.093619026 0.06385202 -0.07078225 0.055293616 0.01350782 0.010048303 0.062795065
-0.008122053 0.077907704 0.06405777 0.07139578 0.051157113 0.077975444 0.07696724 0.07504073
-0.07130448 0.015666332 -0.011833178 0.04807016 -0.018721942 0.041042004 -0.09512453 0.083451696
0.031166181 -0.048367642 -0.0077539976 0.096102364 -0.05384635 0.03326263 -0.09460155 0.034507807
-0.0008207283 0.018767927 -0.05310355 0.033676133 0.056143884 -0.03029295 -0.042421833 -0.07421653
-0.07642843 -0.09682232 -0.009370709 -0.0806441 -0.060533132 -0.011530254 0.07756338 -0.07316091
-0.010391416 0.08743803 -0.008128308 0.048469376 0.005053176 0.08644184 -0.09881771 0.05074492
0.08392894 0.030314885 -0.009629485 -0.09273457 -0.09876114 -0.08999694 0.06862522 -0.090983965
0.078568004 0.09054976 -0.02597886 -0.0640539 0.09274007 0.07927883 -0.06490733 0.09695007
-0.0782285 -0.010968532 0.08874876 0.021742338 -0.06186138 0.072741225 0.060360324 0.03493004
0.09302062 0.031133905 0.018625233 -0.07446761 -0.018744908 -0.07795128 0.0702871 0.09744964
-0.085239016 -0.099575974 0.073933475 -0.06624288 -0.096626654 -0.06189905 -0.032159165 0.06974546
0.062168 0.062352497 0.0049829083 -0.0002539079 0.003425544 -0.01636122 0.008747043 0.083437815
0.031795114 -0.025430296 -0.07623949 0.06798557 -0.08522393 -0.035236828 -0.04418803 0.09022954
0.021036379 -0.046167348 -0.004285171 -0.02138654 -0.06467786 0.0507582 0.08708055 -0.022405155
0.03113668 0.043890346 -0.03581724 0.019818803 -0.028020086 -0.0040516197 -0.07002689 0.0032996808
-0.007758858 0.058703564 0.08999826 0.04117058 -0.08792737 0.060728524 -0.014153916 -0.043279387
-0.05452062 0.05478319 0.036784958 0.036339786 0.088800825 0.09309289 -0.061520875 -0.032482117
0.0010039505 0.027963357 0.023622055 0.03807832 0.033077292 -0.05351117 0.057979565 -0.05220702
0.07318608 0.043238573 -0.052290887 -0.038110193 -0.018565038 0.04650019 -0.050642207 -0.033545516
0.05486769 0.086554825 0.00023767125 -0.032933984 -0.08901594 -0.08680073 -0.098939866 -0.014870836
0.046284556 -0.0047072624 0.053701174 0.039842177 -0.03001038 0.069593765 0.09063703 -0.014426547
0.0401575 -0.051724654 0.080537535 -0.052749433 -0.08300532 0.016153088 -0.013776276 0.084347114
-0.09292943 0.06923608 -0.09198063 -0.011563755 0.085857585 -0.09136807 0.011446851 -0.0123524405
-0.08645885 -0.09210995 -0.08608096 -0.040850613 -0.03861713 -0.04872467 0.051596213 0.07748563
-0.0009285588 0.061416898 0.016234804 -0.04514177 -0.061860442 -0.09791473 -0.00538657 0.008119071
-0.016908856 0.06872606 -0.07720907 0.0039559007 0.005643149 0.07765785 0.06289852 0.07909569
0.063601784 0.070817694 0.03699212 -0.065582134 -0.025500488 -0.09582948 -0.040324584 0.023040904
-0.06979988 0.08801146 0.067894906 -0.0113030635 -0.07373074 0.018370567 0.044023912 -0.05909799
