arena_navigation/arena_local_planner/model_based/sarl_star/sarl_star_ros/CrowdNav/crowd_nav/data/output/resumed_rl_model.pth (torch_old, 349348 bytes, 20 tensors)

mlp1.0.weight f4 [150, 13]
0.13776384 -0.20759915 -0.06942823 0.14704825 -0.1334597 0.06505552 0.3195484 -0.3393439
0.15864177 -0.23043722 0.016473457 0.1337917 -0.24209711 -0.07960979 0.015696201 -0.03194539
-0.060197987 0.12298382 -0.035576608 -0.2380235 0.027897384 0.116381 -0.1763811 -0.01165371
-0.018272802 -0.022921152 -0.041979734 0.15727374 0.1989347 0.06608949 0.16341063 0.17559859
-0.009891261 0.34726983 0.09092185 -0.12562186 -0.22637923 0.061809048 0.119862944 0.033511918
0.0839236 -0.1977689 0.08684643 -0.077114865 0.22614785 0.1948847 0.22876927 -0.074686304
0.06451737 0.15022877 -0.31490874 0.19804254 -0.20883435 0.088854864 0.2189359 -0.28067696
0.20681798 0.0030226056 -0.04587758 0.11434449 0.0940843 -0.12556782 -0.035647076 -0.22495681
-0.16800573 0.097215384 -0.017002173 0.04626106 -0.057811745 0.17430547 0.07730384 0.15548694
-0.093212605 -0.07894206 -0.17243423 -0.23443395 -0.22716941 -0.12689179 0.25448805 -0.2630377
0.1784009 0.006989305 -0.20525552 -0.21914533 0.084622495 0.054331683 0.038180865 0.32046932
0.0861612 -0.21089168 -0.14197263 0.18120944 0.15315263 0.21280001 -0.21678193 0.050274607
0.04694801 -0.32649946 -0.117719136 -0.245503 0.2594237 -0.08338563 -0.017636133 -0.115418
0.17810267 -0.24822484 -0.06968597 -0.1762338 0.11488056 -0.11850275 -0.021934154 0.039547395
0.27641934 0.18695177 -0.24135752 0.07140676 -0.11461769 0.13055629 -0.255811 -0.0076173795
-0.11691082 0.2134031 0.2669535 -0.27347487 -0.17957385 0.09176633 -0.2678859 -0.14638619
0.14713661 0.17806302 0.2523009 -0.045333557 0.21778259 -0.27843264 -0.24856648 0.34552416
0.10003526 -0.2180274 0.18082853 0.16836561 0.017528031 -0.1434253 -0.047134966 -0.04680003
-0.07554473 0.1051996 0.06162461 0.14011697 -0.24760278 0.22914828 0.3246066 0.1458203
0.09404034 -0.079295665 0.13243869 0.24123633 0.025289575 0.03994779 -0.09977262 0.21079274
-0.1421912 -0.13272919 -0.16271783 0.17598683 -0.055958766 0.29557756 -0.16583346 0.22147971
-0.21493648 -0.15158354 0.2792594 -0.02233513 -0.07909986 -0.10155761 -0.13645597 -0.118225865
0.010271515 -0.18747488 -0.21488082 0.10374669 -0.21624897 0.26972353 0.21162617 -0.21060589
0.06567918 0.08918026 -0.21783504 -0.26723015 -0.1427801 0.17971174 -0.3083157 0.3975705
-0.14302959 -0.00085402676 -0.11535636 0.13300177 -0.12251099 -0.24845806 0.12999539 -0.37452146
0.078383185 0.2602869 -0.26925066 -0.053237222 -0.41191232 0.22870454 -0.2521914 -0.049802512
0.13434337 0.13720025 -0.13074721 -0.26487902 0.23378499 -0.07624738 -0.07346525 -0.055265352
-0.2331211 -0.006213591 -0.25254744 -0.16247788 0.22214414 -0.064733535 0.03837945 0.028141413
0.22374386 0.08551632 0.16859087 0.018248461 -0.0737954 -0.21323915 -0.060881592 0.15766484
-0.07347948 -0.13299973 0.060232647 0.22875254 -0.17369154 -0.11856567 0.2735423 0.12363667
-0.33228314 -0.29031327 0.0321041 0.18033142 0.04202246 0.0020910038 0.058784764 -0.162582
-0.24571483 0.21823224 -0.14876871 0.25915197 -0.12505983 -0.11467824 -0.14785603 0.06337606
00000000: f711 0d3e df94 54be 6330 8ebd d193 163e
00000010: a9a9 08be d43b 853d d99b a33e 7cbe adbe
00000020: fd72 223e bcf7 6bbe 58f3 863c b100 093e
00000030: 4ee8 77be 750a a3bd 5295 803c 2bd9 02bd
00000040: 2a92 76bd f1de fb3d c7b8 11bd 6fbc 73be
00000050: 0e89 e43c 2959 ee3d 3f9d 34be 34ef 3ebc
00000060: d8b0 95bc 24c5 bbbc f1f2 2bbd 5e0c 213e
00000070: 8ab5 4b3e ed59 873d 1e55 273e 1ed0 333e
00000080: f50e 22bc 5acd b13e 3c35 ba3d 04a3 00be
00000090: f5cf 67be 7c2b 7d3d b47a f53d cb43 093d
000000a0: 23e0 ab3d ee83 4abe 8bdc b13d 66ee 9dbd
000000b0: 4d93 673e db8f 473e 7e42 6a3e 22f5 98bd
000000c0: af21 843d 92d5 193e b83b a1be aacb 4a3e
000000d0: acd8 55be 8af9 b53d bc30 603e e4b4 8fbe
000000e0: 18c8 533e e816 463b 21ea 3bbd 722d ea3d
000000f0: 45af c03d da94 00be ab02 12bd 145b 66be
00000100: b209 2cbe dc18 c73d 2448 8bbc 3d7c 3d3d
00000110: 02cc 6cbd 227d 323e 7a51 9e3d f837 1f3e
00000120: 40e6 bebd 60ac a1bd 9992 30be 740f 70be
00000130: 199f 68be ecef 01be 424c 823e e1ac 86be
00000140: baae 363e 8a06 e53b 812e 52be a267 60be
00000150: 8f4e ad3d e68a 5e3d 8a63 1c3d 8e14 a43e
00000160: 4975 b03d fdf3 57be 4661 11be f88e 393e
00000170: 0bd4 1c3e 3fe8 593e 15fc 5dbe bfec 4d3d
00000180: 8e4c 403d f02a a7be bb16 f1bd 2365 7bbe
00000190: 2fd3 843e 16c6 aabd a779 90bc 4660 ecbd
000001a0: 8c60 363e a72e 7ebe 85b7 8ebd a276 34be
000001b0: 8046 eb3d 92b1 f2bd 41af b3bc 73fc 213d
000001c0: d686 8d3e 4970 3f3e 6d26 77be b53d 923d
000001d0: aebc eabd 8cb0 053e a9f9 82be 369b f9bb
000001e0: f16e efbd 5886 5a3e 21ae 883e e604 8cbe
000001f0: 35e2 37be fcef bb3d 5728 89be 43e6 15be
00000200: fbaa 163e 2756 363e 952d 813e aeaf 39bd
00000210: 6602 5f3e b98e 8ebe 3688 7ebe 8be8 b03e
00000220: 49df cc3d 9342 5fbe 1d2b 393e 0968 2c3e
00000230: f296 8f3c 15de 12be 9810 41bd 63b1 3fbd
00000240: 32b7 9abd e372 d73d 166a 7c3d d37a 0f3e
00000250: 958b 7dbe d9a5 6a3e d632 a63e eb51 153e
00000260: 3998 c03d c465 a2bd 029e 073e a806 773e
00000270: 152c cf3c 4ba0 233d 9655 ccbd 0dda 573e
00000280: 929a 11be 29ea 07be 819f 26be e435 343e
00000290: 0535 65bd f155 973e 3fd0 29be 94cb 623e
000002a0: 4f18 5cbe b738 1bbe 17fb 8e3e 2af8 b6bc
000002b0: 1bff a1bd 70fd cfbd 1dbb 0bbe 6720 f2bd
000002c0: db49 283c 6af9 3fbe b809 5cbe 2579 d43d
000002d0: 5f70 5dbe 3419 8a3e 88b4 583e 12a9 57be
000002e0: ce82 863d 24a4 b63d 2610 5fbe 64d2 88be
000002f0: f234 12be 5b06 383e 8edb 9dbe 5c8e cb3e
00000300: 5976 12be c4e0 5fba f53f ecbd 9e31 083e
00000310: 0be7 fabd ca6b 7ebe 831d 053e 47c1 bfbe
00000320: 5d87 a03d 5344 853e 39db 89be 460f 5abd
00000330: 2ce6 d2be 8631 6a3e 3b1f 81be b8fd 4bbd
00000340: 4f91 093e 397e 0c3e 99e2 05be 399e 87be
00000350: 5565 6f3e 9627 9cbd f374 96bd ec5d 62bd
00000360: 4cb7 6ebe 619b cbbb e64d 81be 9a60 26be
00000370: c179 633e 0493 84bd c533 1d3d d288 e63c
00000380: 1c1d 653e 2e23 af3d 16a3 2c3e cc7d 953c
00000390: 0b22 97bd 5d5b 5abe fa5e 79bd e472 213e
000003a0: 697c 96bd 1531 08be 82b6 763d 1b3e 6a3e
000003b0: 32dc 31be 8fd2 f2bd bd0d 8c3e 3935 fd3d
000003c0: 0421 aabe f1a3 94be 977f 033d cda8 383e
000003d0: be1f 2c3d 3909 093b 4bc8 703d e57b 26be
000003e0: ab9c 7bbe 4678 5f3e d356 18be 91af 843e
000003f0: af0f 00be 6ddc eabd 9267 17be 4fcb 813d

mlp1.0.bias f4 [150]
0.017695818 0.17988513 -0.2110324 0.25491187 -0.068816565 -0.22278573 -0.27097118 0.13239367
-0.25551108 -0.07266134 0.11580059 -0.22792313 -0.04861691 -0.09901317 0.09578186 -0.15637985
0.22260529 -0.045882244 0.008184913 0.021704007 0.023853356 -0.17780928 -0.10575063 0.0503192
0.057634875 -0.26367065 0.03688159 0.26993036 -0.17801899 -0.21383394 0.071604304 0.20053205
-0.17042612 0.14657654 0.017660549 0.050371714 0.07126334 -0.13687058 -0.27739102 0.016971253
-0.2050916 -0.1877106 0.04441205 -0.18117064 -0.075341515 -0.110326365 -0.020701347 -0.14105096
0.2979148 0.071786776 -0.1520112 -0.2380095 0.039910126 0.13123855 0.09925477 -0.13972697
-0.15014261 -0.12879579 0.018720701 0.24579008 0.09336266 -0.18018219 -0.013670241 -0.090288095
0.23087792 0.23662347 0.20180747 -0.30946937 -0.20346504 0.12678929 0.23795861 0.057491675
0.12968047 0.16701864 0.01324232 -0.18902591 0.18171263 -0.08367402 -0.15510684 -0.26294863
-0.049671687 -0.19324264 -0.1347783 0.19013485 0.103344396 0.20705095 0.004704343 -0.14612217
-0.14571394 0.2426981 -0.17381316 -0.006101568 -0.1941143 0.2242594 0.10706056 -0.13560125
0.045264684 0.030123897 0.19735387 -0.03921384 0.037436422 -0.21422122 0.16936944 -0.00603928
-0.20520018 0.21291883 -0.062467843 -0.022760566 0.005645897 0.14995138 0.09622461 -0.07666009
0.016428458 0.13403167 -0.26660794 0.1956685 -0.20345913 0.1112879 -0.04465744 0.16380727
0.19964416 0.12376266 -0.14886932 -0.2640737 0.16554257 0.25926608 -0.1377877 -0.19011568
-0.20437099 -0.041948125 -0.20408744 -0.0833431 -0.23670438 -0.23985194 -0.1516778 -0.26898202
0.22826442 0.019812962 0.16079131 0.114931464 4.4569556e-06 0.21397114 0.15538512 -0.22834699
-0.15686223 -0.015629673 0.12349353 0.14651722 -0.15267403 0.18344326
00000000: d2f6 903c cf33 383e e118 58be cf83 823e
00000010: b3ef 8cbd f121 64be bcbc 8abe 3592 073e
00000020: 59d2 82be 78cf 94bd dc28 ed3d ae64 69be
00000030: 8622 47bd 6bc7 cabd 4829 c43d 0a22 20be
00000040: a4f2 633e 05ef 3bbd 031a 063c 9acc b13c
00000050: 1d68 c33c a313 36be c993 d8bd 811b 4e3d
00000060: 8c12 6c3d d7ff 86be 2611 173d 5034 8a3e
00000070: 9c4a 36be 49f7 5abe 47a5 923d 4658 4d3e
00000080: 2f84 2ebe 2918 163e dbac 903c 9252 4e3d
00000090: 84f2 913d cd27 0cbe 3206 8ebe 4c07 8b3c
000000a0: 8803 52be 3537 40be 69e9 353d cc84 39be
000000b0: a74c 9abd caf2 e1bd df95 a9bc aa6f 10be
000000c0: 4a88 983e f204 933d d3a8 1bbe c3b8 73be
000000d0: cd78 233d 6663 063e 1646 cb3d 9614 0fbe
000000e0: fcbe 19be 0be3 03be 285c 993c 65b0 7b3e
000000f0: ec34 bf3d ae81 38be 26f9 5fbc f7e8 b8bd
00000100: 436b 6c3e 6c4d 723e 9ea6 4e3e c572 9ebe
00000110: 2459 50be 0dd5 013e 6cab 733e 647c 6b3d
00000120: f5ca 043e ef06 2b3e 51f6 583c 0290 41be
00000130: e012 3a3e 495d abbd 54d4 1ebe 34a1 86be
00000140: 8a74 4bbd 66e1 45be 5303 0abe b6b2 423e
00000150: 3aa6 d33d 2a05 543e e426 9a3b 0da1 15be
00000160: 0936 15be da85 783e 14fc 31be aaef c7bb
00000170: e6c5 46be 42a4 653e 9142 db3d 0edb 0abe
00000180: 7667 393d 64c6 f63c 2217 4a3e b19e 20bd
00000190: ef56 193d cf5c 5bbe 2f6f 2d3e 27e5 c5bb
000001a0: ff1f 52be 6507 5a3e 48de 7fbd 5e74 babc
000001b0: 3701 b93b db8c 193e 6911 c53d f7ff 9cbd
000001c0: f994 863c 993f 093e d680 88be 535d 483e
000001d0: 9757 50be e9ea e33d b8ea 36bd 18bd 273e
000001e0: 856f 4c3e 4777 fd3d 3371 18be ab34 87be
000001f0: fe83 293e 86be 843e 3818 0dbe afad 42be
00000200: a146 51be ccd1 2bbd 4cfc 50be caaf aabd
00000210: a262 72be bf9b 75be 6d51 1bbe 03b8 89be
00000220: 26be 693e cb4e a23c 7aa6 243e 3061 eb3d
00000230: f58c 9536 401b 5b3e 471d 1f3e cbd3 69be
00000240: 7ea0 20be cd09 80bc 2dea fc3d 9c08 163e
00000250: 9556 1cbe 8dd8 3b3e

mlp1.2.weight f4 [100, 150]
0.121203884 -0.053047273 -0.11255774 -0.03942041 -0.0010018309 0.047978777 0.12586471 -0.022672776
0.0892044 -0.05390983 0.08323521 -0.049651306 0.06756222 0.020946564 0.019408507 0.11491993
0.06553199 -0.026971122 -0.009460534 0.013833963 0.10455386 -0.01190382 -0.049291372 -0.05614979
0.045572054 0.09869928 -0.019970542 -0.06441572 0.015889004 0.063874476 -0.07211524 0.08170598
-0.06870022 0.063355714 -0.08593195 -0.015494307 0.03493347 -0.07941343 0.034046292 -0.020932775
0.0028741302 0.045737408 -0.060032926 -0.060728494 0.017137084 0.075902335 -0.025760373 -0.07193675
-0.030045131 -0.1145233 0.031074615 0.022955647 0.05252053 -0.024552004 0.017982187 0.04873982
-0.044558223 -0.10008064 -0.052408505 0.0020040572 0.061795592 0.051327027 5.855716e-05 0.008476379
0.027717697 -0.031544413 -0.0770383 0.05779244 0.028178597 0.07344621 0.06121035 -0.01220188
0.055279817 0.08329985 -0.044700503 -0.026158748 0.06663473 -0.011535931 0.06534161 0.022470474
0.047572765 -0.053680982 0.039087225 -0.06209126 -0.045074936 -0.08725875 -0.061555766 0.12373797
-0.016641267 0.0056351554 0.046073254 -0.042907536 -0.00528437 -0.060031272 0.0013648348 0.014506931
-0.06419517 -0.028570926 0.0666307 -0.055105392 0.072206005 0.07402172 0.03789537 0.06876539
-0.024139388 -0.049908884 0.13227747 -0.020491587 0.103268914 0.07344926 0.015774403 -0.121551074
0.036118265 -0.030154945 0.05985302 0.069472745 -0.047684636 0.07671379 0.010062863 -0.052210562
0.06769129 -0.08314737 -0.019160772 0.008622781 -0.034964643 -0.026370686 -0.052018594 -0.067931086
-0.0067202104 0.009490839 0.016619436 -0.067507125 0.07682543 -0.06426067 -0.042458296 -0.066220485
-0.06225472 0.14996897 0.029572451 -0.009410338 -0.073640145 -0.036015395 -0.0690838 -0.06256979
-0.03886669 -0.02044581 0.05004977 -0.010833641 -0.057770845 0.0022231708 -0.027289782 0.019711157
-0.08017216 0.07119842 -0.058012042 -0.034751087 -0.070680596 0.08784865 -0.025141198 -0.109692805
0.0939136 0.011656948 -0.10660842 0.04861714 -0.0365038 0.017163066 0.06049906 -0.0119908
-0.011769156 0.036459703 0.010828449 -0.05731309 -0.08987828 0.028687462 -0.062367354 -0.04233597
-0.011349919 0.052636236 -0.05118804 -0.014293039 0.059858806 -0.054678254 -0.016101023 -0.057317402
0.042460404 -0.044346888 0.020569114 -0.07520749 -0.009893082 -0.048596993 -0.06332951 0.011204735
0.0683159 0.070189975 0.06572497 -0.07465655 0.02369196 0.088560045 -0.02829758 -0.009665885
0.0012752546 0.04549216 0.037814144 -0.014024925 -0.02178538 0.033952918 0.05734853 -0.032760594
-0.02308509 0.107016616 0.024427945 0.05118199 -0.03666268 0.029149497 -0.049987342 0.05896014
0.010544069 -0.06709144 -0.096434735 0.0072147823 0.010059073 -0.00074174046 -0.053830214 0.06614264
0.0645387 -0.03888549 -0.080180556 -0.027774667 0.05339281 -0.040737078 -0.08390402 0.014751373
-0.071801454 -0.07085229 0.02162069 -0.058501422 -0.040655527 -0.0071125766 0.017165856 0.01451298
-0.016754197 0.013020761 -0.0024611077 -0.027651971 0.00058530894 -0.036968186 0.06790758 0.08877473
0.04991068 -0.06577343 -0.04884395 0.008655935 -0.0051400564 -0.010849239 0.021154609 0.060425427
00000000: be39 f83d 1948 59bd ac84 e6bd 4c77 21bd
00000010: de4f 83ba 6585 443d aee2 003e 42bc b9bc
00000020: ccb0 b63d 8ed0 5cbd 3977 aa3d 2b5f 4bbd
00000030: 105e 8a3d 2198 ab3c 97fe 9e3c 245b eb3d
00000040: a335 863d 8bf2 dcbc 5b00 1bbc d9a7 623c
00000050: 5620 d63d 3d08 43bc c0e5 49bd 52fd 65bd
00000060: c3a9 3a3d d922 ca3d 4399 a3bc 64ec 83bd
00000070: a829 823c 9fd0 823d 28b1 93bd 7755 a73d
00000080: b3b2 8cbd a4c0 813d 17fd afbd d5db 7dbc
00000090: 6616 0f3d 82a3 a2bd 2074 0b3d 367b abbc
000000a0: e75b 3c3b 2657 3b3d 16e5 75bd 71be 78bd
000000b0: 1263 8c3c af72 9b3d 6b07 d3bc 9353 93bd
000000c0: 3521 f6bc 318b eabd 3190 fe3c 7b0d bc3c
000000d0: c41f 573d 4921 c9bc 614f 933c 68a3 473d
000000e0: af82 36bd 14f7 ccbd 4daa 56bd 8056 033b
000000f0: 601d 7d3d 4a3c 523d 469b 7538 83e0 0a3c
00000100: 3910 e33c b734 01bd 42c6 9dbd c4b7 6c3d
00000110: cdd6 e63c f76a 963d b4b7 7a3d 65ea 47bc
00000120: 176d 623d 1d99 aa3d e017 37bd df4a d6bc
00000130: ca77 883d 3401 3dbc d2d1 853d 0014 b83c
00000140: a9db 423d 97e0 5bbd ed19 203d 6853 7ebd
00000150: 7fa0 38bd b7b4 b2bd e621 7cbd 556a fd3d
00000160: 4453 88bc 1ca7 b83b 4fb7 3c3d d0bf 2fbd
00000170: 8228 adbb 5ae3 75bd 42e4 b23a 7bae 6d3c
00000180: c278 83bd 930d eabc ad75 883d 31b6 61bd
00000190: bee0 933d b398 973d 2d38 1b3d ded4 8c3d
000001a0: f7bf c5bc 426d 4cbd bf73 073e f9dd a7bc
000001b0: a77e d33d 916c 963d 5239 813c c5ef f8bd
000001c0: bff0 133d 8107 f7bc 7128 753d ba47 8e3d
000001d0: f750 43bd 1f1c 9d3d b5de 243c beda 55bd
000001e0: bba1 8a3d 2b49 aabd 0df7 9cbc 9146 0d3c
000001f0: 1637 0fbd 5607 d8bc 7311 55bd 741f 8bbd
00000200: 3635 dcbb 777f 1b3c 7c25 883c 2d41 8abd
00000210: a756 9d3d 199b 83bd c0e8 2dbd 9b9e 87bd
00000220: cefe 7ebd 7791 193e ed41 f23c d12d 1abc
00000230: a5d0 96bd e184 13bd cf7b 8dbd 9724 80bd
00000240: ae32 1fbd f97d a7bc fd00 4d3d 957f 31bc
00000250: 1fa1 6cbd 9eb2 113b d28e dfbc 4b79 a13c
00000260: 4d31 a4bd 7ad0 913d 099e 6dbd 2857 0ebd
00000270: fdc0 90bd fee9 b33d eaf4 cdbc 9fa6 e0bd
00000280: c655 c03d c9fc 3e3c 8455 dabd c422 473d
00000290: 0285 15bd 8f99 8c3c ddcd 773d 0f75 44bc
000002a0: 6bd3 40bc c556 153d cf69 313c 21c1 6abd
000002b0: 1b12 b8bd f801 eb3c e974 7fbd 7b68 2dbd
000002c0: 03f5 39bc 1899 573d 8daa 51bd 5a2d 6abc
000002d0: 822e 753d 4ef6 5fbd 4be6 83bc a7c5 6abd
000002e0: f6ea 2d3d 15a5 35bd 8f80 a83c 6206 9abd
000002f0: 9816 22bc a40d 47bd e7b2 81bd 1194 373c
00000300: 35e9 8b3d c3bf 8f3d d09a 863d 89e5 98bd
00000310: a415 c23c f85e b53d 54d0 e7bc a95d 1ebc
00000320: 7226 a73a fd55 3a3d 01e3 1a3d cdc8 65bc
00000330: 4177 b2bc 3712 0b3d 4be6 6a3d f92f 06bd
00000340: f11c bdbc 872b db3d 1d1d c83c 35a4 513d
00000350: 9b2b 16bd edca ee3c 87bf 4cbd 3080 713d
00000360: 08c1 2c3c 3d67 89bd 937f c5bd fb69 ec3b
00000370: cfce 243c 5c71 42ba 127d 5cbd cb75 873d
00000380: de2c 843d 6446 1fbd b435 a4bd b387 e3bc
00000390: 6bb2 5a3d ecdb 26bd dfd5 abbd beaf 713c
000003a0: a40c 93bd 011b 91bd e01d b13c 309f 6fbd
000003b0: 6986 26bd 9e10 e9bb 699f 8c3c dac7 6d3c
000003c0: 1940 89bc 0855 553c 894a 21bb 6386 e2bc
000003d0: 6b6f 193a f46b 17bd 2113 8b3d 87cf b53d
000003e0: 246f 4c3d 38b4 86bd 9810 48bd 9fd1 0d3c
000003f0: eb6d a8bb 02c1 31bc 6e4c ad3c a780 773d

mlp1.2.bias f4 [100]
-0.10043901 0.08745402 0.059029892 -0.016757768 0.08530046 0.0011207869 0.12374373 -0.03522638
0.02483643 0.018638812 -0.04920253 -0.09998393 0.062496055 -0.069277786 0.0675757 -0.059210002
0.077637255 0.028154315 -0.019096397 0.009407319 -0.031114541 0.090181634 0.05765155 -0.037153523
-0.019038584 0.07316955 -0.01571331 0.1454732 0.08258543 0.041563734 -0.051298555 0.05633679
-0.02185749 0.061457206 0.069636084 0.09256253 0.02736419 -0.062064737 -0.022283548 0.046887144
0.082235016 0.058381654 0.05574929 0.035170574 -0.055895183 -0.035578147 0.012046153 -0.05901288
-0.026881542 -0.018191041 -0.050572295 -0.08119338 0.041809723 -0.05990459 -0.015567755 0.0064978194
-0.031938452 -0.108586706 -0.024095241 -0.100651786 0.061321385 -0.06447198 0.010372147 0.118135005
-0.051294874 0.0026790802 0.016938485 -0.008969073 -0.15736292 0.029066304 -0.04077513 0.05319328
0.06259134 0.09007257 0.14292929 -0.07934325 0.038548842 -0.028940147 0.003595558 0.03486729
0.07192641 0.13364345 -0.009455614 0.01941931 -0.06740831 0.049625095 0.05554571 -0.06943742
-0.0006987997 -0.096368834 0.017495677 0.022767985 0.055233113 -0.008021141 0.083584234 -0.0537427
-0.027247498 -0.088024765 -0.043883935 -0.04153439
00000000: f8b2 cdbd 181b b33d 54c9 713d 9647 89bc
00000010: 02b2 ae3d 5ee7 923a 5a6d fd3d 8949 10bd
00000020: c575 cb3c 6cb0 983c 9888 49bd 60c4 ccbd
00000030: ddfb 7f3d 83e1 8dbd 2165 8a3d 3086 72bd
00000040: 4800 9f3d e1a3 e63c 0c70 9cbc 2821 1a3c
00000050: ece3 febc 26b1 b83d 0824 6c3d 4b2e 18bd
00000060: cef6 9bbc ebd9 953d 33b9 80bc edf6 143e
00000070: 8d22 a93d bc3e 2a3d 6f1e 52bd 68c1 663d
00000080: 7b0e b3bc 8dba 7b3d 5d9d 8e3d 6c91 bd3d
00000090: de2a e03c 9837 7ebd fd8b b6bc bc0c 403d
000000a0: d56a a83d 9a21 6f3d 5e59 643d 050f 103d
000000b0: 59f2 64bd 64ba 11bd 3a5d 453c 7db7 71bd
000000c0: ae36 dcbc 6105 95bc e524 4fbd b748 a6bd
000000d0: ac40 2b3d 845e 75bd e60f 7fbc a9eb d43b
000000e0: e5d1 02bd b562 debd 6263 c5bc 8622 cebd
000000f0: 222c 7b3d e309 84bd f0ef 293c c4f0 f13d
00000100: 931a 52bd 8293 2f3b 94c2 8a3c 05f3 12bc
00000110: bf23 21be 751c ee3c d303 27bd 32e1 593d
00000120: e32f 803d f877 b83d 0e5c 123e b77e a2bd
00000130: 64e5 1d3d e313 edbc 74a3 6b3b 01d1 0e3d
00000140: 274e 933d d4d9 083e b8eb 1abc 3f15 9f3c
00000150: 5e0d 8abd af43 4b3d e683 633d 3535 8ebd
00000160: a72f 37ba 065d c5bd 1853 8f3c ed83 ba3c
00000170: 1e3c 623d 1b6b 03bc 362e ab3d 4e21 5cbd
00000180: 2536 dfbc 5446 b4bd a4bf 33bd f71f 2abd

mlp2.0.weight f4 [100, 100]
0.004602771 0.03270067 -0.0068007475 0.018623268 0.09277084 -0.089589246 -0.045058712 -0.08943683
0.101465784 0.15344617 0.0228595 0.078335695 0.012645234 -0.029825125 0.04751336 -0.089951664
-0.017338542 -0.08599839 -0.051719315 -0.16005647 -0.15499255 -0.09416219 0.10250933 0.01237514
0.085620426 -0.09207332 -0.074487075 0.10285513 0.14293398 -0.008692357 -0.07789224 0.09830979
0.016258698 -0.08117785 0.016333051 0.0005447997 0.10120543 0.094750404 0.019503897 -0.07142799
-0.054082252 0.07060616 0.09440517 -0.0034754188 0.010577077 -0.028323371 -0.0521229 -0.10839739
-0.037427418 -0.044552088 0.02276461 -0.078038685 0.09758376 0.0658062 0.083313555 0.048368268
-0.009383561 0.003909307 -0.028371988 -0.025505086 -0.13950507 -0.077283286 0.02180646 -0.14004856
0.06946882 -0.018643014 -0.007264265 -0.048174396 -0.14875759 -0.023840802 -0.0854811 0.06290037
-0.028521804 -0.06950918 0.11504808 -0.085706115 0.055755947 0.065727904 0.05102654 -0.021207158
-0.021017846 0.028614225 0.032736134 -0.042823482 0.08183377 0.109423324 0.05893616 0.06711809
0.091104016 -0.0996626 0.021466533 0.034553807 0.025191307 -0.041610386 0.118703246 0.057347756
-0.0736426 0.03242897 -0.042950973 -0.117823884 -0.027882328 0.023748096 0.018793968 -0.105927065
0.055687454 -0.064683594 0.112316065 -0.094324246 -0.060248252 0.053769447 -0.01613417 0.048396256
-0.04550952 -0.06516588 -0.011748428 -0.05023455 0.01861387 0.015372696 -0.008309438 -0.15594119
-0.07698361 0.013594644 -0.0049138945 -0.1345584 0.06305206 0.111863405 -0.02142025 0.07243207
0.11088933 -0.073065616 -0.021071438 0.093690924 0.00020582965 0.067068055 0.16162118 -0.029273074
0.049325116 -0.013518765 -0.097709 0.08408178 0.13589546 -0.07605388 0.12776724 0.07851022
0.10859291 -0.012432327 0.10346613 0.094466045 0.08887298 0.07613344 -0.008140427 -0.08859789
-0.07036094 0.07504603 -0.033404216 0.052687228 0.032670997 -0.025466496 0.07730447 -0.047381487
-0.034637097 0.0037231494 -0.019309592 -0.052563224 0.052713256 -0.04236414 -0.09839208 0.11105411
-0.039695445 0.05894912 -0.04828556 0.0069344905 -0.09503059 0.066896975 0.080939166 0.025818301
-0.06327025 0.05040353 0.02050134 -0.041676193 0.12369788 0.022892572 -0.0029017548 0.012159137
0.066314004 -0.06350522 0.021852637 -0.0359104 0.03480671 0.027896632 -0.0871498 0.120778434
-0.11714363 0.07341797 -0.0016253392 -0.060086127 0.008152462 -0.122462325 -0.055370566 -0.046488993
0.006301458 0.09669682 0.04251281 -0.06513728 0.039498854 -0.07724353 -0.009143973 -0.048422348
-0.0368304 -0.0024081038 0.06895373 -0.041814055 0.09292715 -0.058206454 0.011819568 -0.064037524
-0.086680084 0.032160565 -0.014433858 0.053232607 0.07460098 -0.053415634 -0.05575377 0.077440366
0.10911929 -0.063936986 -0.0354576 0.06128091 0.10576487 -0.03467207 0.04225316 0.0652781
-0.060815465 0.05128781 0.046544105 0.08769529 0.0012523874 -0.053980663 -0.09278232 -0.031111619
0.047405753 -0.089623906 0.10856493 0.009546319 0.009124078 -0.0044127544 0.0215134 -0.08336067
-0.07033274 -0.05666048 -0.11208738 0.040420093 -0.059322547 0.03205835 -0.003728318 0.06252416
00000000: d7d2 963b 23f1 053d ced8 debb d38f 983c
00000010: a3fe bd3d 917a b7bd 7c8f 38bd a82a b7bd
00000020: 4bcd cf3d fe20 1d3e d943 bb3c 776e a03d
00000030: f52d 4f3c d253 f4bc 5e9d 423d 9438 b8bd
00000040: 8f09 8ebc ed1f b0bd a2d7 53bd d8e5 23be
00000050: 5eb6 1ebe 1bd8 c0bd 69f0 d13d 19c1 4a3c
00000060: c359 af3d f090 bcbd ae8c 98bd b6a5 d23d
00000070: 495d 123e 636a 0ebc f785 9fbd a556 c93d
00000080: f630 853c 9340 a6bd e4cc 853c e4d0 0e3a
00000090: cb44 cf3d 800c c23d a3c6 9f3c d748 92bd
000000a0: 5a85 5dbd f699 903d 7f57 c13d dac3 63bb
000000b0: 7a4b 2d3c 6a06 e8bc d27e 55bd 73ff ddbd
000000c0: 7e4d 19bd 407c 36bd d97c ba3c bfd2 9fbd
000000d0: ffd9 c73d 67c5 863d 4ca0 aa3d ce1d 463d
000000e0: 82bd 19bc a519 803b 5f6c e8bc 0bf0 d0bc
000000f0: 6bda 0ebe b346 9ebd 76a3 b23c e468 0fbe
00000100: ab45 8e3d 3cb9 98bc 1209 eebb 8452 45bd
00000110: e953 18be c94d c3bc b710 afbd e9d1 803d
00000120: 8fa6 e9bc d45a 8ebd 549e eb3d b086 afbd
00000130: 5960 643d 5a9c 863d 3501 513d a2ba adbc
00000140: 9e2d acbc 6168 ea3c 5316 063d ad67 2fbd
00000150: 7798 a73d 5619 e03d 0b67 713d 3675 893d
00000160: be94 ba3d e81b ccbd 95da af3c 4b88 0d3d
00000170: 005e ce3c a76f 2abd b01a f33d 7be5 6a3d
00000180: eed1 96bd 3dd4 043d 5ced 2fbd a64d f1bd
00000190: 7b69 e4bc 5e8b c23c cff5 993c 4af0 d8bd
000001a0: 8718 643d d578 84bd f705 e63d 122d c1bd
000001b0: dfc6 76bd 5a3d 5c3d cf2b 84bc 273b 463d
000001c0: 3168 3abd b075 85bd 7b7c 40bc bec2 4dbd
000001d0: 1d7c 983c c3dd 7b3c 4f24 08bc 0caf 1fbe
000001e0: 95a9 9dbd 12bc 5e3c bc04 a1bb adc9 09be
000001f0: 7021 813d a418 e53d 8579 afbc 4457 943d
00000200: f219 e33d 6da3 95bd 029e acbc 07e1 bf3d
00000210: fad3 5739 fa5a 893d 0680 253e 16ce efbc
00000220: 2209 4a3d cf7d 5dbc a81b c8bd 1133 ac3d
00000230: 2e28 0b3e 23c2 9bbd 6ad5 023e f7c9 a03d
00000240: f665 de3d f5b0 4bbc 0de6 d33d 6a77 c13d
00000250: 0903 b63d d9eb 9b3d 6d5f 05bc d072 b5bd
00000260: 6619 90bd bcb1 993d dcd2 08bd 90ce 573d
00000270: 06d2 053d 1d9f d0bc ce51 9e3d 1713 42bd
00000280: a1df 0dbd 1500 743b 262f 9ebc 894c 57bd
00000290: dbe9 573d 0586 2dbd c981 c9bd 5670 e33d
000002a0: b197 22bd a274 713d 14c7 45bd b93a e33b
000002b0: 669f c2bd 4801 893d 6fc3 a53d e780 d33c
000002c0: d593 81bd ef73 4e3d 6df2 a73c a8b4 2abd
000002d0: 5055 fd3d 3489 bb3c 5e2b 3ebb 1e37 473c
000002e0: a3cf 873d 060f 82bd 4d04 b33c c916 13bd
000002f0: 7b91 0e3d 7a87 e43c 987b b2bd af5a f73d
00000300: 00e9 efbd 295c 963d 5509 d5ba df1c 76bd
00000310: e791 053c 87cd fabd 3fcc 62bd 3e6b 3ebd
00000320: 767c ce3b fb08 c63d ea21 2e3d b266 85bd
00000330: 8dc9 213d db31 9ebd 9ad0 15bc 8356 46bd
00000340: 79db 16bd 47d1 1dbb 9d37 8d3d 3745 2bbd
00000350: 9750 be3d e469 6ebd dda6 413c 1b26 83bd
00000360: 5485 b1bd ccba 033d fd7b 6cbc 6f0a 5a3d
00000370: 66c8 983d 5aca 5abd 115e 64bd 0e99 9e3d
00000380: ef79 df3d 65f1 82bd fd3b 11bd b101 7b3d
00000390: 419b d83d 4d04 0ebd a611 2d3d 86b0 853d
000003a0: a319 79bd 2b13 523d 08a5 3e3d 9799 b33d
000003b0: 2627 a43a d41a 5dbd a804 bebd cbdd febc
000003c0: 892c 423d bd8c b7bd 4a57 de3d 2a68 1c3c
000003d0: 287d 153c de98 90bb df3c b03c 00b9 aabd
000003e0: 9d0a 90bd d214 68bd 118e e5bd 8a8f 253d
000003f0: 33fc 72bd 9e4f 033d cc56 74bb ab0c 803d

mlp2.0.bias f4 [100]
-0.018590605 -0.029372321 0.13774864 0.11688615 0.03585267 0.008772613 -0.115959376 -0.07218516
0.03288299 0.011132877 -0.031772356 -0.04556934 0.06524531 0.0522536 0.07741787 0.016291002
0.003630251 -0.09514834 -0.060710724 -0.011538974 0.08085054 -0.024985773 -0.023061436 0.020035297
0.06604344 0.00013458979 -0.0817578 0.048007756 0.034044508 -0.06101464 -0.04254299 0.08486688
0.051053617 0.035603467 -0.09005519 0.036117904 -0.06274057 -0.043241855 -0.08960474 0.04688927
-0.044415534 -0.08207552 0.04486074 0.012230421 0.06778093 0.0246192 0.10590115 -0.10478963
-0.020599434 -0.031269174 -0.07115416 -0.03127815 0.18074349 -0.075465254 -0.052775588 -0.031357
-0.061995275 0.09233502 -0.03170679 -0.035399538 -0.0955293 -0.022780668 0.10656859 -0.054239336
0.091400094 0.05993621 0.067309074 0.15037172 0.030527063 -0.0719169 -0.020734834 0.07098723
0.03872255 -0.04444136 -0.03906293 0.019138234 0.11299834 0.043230813 -0.0728362 0.08536186
-0.019942798 -0.012079722 0.055889476 0.032761116 -0.049417842 0.0144487545 -0.0375623 -0.08878542
0.063025385 0.14348733 -0.028391154 0.048143223 -0.04695136 -0.020800885 0.07366744 0.06124673
-0.0058339373 0.08642961 0.036826238 0.07075688
00000000: 534b 98bc 399e f0bc fb0d 0d3e 0162 ef3d
00000010: 40da 123d 01bb 0f3c 1c7c edbd d0d5 93bd
00000020: 50b0 063d ac66 363c bb23 02bd eba6 3abd
00000030: 559f 853d df07 563d 438d 9e3d b574 853c
00000040: 81e9 6d3b 22dd c2bd cfab 78bd f70d 3dbc
00000050: f894 a53d f7ae ccbc 56eb bcbc 1021 a43c
00000060: c841 873d ac20 0d39 a270 a7bd c8a3 443d
00000070: 4172 0b3d 7dea 79bd 8f41 2ebd b0ce ad3d
00000080: 991d 513d f1d4 113d db6e b8bd 5ef0 133d
00000090: 217e 80bd 5f1e 31bd b182 b7bd f70e 403d
000000a0: 10ed 35bd 3617 a8bd e5bf 373d 1b62 483c
000000b0: bad0 8a3d 34ae c93c b4e2 d83d f29b d6bd
000000c0: 25c0 a8bc 1b14 00bd 46b9 91bd 841d 00bd
000000d0: d214 393e 878d 9abd 372b 58bd 3370 00bd
000000e0: c2ee 7dbd 251a bd3d fbde 01bd 1bff 10bd
000000f0: dea4 c3bd 869e babc a240 da3d 112a 5ebd
00000100: f92f bb3d ac7f 753d 57d9 893d 0bfb 193e
00000110: e413 fa3c 2b49 93bd 19dc a9bc c161 913d
00000120: 899b 1e3d 2508 36bd 7300 20bd c9c7 9c3c
00000130: ac6b e73d cb12 313d 252b 95bd 33d2 ae3d
00000140: 145f a3bc 07ea 45bc 5dec 643d 8530 063d
00000150: 5d6a 4abd 78ba 6c3c edda 19bd 21d5 b5bd
00000160: 7413 813d 58ee 123e 9194 e8bc d431 453d
00000170: 1250 40bd 9e66 aabc f4de 963d dadd 7a3d
00000180: 9d2a bfbb 0202 b13d 1cd7 163d fce8 903d

mlp2.2.weight f4 [50, 100]
0.046138406 -0.039684635 0.007251102 0.06753138 -0.042959075 -0.07820442 0.08925416 0.0695329
-0.05216155 -0.08835974 -0.028249074 -0.05019336 0.038223233 -0.056586288 -0.0377925 -0.056797206
-0.005686953 -0.02978761 -0.05063747 -0.020806413 0.09278008 0.032141607 0.048238095 -0.07245212
0.016435899 0.003522845 0.06314648 -0.09440624 -0.06020623 -0.037197564 -0.03347543 -0.010853112
-0.061447714 -0.029554417 0.035248477 0.07529484 -0.06873989 0.021123448 0.0025520208 0.031891942
-0.010146538 -0.0924472 -0.0070815543 -0.023660585 -0.041159183 0.031419277 -0.09413421 0.025017874
-0.03483104 0.09788312 -0.07041653 0.048294295 -0.15760769 0.06695746 -0.022072297 -0.09508337
0.08812342 -0.059763815 0.06660088 -0.034342088 0.06383774 0.0074982173 0.0932943 -0.062019568
0.040530395 0.085204616 0.06474395 0.057127345 -0.033825558 0.047690324 0.015324855 -0.084136754
-0.06781153 -0.07647648 -0.014625377 0.085223325 -0.021627773 0.057024892 0.065211035 0.0587492
0.026621602 0.08991629 0.033822726 0.047534034 -0.084469445 -0.008654521 0.05553605 -0.04448095
-0.02891875 -0.121479474 0.056420144 -0.02152433 -0.05405679 -0.0579368 -0.04605964 0.08423106
0.036353577 0.00551808 0.102907546 -0.02316636 0.124324985 -0.059796896 0.0539561 0.09417466
-0.023334125 -0.07119289 0.042367127 -0.056487497 0.00598432 0.08848192 0.07515751 0.09378111
-0.10629547 0.003949617 -0.09107183 -0.06183809 0.0924681 -0.10003994 0.073676735 0.044551346
0.0039392184 0.09529214 -0.03696361 -0.11381531 -0.05653595 -0.07737822 -0.039258014 -0.030260086
0.05528891 0.035763204 -0.048785266 -0.019435132 -0.065910965 0.15524739 0.07294607 -0.035232224
-0.10843023 0.034664746 0.06648459 0.08410736 0.00022704432 0.04429826 -0.00479692 -0.106066994
0.021968774 -0.14405088 0.10126502 -0.019688955 0.06521813 -0.029412692 0.06747851 0.035314158
0.1308978 -0.093553 -0.035637647 -0.025189986 -0.09232919 -0.02865856 0.14703679 -0.0068404344
-0.12405808 0.023732426 0.056698922 -0.059359208 0.018595291 0.06186739 -0.07778631 -0.14255394
-0.00626376 -0.010428086 0.07710607 0.056724854 -0.06556109 -0.11558345 0.08426224 -0.028837595
-0.1105798 0.09361304 -0.095786095 0.031389993 0.07304565 -0.1493667 -0.098888464 0.0053864517
-0.05698308 0.030687893 -0.078598164 0.08453004 -0.113171026 -0.053537186 -0.16094428 0.09476422
-0.07108689 -0.09329776 -0.12373154 0.05581721 -0.048270896 -0.07080617 -0.056892984 -0.023707753
0.057442732 0.07550914 0.016695973 0.14412269 -0.10859722 0.01832097 -0.014313752 0.038030088
-0.051491983 -0.1858864 0.0116907675 0.07218013 -0.025714226 0.07965143 -0.043264158 0.04561554
0.07650058 -0.04181387 0.017526044 -0.06602673 0.07431148 0.011192217 -0.083104156 -0.043063406
0.002935234 0.10323292 -0.07840946 0.097262174 -0.01028866 0.042227454 0.031739008 -0.010083906
-0.07587122 0.036446624 0.10699296 0.07289119 -0.108775474 0.013471972 0.002160596 0.082453005
0.015376377 -0.0027836617 0.03369042 0.11135342 -0.05542357 -0.09775124 0.09124986 -0.056311388
-0.0040935683 -0.031168997 -0.018177731 -0.12953556 -0.08158267 0.033550706 0.03882031 -0.09707031
00000000: a0fb 3c3d 5b8c 22bd a79a ed3b e44d 8a3d
00000010: dbf5 2fbd a429 a0bd e3ca b63d 4467 8e3d
00000020: 59a7 55bd f4f5 b4bd 9a6a e7bc 8d97 4dbd
00000030: f78f 1c3d 06c7 67bd 4fcc 1abd 30a4 68bd
00000040: 9f59 babb 2505 f4bc 3c69 4fbd 3672 aabc
00000050: 7c03 be3d eba6 033d 4f95 453d c761 94bd
00000060: 94a4 863c 88df 663b f152 813d 0f58 c1bd
00000070: cf9a 76bd 795c 18bd 881d 09bd 40d1 31bc
00000080: 99b0 7bbd 1b1c f2bc b560 103d 2e34 9a3d
00000090: 80c7 8cbd 150b ad3c ce3f 273b 20a1 023d
000000a0: aa3d 26bc f554 bdbd 620c e8bb d8d3 c1bc
000000b0: 8896 28bd 80b1 003d 70c9 c0bd 49f2 cc3c
000000c0: feaa 0ebd f276 c83d 8b36 90bd 3dd0 453d
000000d0: e963 21be fe20 893d f6d0 b4bc 12bb c2bd
000000e0: 0d7a b43d e7ca 74bd 0b66 883d 4aaa 0cbd
000000f0: 5cbd 823d 9bb3 f53b 1511 bf3d 3b08 7ebd
00000100: 3303 263d c27f ae3d 7a98 843d 5dfe 693d
00000110: ab8c 0abd ee56 433d 1a15 7b3c e44f acbd
00000120: c5e0 8abd b39f 9cbd 479f 6fbc 9189 ae3d
00000130: ba2c b1bc ef92 693d 5d8d 853d 00a3 703d
00000140: 8c15 da3c 0826 b83d b389 0a3d 0cb3 423d
00000150: 51fe acbd b1cb 0dbc c579 633d a831 36bd
00000160: 04e7 ecbc 3bca f8bd cf18 673d cb53 b0bc
00000170: a76a 5dbd 234f 6dbd 08a9 3cbd 5681 ac3d
00000180: 7de7 143d 03d1 b43b 31c1 d23d 61c7 bdbc
00000190: 199e fe3d 97ed 74bd 1201 5d3d a5de c03d
000001a0: 3527 bfbc 94cd 91bd 2789 2d3d 6f5f 67bd
000001b0: 1d18 c43b 0236 b53d 2eec 993d 5010 c03d
000001c0: 70b1 d9bd ca6b 813b de83 babd f049 7dbd
000001d0: ea5f bd3d bde1 ccbd d4e3 963d 797b 363d
000001e0: 8f14 813b 8728 c33d 2867 17bd 0018 e9bd
000001f0: 3e92 67bd 7978 9ebd 03cd 20bd 00e4 f7bc
00000200: a076 623d 707c 123d 0fd3 47bd 6d36 9fbc
00000210: 54fc 86bd 2cf9 1e3e c064 953d aa4f 10bd
00000220: ab10 debd 9ffc 0d3d 1329 883d 7b40 ac3d
00000230: bf12 6e39 1872 353d 7b2f 9dbb a739 d9bd
00000240: dcf7 b33c 1382 13be 0964 cf3d bb4a a1bc
00000250: 1591 853d e3f2 f0bc 2c32 8a3d 94a5 103d
00000260: 130a 063e b798 bfbd c8f8 11bd 3b5b cebc
00000270: 1617 bdbd 5bc5 eabc d090 163e b925 e0bb
00000280: 2a12 febd 816a c23c 213d 683d a422 73bd
00000290: 2755 983c a968 7d3d 6e4e 9fbd a9f9 11be
000002a0: 3a40 cdbb 90da 2abc cae9 9d3d 5258 683d
000002b0: e544 86bd 04b7 ecbd ae91 ac3d d23c ecbc
000002c0: aa77 e2bd 32b8 bf3d 802b c4bd cb92 003d
000002d0: f598 953d 96f3 18be 0986 cabd d580 b03b
000002e0: 1767 69bd 2d65 fb3c 13f8 a0bd 161e ad3d
000002f0: 36c6 e7bd cf49 5bbd 94ce 24be be13 c23d
00000300: 0196 91bd e512 bfbd f666 fdbd 96a0 643d
00000310: b4b7 45bd d302 91bd 9e08 69bd c336 c2bc
00000320: 1249 6b3d 89a4 9a3d fec5 883c e694 133e
00000330: 3868 debd dc15 963c 3a84 6abc 70c5 1b3d
00000340: 42e9 52bd 0159 3ebe a28a 3f3c 2dd3 933d
00000350: a4a6 d2bc 4a20 a33d c235 31bd 5cd7 3a3d
00000360: 56ac 9c3d 0545 2bbd c792 8f3c 0639 87bd
00000370: 9e30 983d 8f5f 373c 8332 aabd 4163 30bd
00000380: 0e5d 403b c86b d33d 2495 a0bd 6431 c73d
00000390: c591 28bc b2f6 2c3d c300 023d f836 25bc
000003a0: 5f62 9bbd 0e49 153d 201f db3d fa47 953d
000003b0: adc5 debd 8cb9 5c3c c998 0d3b 1fdd a83d
000003c0: 33ed 7b3c 186e 36bb f7fe 093d 430d e43d
000003d0: d303 63bd cd31 c8bd 35e1 ba3d c5a6 66bd
000003e0: 5723 86bb 2056 ffbc 77e9 94bc f8a4 04be
000003f0: d114 a7bd 776c 093d 0c02 1f3d cccc c6bd

mlp2.2.bias f4 [50]
0.030117916 0.10654847 0.09601362 0.05530556 0.022476172 0.10889504 -0.08445443 -0.009535093
-0.047628045 -0.11576796 0.019473527 -0.05037738 0.060768962 -0.09443771 0.024731372 0.1045204
0.019481776 -0.03291086 0.0396838 -0.029398577 -0.0671761 -0.077373564 0.118732475 0.020039773
-0.01570427 -0.06540249 -0.11545475 -0.04237894 0.12053078 -0.004268957 0.07517639 -0.11506221
0.085793495 0.07868899 0.011893922 0.08819491 0.081587456 0.014194075 0.043215755 -0.0405555
0.056209546 0.06012673 -0.031626232 -0.08507895 0.052738335 -0.023555666 -0.023166647 -0.022779694
-0.09222456 -0.079838715
00000000: d9b9 f63c 1636 da3d caa2 c43d 1588 623d
00000010: f31f b83c 5d04 df3d 72f6 acbd 1439 1cbc
00000020: a015 43bd c117 edbd f286 9f3c 8358 4ebd
00000030: e0e8 783d 8f68 c1bd 7299 ca3c cb0e d63d
00000040: 3f98 9f3c 8acd 06bd 7b8b 223d 49d5 f0bc
00000050: a093 89bd 0876 9ebd 032a f33d 732a a43c
00000060: 3ea6 80bc bef1 85bd 8a73 ecbd 8a95 2dbd
00000070: d7d8 f63d 9be2 8bbb 14f6 993d bca5 ebbd
00000080: 80b4 af3d b127 a13d bade 423c 889f b43d
00000090: 5317 a73d 448e 683c 0103 313d 861d 26bd
000000a0: fb3b 663d 7247 763d 828a 01bd df3d aebd
000000b0: 2704 583d d0f7 c0bc fbc7 bdbc 7b9c babc
000000c0: 3be0 bcbd 7b82 a3bd

attention.0.weight f4 [100, 100]
-0.022392333 0.032551426 0.07147092 0.013035643 -0.05761016 -0.011143595 -0.08117402 0.06133697
-0.095382914 -0.016620338 -0.04616463 -0.04983869 -0.06494699 -0.050295852 0.017390268 -0.0034142367
0.058693398 -0.04499812 -0.027381338 -0.049269576 0.058998298 0.09811747 -0.0075114956 0.06217125
0.05025949 -0.052762713 0.046819113 0.09624749 -0.0029402338 -0.08465941 0.0013692979 -0.06692891
-0.06341991 0.092662565 -0.09028359 -0.03147596 -0.037021082 0.00013339108 -0.0033741575 -0.03383042
-0.017089408 -0.09114896 -0.0748271 -0.039994672 -0.052883517 -0.09834594 -0.002114448 -0.09149534
-0.0630384 -0.03126512 0.09889463 0.07777402 0.08704538 -0.04899544 0.06688381 -0.030972177
0.0021432883 0.082172535 -0.073117346 -0.05118176 0.045670148 -0.008403321 0.022595966 -0.039634444
0.073913105 0.07591763 -0.030662797 -0.055689607 -0.008466984 -0.04941884 0.029567854 -0.08107697
-0.089727186 -0.016303208 0.054599892 -0.0887644 -0.011926673 0.041728083 0.025330806 -0.024302186
-0.056412164 0.099777006 0.07492095 0.063735895 -0.06977386 0.020968998 -0.09901557 0.007383158
0.030334115 0.09297103 -0.00033725 0.01687448 0.08394148 0.044451937 -0.009724361 0.053846244
-0.04059821 0.082338616 0.07693778 0.027626874 -0.039061297 -0.015737448 0.09760394 0.055658683
-0.09484311 0.011234817 -0.06921836 0.062173918 -0.0018006448 -0.053237468 -0.005807808 0.079799056
-0.0994264 0.0028179034 0.050522912 0.07230975 -0.08911109 -0.057639863 0.07102511 0.009651123
0.014892622 0.054308824 -0.08666428 -0.1030727 -0.011745319 0.0038202007 -0.06255789 -0.07701301
0.01993315 -0.002985673 0.09180205 0.00019693728 0.00014846421 -0.009611419 0.07430805 0.08384071
0.030785115 0.07547394 -0.08448927 -0.02587485 -0.017942488 0.09247511 -0.043826204 -0.025325771
-0.056598924 0.09128901 0.03346249 0.073139876 0.08413354 0.08834003 -0.03230555 0.042689037
-0.076181546 -0.020442076 -0.007833235 -0.042170074 0.03248274 0.02217264 0.08268612 0.018551875
0.012428909 -0.034806393 0.035875 0.025670763 -0.05185157 0.06956798 0.0201117 0.03919716
-0.0063570742 -0.06709583 0.033825245 -0.06519615 -0.07733527 -0.027221046 0.030561516 0.044139124
0.060573637 -0.041232664 0.04074003 -0.09898654 0.099068254 0.030844431 -0.08038876 0.084124096
0.059195854 -0.07619052 -0.0116419 -0.0032581703 -0.04144289 0.015331892 -0.07835513 0.0024890217
-0.049864255 -0.0736132 0.03079174 -0.10102279 0.08757083 -0.06131516 -0.06948979 -0.01928479
-0.006376437 0.045624588 0.07527888 -0.0057976865 -0.0003291286 -0.058399424 0.048990306 -0.06676585
-0.039854184 -0.069448 0.03446629 0.014248075 -0.06806251 -0.027260311 0.099182144 0.06524459
-0.048941873 -0.05636962 -0.09329755 -0.03424583 0.023099171 0.042592414 -0.019066753 0.023146732
-0.016819568 -0.041743293 0.0880591 -0.08539589 -0.031427167 0.05482893 0.0564002 -0.0074001118
0.04062153 0.023344895 0.09876396 -0.06711353 -0.029700497 0.074577995 -0.048532978 -0.01569165
-0.05432152 0.041883215 0.071015626 0.029484626 0.08013003 -0.03734388 -0.0571436 -0.019959064
-0.08720813 -0.044679895 -0.0030853248 -0.024179285 0.09197917 -0.061101153 0.036316328 0.07565013
00000000: 2070 b7bc a554 053d 595f 923d 7393 553c
00000010: a2f8 6bbd a093 36bc 913e a6bd 7a3c 7b3d
00000020: 1e58 c3bd 6027 88bc 2017 3dbd a723 4cbd
00000030: ed02 85bd 0603 4ebd 0976 8e3c 63c1 5fbb
00000040: 7d68 703d f34f 38bd d44e e0bc e5ce 49bd
00000050: 33a8 713d d0f1 c83d fe22 f6bb 48a7 7e3d
00000060: e5dc 4d3d b71d 58bd 66c5 3f3d 671d c53d
00000070: f0b0 40bb ea61 adbd 037a b33a 0612 89bd
00000080: 4ce2 81bd dfc5 bd3d 9ae6 b8bd f0ec 00bd
00000090: 6ba3 17bd e5de 0b39 f820 5dbb c491 0abd
000000a0: 16ff 8bbc 4eac babd f33e 99bd 74d1 23bd
000000b0: 639c 58bd 9969 c9bd 8d92 0abb e961 bbbd
000000c0: 471a 81bd db0f 00bd 4589 ca3d fc47 9f3d
000000d0: d944 b23d 71af 48bd 61fa 883d 5db9 fdbc
000000e0: 6976 0c3b 134a a83d 8cbe 95bd f7a3 51bd
000000f0: 9f10 3b3d 15ae 09bc 2d1b b93c ba57 22bd
00000100: c15f 973d b47a 9b3d 8c30 fbbc c91a 64bd
00000110: 1bb9 0abc 696b 4abd 4938 f23c af0b a6bd
00000120: e3c2 b7bd 4e8e 85bc 23a4 5f3d 1cca b5bd
00000130: 1868 43bc 11eb 2a3d 8d82 cf3c 6115 c7bc
00000140: 7110 67bd e357 cc3d 2870 993d f787 823d
00000150: 99e5 8ebd 2dc7 ab3c adc8 cabd 6bee f13b
00000160: 407f f83c 9867 be3d eed0 b0b9 593c 8a3c
00000170: 83e9 ab3d 3c13 363d ed52 1fbc e18d 5c3d
00000180: 4f4a 26bd 26a1 a83d 8e91 9d3d c151 e23c
00000190: bdfe 1fbd d2eb 80bc 93e4 c73d 5cfa 633d
000001a0: 1b3d c2bd 3d12 383c 5bc2 8dbd 14aa 7e3d
000001b0: 9d03 ecba 880f 5abd 6d4f bebb b06d a33d
000001c0: 12a0 cbbd 93ac 383b 1df1 4e3d 2217 943d
000001d0: e07f b6bd c717 6cbd 9d75 913d be1f 1e3c
000001e0: 2f00 743c ee72 5e3d 0b7d b1bd c817 d3bd
000001f0: 706f 40bc 555c 7a3b 5a1e 80bd ffb8 9dbd
00000200: d84a a33c 48ab 43bb b702 bc3d f380 4e39
00000210: 0fad 1b39 3779 1dbc d22e 983d aeb4 ab3d
00000220: 1131 fc3c 1592 9a3d b608 adbd 7ef7 d3bc
00000230: 20fc 92bc 9763 bd3d 1b83 33bd fe77 cfbc
00000240: 46d4 67bd bcf5 ba3d f70f 093d 5cca 953d
00000250: 354e ac3d 9eeb b43d d352 04bd b3da 2e3d
00000260: 1205 9cbd 2476 a7bc f856 00bc 87ba 2cbd
00000270: 9f0c 053d 65a3 b53c 5757 a93d 1afa 973c
00000280: 9fa2 4b3c 2691 0ebd aaf1 123d 7e4b d23c
00000290: 5062 54bd a879 8e3d 4bc1 a43c 348d 203d
000002a0: 014f d0bb 8a69 89bd 578c 0a3d 8f85 85bd
000002b0: f461 9ebd acfe debc 255c fa3c 3acb 343d
000002c0: 101c 783d 95e3 28bd 05df 263d 75b9 cabd
000002d0: 4ce4 ca3d 76ad fc3c dda2 a4bd 4149 ac3d
000002e0: 5a77 723d c609 9cbd abbd 3ebc 0787 55bb
000002f0: 05c0 29bd 9e32 7b3c a878 a0bd db1e 233b
00000300: 763e 4cbd 84c2 96bd f63e fc3c 09e5 cebd
00000310: 5658 b33d 9b25 7bbd aa50 8ebd 23fb 9dbc
00000320: 6ef1 d0bb d9e0 3a3d d02b 9a3d 85fa bdbb
00000330: e58e acb9 3c34 6fbd 0faa 483d 89bc 88bd
00000340: 243e 23bd c13a 8ebd 862c 0d3d c270 693c
00000350: 5b64 8bbd 0451 dfbc 0220 cb3d f59e 853d
00000360: 4677 48bd d5e3 66bd c912 bfbd 5b45 0cbd
00000370: 793a bd3c 6275 2e3d e131 9cbc 379e bd3c
00000380: 31c9 89bc 04fb 2abd 5458 b43d 0ae4 aebd
00000390: c6b9 00bd 4d94 603d e503 673d a37c f2bb
000003a0: c362 263d cb3d bf3c c244 ca3d d272 89bd
000003b0: 754e f3bc 59bc 983d 84ca 46bd c68b 80bc
000003c0: 3e80 5ebd bc8d 2b3d a470 913d be89 f13c
000003d0: 371b a43d e5f5 18bd 680f 6abd 3181 a3bc
000003e0: 2d9a b2bd 4402 37bd 2933 4abb a313 c6bc
000003f0: 935f bc3d 3445 7abd 6ec0 143d 75ee 9a3d

attention.0.bias f4 [100]
-0.089521 0.021485396 -0.09048401 0.0066465572 -0.057402715 0.04218903 -0.0303146 -0.0020073317
0.033852875 -0.023422692 0.044427224 0.041846365 0.097663224 -0.051080965 -0.005315762 -0.033421345
0.058987655 -0.03886228 -0.07990758 -0.014127243 -0.011942439 -0.11022914 -0.044431303 0.074689545
-0.004093174 -0.012431636 -0.097386755 0.073826835 -0.065405376 0.037999827 0.09574572 0.044817474
0.027576277 -0.06132937 0.021893242 -0.013645898 -0.018937249 -0.0028740377 0.055502884 -0.0008038554
-0.06702978 -0.05055882 -0.06438708 0.07801558 0.051624026 -0.052449495 0.052152153 -0.0056524244
0.0017331912 0.002967292 0.037186444 -0.005215106 -0.020863203 -0.0576505 0.029199813 -0.02155638
0.14312124 0.107744545 0.113432825 0.03038398 0.041763857 0.09427374 -0.021235257 0.058510464
-0.08175046 0.085967205 0.013134624 -0.017397817 0.042888228 -0.0015053226 0.06634814 0.087811135
-0.016485028 0.06712254 -0.0005921208 -0.08584498 -0.010195141 -0.06842137 0.09698707 0.022614306
-0.024448872 -0.09882368 0.073378295 -0.05456609 0.019057954 0.017591344 0.019360699 -0.088302284
0.11271116 -0.0827921 0.00286365 0.03949984 -0.027674511 -0.039662287 0.003496506 -0.06649331
-0.06826284 -0.060922913 -0.08011677 -0.01573054
00000000: c956 b7bd 2402 b03c ae4f b9bd 5dcb d93b
00000010: 1c1f 6bbd 68ce 2c3d 5356 f8bc 708d 03bb
00000020: 50a9 0a3d f2e0 bfbc 52f9 353d 1867 2b3d
00000030: a803 c83d 463a 51bd d82f aebb d2e4 08bd
00000040: 0a9d 713d 0e2e 1fbd 96a6 a3bd f475 67bc
00000050: 38aa 43bc d1bf e1bd 99fd 35bd d5f6 983d
00000060: 0820 86bb 10ae 4bbc b572 c7bd 8632 973d
00000070: 41f3 85bd b5a5 1b3d 5516 c43d 8792 373d
00000080: a5e7 e13c 8134 7bbd 7559 b33c 0b93 5fbc
00000090: 4a22 9bbc 5a5a 3cbb fe56 633d d3b9 52ba
000000a0: e946 89bd c416 4fbd 60dd 83bd a2c6 9f3d
000000b0: b773 533d 48d5 56bd 7f9d 553d f937 b9bb
000000c0: 3f2c e33a e676 423b d050 183d 7be3 aabb
000000d0: 4fe9 aabc ee22 6cbd 7234 ef3c 0197 b0bc
000000e0: 608e 123e 2ca9 dc3d 784f e83d d3e7 f83c
000000f0: 9410 2b3d 9712 c13d 90f5 adbc aba8 6f3d
00000100: c96c a7bd 930f b03d 9b32 573c de85 8ebc
00000110: 91ab 2f3d 3f4e c5ba 89e1 873d 53d6 b33d
00000120: 9c0b 87bc 8b77 893d 8e38 1bba 7ecf afbd
00000130: 8509 27bc 8120 8cbd 28a1 c63d a341 b93c
00000140: 0049 c8bc 1264 cabd 5c47 963d b180 5fbd
00000150: 6d1f 9c3c b91b 903c 549a 9e3c d4d7 b4bd
00000160: 1cd5 e63d e88e a9bd 13ac 3b3b 96ca 213d
00000170: a8b5 e2bc ec74 22bd a325 653b a52d 88bd
00000180: 63cd 8bbd 4e8a 79bd 4314 a4bd 55dd 80bc

attention.2.weight f4 [100, 100]
-0.045009147 0.042188466 0.09646029 -0.034365695 -0.06837221 0.056800094 0.017267225 0.019303706
0.052809376 -0.0040832786 0.03575793 -0.06268973 -0.071957864 0.010785184 -0.08515537 0.08403915
0.0016300725 -0.07072361 0.025531707 0.02557683 0.011210753 0.0052468535 0.0490276 -0.0020235984
-0.004016757 0.09442289 0.063852035 -0.069472 0.05726583 0.016571444 0.01031249 0.062783964
-0.008418678 0.07796952 0.065385245 0.07366801 0.051568262 0.07859126 0.07873914 0.075051166
-0.07067439 0.01657656 -0.011543202 0.051821683 -0.018168649 0.041045107 -0.09501171 0.08347448
0.03347729 -0.047944058 -0.0077540046 0.096216425 -0.05370789 0.03326263 -0.093643755 0.035211287
0.00077353447 0.019912958 -0.05086697 0.033834465 0.056504462 -0.02877568 -0.042224232 -0.07421674
-0.07639678 -0.09675951 -0.006925411 -0.08057766 -0.058701023 -0.011422439 0.07781568 -0.07270963
-0.008689354 0.08756296 -0.0073627946 0.04846682 0.0057591046 0.08755864 -0.09881405 0.05217581
0.08400896 0.030321788 -0.00938768 -0.09272415 -0.098891854 -0.08651011 0.07138445 -0.09081156
0.07977597 0.090552345 -0.025499657 -0.06374195 0.093314685 0.07936978 -0.064735465 0.0988039
-0.076631196 -0.010850076 0.08875872 0.024306817 -0.061500207 0.07216871 0.059424542 0.032848306
0.09202767 0.03193883 0.023347119 -0.07277421 -0.019617697 -0.08285249 0.06779904 0.097819805
-0.091376506 -0.099575035 0.08018339 -0.06570333 -0.10124815 -0.062992886 -0.030989254 0.06652856
0.060875077 0.06324252 0.00012489493 0.0053241337 0.0006613559 -0.014439862 0.008838069 0.08215333
0.036420953 -0.034455597 -0.07430415 0.066665806 -0.074551076 -0.03594303 -0.04262289 0.08858136
0.031064807 -0.049520258 -0.0048594326 -0.021135684 -0.056552622 0.05502424 0.08681774 -0.030886818
0.036194168 0.04416146 -0.035715465 0.019748222 -0.017766403 -0.004339387 -0.07002725 -0.0038553518
-0.0074351886 0.058740515 0.09039296 0.03945293 -0.07447599 0.057245694 0.0062181214 -0.043570407
-0.057205833 0.055459492 0.03643644 0.03654043 0.088334344 0.10090151 -0.065798864 -0.03235346
0.0074895914 0.028904865 0.035815258 0.03159126 0.038083997 -0.053313933 0.05858791 -0.052198254
0.071274355 0.045325343 -0.051973723 -0.030860111 -0.018494952 0.0465936 -0.050574508 -0.03324672
0.0650505 0.088210955 -0.0032521293 -0.03524732 -0.08031443 -0.08685688 -0.10204272 -0.017809814
0.052051146 -0.007111134 0.058514357 0.03700905 -0.03439866 0.07034253 0.090672486 -0.01841124
0.03999584 -0.05202289 0.079692654 -0.053378683 -0.08375659 0.015688134 -0.012293986 0.084283724
-0.094195984 0.06620993 -0.09400742 -0.011620802 0.08319739 -0.09139383 0.013216365 -0.012096378
-0.08921268 -0.093496285 -0.08640091 -0.04191513 -0.039098646 -0.048670042 0.04905659 0.077456325
-0.0024665166 0.062158823 0.016342139 -0.045654576 -0.061061554 -0.102268286 -0.004949832 0.0076183644
-0.01356767 0.06846133 -0.07810181 0.0025603788 0.008285233 0.07623185 0.06275621 0.07920365
0.066646576 0.07236018 0.036852997 -0.06995673 -0.02436028 -0.09574952 -0.040446617 0.02291762
-0.06721207 0.08755834 0.067894906 -0.013229538 -0.07456574 0.018381275 0.043541756 -0.05970533
00000000: 835b 38bd d0cd 2c3d f98c c53d 0bc3 0cbd
00000010: bb06 8cbd 37a7 683d ff73 8d3c ce22 9e3c
00000020: a54e 583d 06cd 85bb e876 123d 7963 80bd
00000030: a55e 93bd 57b4 303c f065 aebd b81c ac3d
00000040: 28a8 d53a 8ad7 90bd df27 d13c 8086 d13c
00000050: 4ead 373c cced ab3b 2ad1 483d 599e 04bb
00000060: 009f 83bb ca60 c13d dbc4 823d 5647 8ebd
00000070: 938f 6a3d d6c0 873c b8f5 283c e194 803d
00000080: 7fee 09bc 7cae 9f3d b3e8 853d 41df 963d
00000090: 3e39 533d 74f4 a03d fc41 a13d 6db4 993d
000000a0: bcbd 90bd 91cb 873c b31f 3dbc f942 543d
000000b0: 6bd6 94bc ea1e 283d 8095 c2bd abf4 aa3d
000000c0: 7c1f 093d fd60 44bd 4e15 febb 1e0d c53d
000000d0: cefc 5bbd 653e 083d 4cc8 bfbd b639 103d
000000e0: 05c7 4a3a 8020 a33c e259 50bd 0296 0a3d
000000f0: 3971 673d faba ebbc 51f3 2cbd f2fe 97bd
00000100: ea75 9cbd da29 c6bd 8fee e2bb e605 a5bd
00000110: 7c70 70bd 2e25 3bbc d45d 9f3d c9e8 94bd
00000120: cb5d 0ebc 3654 b33d 9943 f1bb 2585 463d
00000130: dfb6 bc3b f251 b33d 055f cabd 4db6 553d
00000140: e40c ac3d 6665 f83c c9ce 19bc 29e6 bdbd
00000150: d087 cabd 362c b1bd 0332 923d 69fb b9bd
00000160: 9561 a33d 8273 b93d a8e4 d0bc 248b 82bd
00000170: c51b bf3d a08c a23d 0794 84bd b359 ca3d
00000180: d1f0 9cbd 84c4 31bc 22c7 b53d 171f c73c
00000190: a4e7 7bbd 30cd 933d 2667 733d f28b 063d
000001a0: 0179 bc3d 4ad2 023d 7542 bf3c a50a 95bd
000001b0: 4bb5 a0bc 91ae a9bd 39da 8a3d c055 c83d
000001c0: 9b23 bbbd ffed cbbd 3037 a43d 788f 86bd
000001d0: 315b cfbd 6a02 81bd 2ddd fdbc 2040 883d
000001e0: 2558 793d 4b85 813d 3af6 0239 1276 ae3b
000001f0: d85e 2d3a 2c95 6cbc 8ccd 103c 0140 a83d
00000200: 232e 153d 5021 0dbd c62c 98bd 1588 883d
00000210: 3cae 98bd 0039 13bd 5795 2ebd 256a b53d
00000220: 9f7b fe3c c1d5 4abd e03b 9fbb be24 adbc
00000230: b9a3 67bd 1961 613d 80cd b13d 5a06 fdbc
00000240: 5640 143d a6e2 343d 614a 12bd 06c7 a13c
00000250: d98a 91bc 6b31 8ebb 726a 8fbd 12aa 7cbb
00000260: e2a2 f3bb e599 703d f21f b93d 6599 213d
00000270: de86 98bd 767a 6a3d 62c1 cb3b e276 32bd
00000280: aa50 6abd 7e29 633d 603e 153d 6bab 153d
00000290: a3e8 b43d 73a5 ce3d 8ec1 86bd 1085 04bd
000002a0: 3f6b f53b e5c9 ec3c 05b3 123d d665 013d
000002b0: f7fd 1b3d b65f 5abd e0f9 6f3d d6cd 55bd
000002c0: 4af8 913d 11a7 393d 66e2 54bd 58ce fcbc
000002d0: ba82 97bc eed8 3e3d 3727 4fbd b62d 08bd
000002e0: 3239 853d f2a7 b43d ad21 55bb 7e5f 10bd
000002f0: e47b a4bd 05e2 b1bd c6fb d0bd e3e5 91bc
00000300: 9533 553d 8404 e9bb c0ac 6f3d cd96 173d
00000310: 9ce5 0cbd bf0f 903d 7fb2 b93d 2bd3 96bc
00000320: aed2 233d f415 55bd e735 a33d 9ba3 5abd
00000330: 9388 abbd 6784 803c b76c 49bc f29c ac3d
00000340: d3e9 c0bd 1299 873d f686 c0bd 2d65 3ebc
00000350: 6563 aa3d b02c bbbd 7489 583c e32f 46bc
00000360: 23b5 b6bd fb7a bfbd f6f2 b0bd 33af 2bbd
00000370: e725 20bd 3d5a 47bd 90ef 483d 6ca1 9e3d
00000380: 48a5 21bb 409a 7e3d f3df 853c 4b00 3bbd
00000390: ae1b 7abd 0972 d1bd 3332 a2bb 79a3 f93b
000003a0: ef4a 5ebc 7435 8c3d d7f3 9fbd 07cc 273b
000003b0: c9be 073c 721f 9c3d 5486 803d 8635 a23d
000003c0: 007e 883d 9331 943d 2bf3 163d 7945 8fbd
000003d0: 368f c7bc 5318 c4bd 5aab 25bd bcbd bb3c
000003e0: 7ba6 89bd c951 b33d 7c0c 8b3d b4c0 58bc
000003f0: ecb5 98bd 5494 963c d758 323d 938d 74bd
