arena_navigation/arena_local_planner/model_based/sarl_star/sarl_star_ros/CrowdNav/crowd_nav/data/output/rl_model.pth (torch_old, 349348 bytes, 20 tensors)

mlp1.0.weight f4 [150, 13]
000000 a5 7c fa 3d b8 07 63 be 4d 6a b9 bd 65 3e 12 3e
       0.12230805 -0.22170913 -0.090534784 0.14281614
000010 3a 49 0d be f2 f5 a3 3d f8 fc a3 3e 4d 6a ab be
       -0.13797465 0.08005895 0.32028937 -0.3347954
000020 99 c0 15 3e dd d3 62 be 97 94 48 3c 63 b2 fb 3d
       0.14624251 -0.22151132 0.012242458 0.12289884
000030 70 4a 80 be 06 14 98 bd 70 ca 9d 3c 27 55 10 bd
       -0.2505679 -0.07425694 0.019261569 -0.035237458
000040 f7 38 72 bd 51 01 fb 3d ef d7 05 bd e1 26 6b be
       -0.059136357 0.122561105 -0.032676633 -0.2296405
000050 14 61 ff 3c d9 a2 eb 3d 6f c9 34 be 97 6a 2d bc
       0.03117422 0.1150567 -0.17654966 -0.010584495
000060 b4 58 2c bc 86 40 aa bc c3 d2 6a bc bf 30 23 3e
       -0.010519195 -0.02078272 -0.014332476 0.15936564
000070 53 8d 41 3e 4c a1 88 3d d9 f4 2b 3e 37 b7 32 3e
       0.18901567 0.0667139 0.1679262 0.17452703
000080 22 d7 25 bc 35 ce b4 3e 7d be b7 3d 51 4a 0f be
       -0.010122092 0.35313573 0.0897188 -0.13993193
000090 21 2e 67 be f0 1c 98 3d d7 08 f8 3d 5f 6a 94 3d
       -0.2257619 0.074273944 0.12111061 0.07246851
0000a0 5e 24 ab 3d f5 32 58 be e9 a4 b1 3d fe ff 9c bd
       0.08356546 -0.21113189 0.08674032 -0.07666014
0000b0 b3 e9 63 3e ae cd 4d 3e e1 41 4e 3e 57 00 83 bd
       0.22257118 0.20097992 0.20142318 -0.06396549
0000c0 b3 cf a2 3d 4f ba 19 3e af ef 93 be 0d 94 4a 3e
       0.07949772 0.15012477 -0.28893802 0.1978304
0000d0 0a 4c 4b be 4d 33 bc 3d fd 7b 71 3e c2 2a 8f be
       -0.19853225 0.09189472 0.23582454 -0.2796231
0000e0 ad 9b 56 3e 65 7c b0 3a c2 30 45 bd 90 45 ea 3d
       0.20957823 0.0013464807 -0.048142202 0.11439049
0000f0 8f 92 c6 3d c6 50 00 be 19 41 0e bd 9f ad 63 be
       0.096959226 -0.12530813 -0.03473005 -0.222342
000100 9b 20 2a be ac e5 ab 3d a9 58 8e bc 28 c9 40 3d
       -0.16614 0.08393416 -0.01737626 0.047066838
000110 f0 43 6d bd bb e9 35 3e 88 f6 99 3d 09 44 1f 3e
       -0.05792612 0.17764942 0.07517725 0.15553297
000120 66 6f be bd be de a1 bd cf 8f 2b be 17 00 70 be
       -0.09298591 -0.07903813 -0.16754077 -0.23437534
000130 18 2e 68 be f7 25 02 be b8 be 6f 3e fb 7f 8a be
       -0.22673833 -0.12709795 0.23412597 -0.27050766
000140 80 6a 40 3e 0d a5 9b 3b ca 8b 5a be bc ee 63 be
       0.18790627 0.0047499 -0.21342388 -0.22259039
000150 69 d1 6c 3d 2c cd 88 3d d2 46 2e 3d d3 94 9c 3e
       0.057816897 0.066797584 0.04254801 0.30582294
000160 57 e0 ab 3d f2 3a 6c be 3a f6 15 be ac 08 0d 3e
       0.08392399 -0.23069361 -0.14644709 0.1377284
000170 82 5f 10 3e 9f 79 6c 3e f8 b7 61 be c6 ec 43 3d
       0.14098933 0.2309327 -0.22042835 0.047833227
000180 2e 0b 5e 3d 17 3c ae be ad fa 0a be f4 8e 70 be
       0.05420988 -0.3403022 -0.13572188 -0.23492032
000190 6e b2 88 3e 56 41 b2 bd a3 1f 09 bd 60 53 fb bd
       0.2669863 -0.08703868 -0.033477437 -0.12271762
0001a0 0b c3 27 3e d4 fe 7d be 96 a9 51 bd 39 65 34 be
       0.16382997 -0.2480424 -0.05118712 -0.17616738
0001b0 ad 26 e2 3d b3 9d f3 bd cb 85 d4 bc c3 bb 23 3d
       0.11042533 -0.11895313 -0.025942704 0.039973985
0001c0 56 3f 8a 3e cc 68 41 3e 04 15 77 be 71 a2 90 3d
       0.27001446 0.18887633 -0.2412911 0.07062233
0001d0 46 83 ea bd 54 d8 da 3d b8 86 82 be 6a df 65 3c
       -0.1145082 0.106857926 -0.25493407 0.014030317
0001e0 62 e4 ee bd f7 d0 66 3e 61 78 90 3e 18 c0 8b be
       -0.11664654 0.22540651 0.28216842 -0.27294993
0001f0 34 6a 23 be 82 46 c9 3d ce a4 88 be 49 a0 15 be
       -0.15958482 0.098279014 -0.26688236 -0.14611925
000200 8f bd 16 3e b3 e0 36 3e 09 6a 60 3e c6 29 5a bd
       0.14720748 0.17859153 0.21915449 -0.053262495
000210 14 22 56 3e b9 e2 8f be 11 53 84 be a8 86 b4 3e
       0.20911437 -0.28102663 -0.25844625 0.35258985
000220 c8 3c b3 3d 59 4c 68 be 1d 8d 3a 3e 53 32 2d 3e
       0.087518275 -0.22685374 0.18217893 0.16913728
000230 7c 35 78 3c 06 a0 23 be 6b 8d 54 bd 07 85 09 3d
       0.01514947 -0.15979013 -0.05189268 0.03357413
000240 77 20 81 bd a6 36 cc 3d ee e4 85 3d d2 af 10 3e
       -0.0630502 0.09971361 0.065378055 0.1412957
000250 70 fd 82 be 27 76 65 3e 02 ce a2 3e 93 4f 0e 3e
       -0.25583982 0.22408353 0.31797796 0.13897543
000260 9a 98 ae 3d d6 b5 9a bd 39 86 11 3e 96 b6 7e 3e
       0.085252 -0.07554214 0.14211358 0.24874339
000270 3a cb 0b bb 56 ac 3b 3d 00 26 9b bd e6 a8 59 3e
       -0.002133085 0.04581865 -0.07575607 0.21255836
000280 8a 1a 16 be a4 e3 0d be 6e 75 34 be 51 da 2e 3e
       -0.14658561 -0.1385637 -0.17622921 0.17075469
000290 25 72 40 bd e9 eb 99 3e 66 01 28 be c8 da 5e 3e
       -0.046983857 0.30062798 -0.16406783 0.21763146
0002a0 f3 7b 58 be 23 a9 16 be 98 40 8d 3e f5 db e7 bc
       -0.21141033 -0.14712958 0.27588344 -0.028303126
0002b0 f7 eb a3 bd 59 17 d5 bd d1 82 0d be f6 83 f1 bd
       -0.08003991 -0.10404844 -0.13819434 -0.11792748
0002c0 eb 17 2f 3c 29 60 3f be 54 3d 5a be 49 8c d2 3d
       0.010686855 -0.18689026 -0.21312457 0.102806635
0002d0 32 cf 5e be e5 dd 88 3e fe fa 4d 3e 2a ba 4e be
       -0.21758726 0.26731792 0.20115277 -0.20188203
0002e0 79 95 63 3d eb 00 bc 3d 6a c2 62 be 4e 34 92 be
       0.05556247 0.091798626 -0.22144476 -0.2855553
0002f0 ec 47 1f be 44 c8 4a 3e 10 86 9a be 61 fe bf 3e
       -0.1555478 0.19802958 -0.30180407 0.37498763
000300 b8 c9 0f be ed 23 89 ba 76 8e e1 bd 61 87 3a 3e
       -0.14041793 -0.0010462977 -0.110135004 0.18215705
000310 a1 9e e4 bd 4a 8d 6e be 5c 71 08 3e 4c 70 c7 be
       -0.111630686 -0.23296085 0.13324493 -0.38952863
000320 3b 9d b0 3d a8 de 76 3e bc 82 84 be a6 f6 6a bd
       0.08623739 0.24108374 -0.25880992 -0.05736413
000330 25 c2 d9 be 5f 85 6d 3e 48 40 83 be 3a 42 31 bd
       -0.42530933 0.23195408 -0.2563498 -0.04327605
000340 10 2e 07 3e 59 70 05 3e 86 ed 04 be f2 ac 88 be
       0.13201165 0.13031138 -0.12981233 -0.26694447
000350 fb 59 69 3e 2d f4 9c bd 72 a8 a9 bd 51 bc 66 bd
       0.22788231 -0.0766376 -0.082840815 -0.056331936
000360 fc 95 66 be a6 41 91 bb 9f 5c 82 be 9d ab 2c be
       -0.22518152 -0.0044328747 -0.2546129 -0.1686234
000370 e6 40 5f 3e f0 5d 86 bd 68 d1 2b 3d 70 cb e9 3c
       0.218021 -0.06560886 0.041947752 0.02853939
000380 6a 39 64 3e 1a 06 b1 3d e1 ca 2c 3e a2 cd ba 3c
       0.22287527 0.08643742 0.16874267 0.022803131
000390 01 93 9d bd 6b 2c 55 be 02 9f 5d bd 32 8f 20 3e
       -0.076940544 -0.20817725 -0.05410672 0.15679625
0003a0 3a b7 85 bd ce cd 07 be 1b 1e c4 3d 3f 70 6c 3e
       -0.06529088 -0.13262102 0.09576055 0.23089693
0003b0 3a 90 2c be 47 7e f1 bd 51 e1 8d 3e e5 5a 08 3e
       -0.16851893 -0.117916636 0.27710965 0.13315924
0003c0 e2 16 ab be ae 0e 8f be 1e 46 04 3d 14 b9 35 3e
       -0.33415896 -0.27940887 0.03229343 0.17746383
0003d0 70 c0 2e 3d 09 3d a9 3b 99 0f 76 3d 5a 45 2e be
       0.04266399 0.0051647467 0.06007347 -0.17018643
0003e0 07 19 81 be 3c 03 5c 3e ea d8 1a be fe 8c 80 3e
       -0.25214407 0.21485609 -0.15121809 0.25107569
0003f0 12 11 03 be 95 a0 e6 bd ed 29 14 be 2c 26 7c 3d
       -0.1279948 -0.11261097 -0.14469118 0.06155984

mlp1.0.bias f4 [150]
000000 11 61 6b 3b 70 c7 3b 3e 81 f4 55 be d7 51 82 3e
       0.003591601 0.18337798 -0.20894052 0.25453064
000010 f0 b5 86 bd d4 80 64 be d6 8f 8e be 66 3a f6 3d
       -0.065776706 -0.22314769 -0.27844113 0.12022857
000020 00 b7 82 be e3 fe 92 bd 4b ea dc 3d e3 9a 5c be
       -0.25530243 -0.07177522 0.10786875 -0.2154346
000030 81 16 2f bd f2 ba ce bd 84 01 d6 3d 81 fe 14 be
       -0.04274607 -0.10094251 0.10449508 -0.1455021
000040 c4 e4 5c 3e 60 51 2d bd 12 51 29 3c 2a 7c 8b 3c
       0.21571642 -0.042313933 0.01033427 0.01702698
000050 71 c5 40 3c e5 60 2f be 7e 00 e4 bd d0 d5 55 3d
       0.011765824 -0.17126806 -0.111329064 0.05220586
000060 6d e0 6e 3d 9d ed 82 be e7 8e cc 3c 61 47 89 3e
       0.058319498 -0.2557191 0.024970485 0.2681227
000070 4e d0 34 be 92 30 65 be 9f 17 95 3d a4 af 4a 3e
       -0.17657587 -0.2238181 0.07279896 0.19793564
000080 f7 46 16 be 91 86 1e 3e e1 9a ec 3c 96 de 46 3d
       -0.14675508 0.1548102 0.028882446 0.04855212
000090 de a0 93 3d 72 41 0e be 8a 78 90 be 3a 72 88 3c
       0.07208417 -0.13892153 -0.28216964 0.01665603
0000a0 e2 20 4d be 71 97 3f be 92 a9 49 3d 6d 87 39 be
       -0.20032075 -0.18710114 0.04923398 -0.18118067
0000b0 71 de a5 bd d6 95 dd bd b3 ac 6d bc 60 05 0c be
       -0.08099068 -0.108195946 -0.014506507 -0.13673925
0000c0 a7 9b 9d 3e 82 e7 69 3d ae 3c 21 be 2e e9 6e be
       0.30782816 0.05710555 -0.15745804 -0.23331138
0000d0 32 cb 33 3d b2 49 f5 3d 85 66 de 3d 91 7d 0e be
       0.043894954 0.11976947 0.10859398 -0.13915087
0000e0 04 f4 1d be 42 10 0b be 4f 33 85 3c aa f4 81 3e
       -0.15425116 -0.1358042 0.016259817 0.25381976
0000f0 8b ce c3 3d 63 6e 35 be e6 17 61 bc 51 6c ac bd
       0.09560879 -0.1771789 -0.013738608 -0.08419097
000100 fd d5 6c 3e ad f7 68 3e 36 59 52 3e 47 18 9b be
       0.23128505 0.22750731 0.20541844 -0.3029196
000110 01 6b 50 be f1 cb fd 3d eb e2 6f 3e 5b 87 51 3d
       -0.20353319 0.12392414 0.23426406 0.051154476
000120 d5 66 fc 3d a4 91 2c 3e 96 dd 61 3c e8 7e 42 be
       0.12324301 0.16852432 0.01378574 -0.18993723
000130 ae d6 3d 3e b0 9a ab bd a3 84 23 be cb 27 87 be
       0.18538925 -0.08379114 -0.15968566 -0.26397547
000140 5d f2 75 bd c7 dc 45 be 2c dd 09 be cc f1 3b 3e
       -0.06004559 -0.19322501 -0.13463277 0.18353957
000150 ff 2f da 3d e2 52 5c 3e e9 ea 67 3c f4 c9 18 be
       0.10653686 0.21515992 0.014155128 -0.14920789
000160 ca 41 1b be fe ee 79 3e 14 fc 31 be 2d 47 40 bc
       -0.15161815 0.24407575 -0.17381316 -0.01173572
000170 7b 9f 4e be 15 77 63 3e 49 ef d0 3d 5d eb 03 be
       -0.20178024 0.22213395 0.1020189 -0.12882753
000180 c7 18 2f 3d 6c 75 17 3d 27 c2 55 3e 68 d0 0f bd
       0.04274824 0.036977217 0.20874844 -0.03511086
000190 aa ab 19 3d e6 25 57 be a7 44 2d 3e 31 ef ce bb
       0.037517227 -0.21010551 0.1692072 -0.006315135
0001a0 03 87 4c be 66 e7 54 3e 53 ba 90 bd 13 24 bc bc
       -0.19973378 0.20791396 -0.070667885 -0.02296642
0001b0 88 d0 a2 bb 8d ed 14 3e f4 e3 c6 3d e1 ad 92 bd
       -0.0049687065 0.14543743 0.09711447 -0.07162071
0001c0 86 6f a6 3c e4 4d 03 3e 9d e6 88 be 32 f8 44 3e
       0.02031685 0.12822682 -0.26738444 0.19235304
0001d0 d0 e2 4e be 26 2b d5 3d 77 a0 36 bd 60 d9 2a 3e
       -0.2020371 0.104086205 -0.044586625 0.16684484
0001e0 90 5b 4e 3e 5a f8 05 3e 2c e3 20 be 41 43 88 be
       0.20152116 0.1308302 -0.15711659 -0.2661381
0001f0 a0 c1 2e 3e 69 21 84 3e f9 5c 0c be 0a 42 54 be
       0.1706605 0.2580674 -0.13707341 -0.20728317
000200 d2 9d 53 be e4 cb 6e bd 4c fc 50 be c3 60 ad bd
       -0.20665672 -0.058299914 -0.20408744 -0.084657215
000210 af a2 7d be 87 2f 77 be 57 74 1e be 03 b8 89 be
       -0.2476909 -0.24139224 -0.15474068 -0.26898202
000220 6a 93 73 3e 73 ea bb b9 f9 c6 22 3e 36 d9 ec 3d
       0.23786703 -0.00035842098 0.15896215 0.11564867
000230 46 3d 8a 3a d2 ae 48 3e 1c 4e 1d 3e 86 78 6e be
       0.0010546825 0.19597939 0.15361828 -0.23288164
000240 ff 2e 1b be 68 a6 98 bc 89 b9 f1 3d 55 e4 16 3e
       -0.15154646 -0.018634036 0.11802966 0.1473554
000250 28 81 1c be 11 d1 36 3e
       -0.15283644 0.1785319

mlp1.2.weight f4 [100, 150]
000000 61 9a ef 3d be fa 4f bd d1 a8 d3 bd 25 66 27 bd
       0.11699367 -0.050776236 -0.103349335 -0.040868897
000010 c4 6f 17 ba 64 f7 3c 3d d2 f8 00 3e 9e ce d6 bc
       -0.0005776847 0.046134368 0.12594917 -0.02622157
000020 e3 c8 af 3d df 4e 5f bd 5b 10 ac 3d 8e 7f 40 bd
       0.08583238 -0.054518577 0.08401557 -0.046996646
000030 36 a7 8d 3d 56 8b aa 3c 99 45 68 3c 04 dc e6 3d
       0.069166586 0.020818394 0.01417675 0.112724334
000040 c8 e9 68 3d 9d cf d3 bc 8b 0e 8a bc 55 a4 81 3c
       0.056863576 -0.025855834 -0.016852638 0.01582543
000050 04 dc c1 3d 04 2f 1d bc ba fc 55 bd b3 bd 57 bd
       0.09465793 -0.009593729 -0.052242972 -0.052671146
000060 a8 4d 32 3d 24 35 bf 3d 1c 91 bd bc 6c b5 7c bd
       0.04353109 0.09336308 -0.023140483 -0.061696455
000070 e6 c1 25 3c d0 9a 7d 3d 3e 8e 93 bd 57 d9 9d 3d
       0.01011703 0.06191522 -0.07204865 0.0770747
000080 6f cb 91 bd fd b4 83 3d 35 0f b4 bd 9e bd 82 bc
       -0.0711888 0.06431005 -0.08791963 -0.015959557
000090 3b cd 0e 3d 9b 5b a1 bd 27 09 19 3d 05 3f a5 bc
       0.03486369 -0.078788005 0.037362244 -0.020171652
0000a0 66 94 dc ba f8 c7 52 3d eb 83 79 bd 62 29 57 bd
       -0.0016828894 0.051460236 -0.060916822 -0.0525297
0000b0 53 1e 13 3c d2 36 8d 3d 85 f2 b3 bc 12 33 94 bd
       0.008979398 0.06895222 -0.021966228 -0.072363034
0000c0 fc b7 0e bd b3 b2 e9 bd 78 05 af 3c 06 7e b3 3c
       -0.03484343 -0.11411037 0.021364912 0.021910679
0000d0 e6 3d 6f 3d 80 ab ca bc b6 5a 8a 3c cc e5 48 3d
       0.05840864 -0.02473998 0.016888957 0.049047276
0000e0 3f 9a 48 bd 6a f9 bf bd 36 eb 76 bd 61 8a af 3b
       -0.048975226 -0.09373744 -0.06028291 0.005357072
0000f0 00 6d 80 3d 58 25 54 3d d2 0d 1b 39 f1 dd 1f 3c
       0.0627079 0.051793426 0.000147871 0.009757505
000100 bf 7b e3 3c 73 94 18 bd 0d 55 8d bd 90 ec 76 3d
       0.027768968 -0.037250947 -0.06900988 0.060284197
000110 0b 9a c6 3c 7b cf 92 3d 17 54 72 3d 06 8c 29 bc
       0.024243375 0.0716848 0.059162226 -0.010348326
000120 e6 a1 4a 3d be 6b ae 3d 01 8b 46 bd b2 4a d1 bc
       0.049470805 0.08516644 -0.04847241 -0.025548313
000130 ed 38 7e 3d 9f b9 34 bc 84 92 81 3d de a4 c3 3c
       0.062066007 -0.011030584 0.06326774 0.023882326
000140 d7 80 4b 3d 20 e0 5b bd fb 0f 1f 3d 25 e7 80 bd
       0.049683418 -0.05368054 0.0388336 -0.06294087
000150 02 8e 31 bd 88 50 a3 bd 58 6e 82 bd 17 e2 f6 3d
       -0.04334832 -0.079743445 -0.06368703 0.12054842
000160 3d 33 69 bc 8c df 18 3c 4f b7 3c 3d 31 f0 4b bd
       -0.014233408 0.0093306415 0.046073254 -0.04978961
000170 21 f2 11 bc e6 54 6e bd ec fb 04 bb 5e ff 0c 3c
       -0.008907826 -0.058186434 -0.0020291759 0.008605806
000180 c1 69 83 bd e5 68 b8 bc 44 7d 8b 3d fb 04 50 bd
       -0.06416655 -0.022510955 0.06811002 -0.050786
000190 58 07 9a 3d 47 7d 95 3d 5d 7a 1a 3d 08 1a 8e 3d
       0.07520932 0.072992854 0.03771435 0.06938559
0001a0 8f 1a c5 bc 0d 02 67 bd 79 d1 fe 3d 4c 3a a0 bc
       -0.024060516 -0.05639844 0.124422975 -0.019559048
0001b0 84 96 ca 3d 20 bd a4 3d 5c 53 80 3c 65 d0 f7 bd
       0.0989199 0.08043885 0.015664749 -0.12100295
0001c0 62 a7 10 3d b4 53 04 bd 4a 4e 84 3d 4c c5 7d 3d
       0.03531588 -0.032306388 0.06460245 0.061955735
0001d0 67 30 3e bd 7d 61 90 3d e5 98 23 3c 8b ba 4a bd
       -0.04643288 0.070498444 0.009985183 -0.049494307
0001e0 01 56 97 3d 99 70 a8 bd ce 75 91 bc d5 e9 16 3c
       0.07389451 -0.08224601 -0.017756369 0.009211023
0001f0 f4 96 13 bd e0 c7 d4 bc b6 8a 55 bd 7e 8f 8a bd
       -0.036032632 -0.025974214 -0.05213424 -0.0676565
000200 37 5f 86 ba 80 e7 60 3c 7c 25 88 3c ae 45 8a bd
       -0.0010251765 0.013727069 0.016619436 -0.067515716
000210 66 d0 90 3d 02 40 82 bd 04 98 26 bd 9b 9e 87 bd
       0.07070999 -0.06359865 -0.040672317 -0.066220485
000220 4d d0 6d bd 92 de 1a 3e 4e b2 eb 3c 14 2a 3e bc
       -0.05805998 0.15123966 0.028771546 -0.011606712
000230 80 05 9d bd 71 6a 0a bd ef 3c 85 bd 1a 57 88 bd
       -0.07667065 -0.033792917 -0.06505763 -0.06657238
000240 19 5f 2f bd 31 f8 83 bc d3 ca 38 3d 70 ce 33 bc
       -0.0428153 -0.016109558 0.045115303 -0.0109745115
000250 10 20 78 bd d0 4b 1e 3c 1b 0c cd bc 61 57 55 3c
       -0.060577452 0.00966163 -0.025030186 0.013021321
000260 87 b9 a0 bd 80 07 85 3d f6 19 7c bd e2 b1 0c bd
       -0.078478865 0.06495571 -0.061548196 -0.03434933
000270 e9 7a 81 bd 39 82 a8 3d 73 a6 97 bc 8e da dd bd
       -0.063222714 0.08227963 -0.018511986 -0.108327016
000280 00 c6 cc 3d de 33 db 3c 5c a8 d0 bd 3a 57 39 3d
       0.09998703 0.02675813 -0.10188362 0.0452492
000290 b0 3e 2b bd 30 a2 80 3c c2 3e 32 3d 17 cd 76 bc
       -0.04180783 0.015702337 0.04351688 -0.015063546
0002a0 c0 4f ba bb 83 01 12 3d ab ab 9e bb 5f 3a 89 bd
       -0.0056857765 0.035645973 -0.0048422418 -0.067005865
0002b0 30 24 9d bd 2d e7 2f 3d 56 59 52 bd ec 79 e4 bc
       -0.07672918 0.042945076 -0.05135473 -0.027890168
0002c0 a1 e8 44 bc 4d 34 65 3d de 18 7b bd a8 be e9 bb
       -0.012018354 0.05595808 -0.061303012 -0.0071333237
0002d0 79 76 55 3d da f5 5d bd 26 fa d0 ba dd d5 6f bd
       0.052114937 -0.05418954 -0.0015943691 -0.058553565
0002e0 2e 7a eb 3c 30 95 48 bd 77 af aa 3c f2 fc 8e bd
       0.028744783 -0.0489704 0.020835621 -0.06981839
0002f0 46 f8 9f bc bc 09 47 bd 33 de 74 bd 00 89 9a 3c
       -0.019527566 -0.048593268 -0.05978222 0.018864155
000300 fd c8 93 3d b1 15 87 3d 3c e5 80 3d 3d 5a 8b bd
       0.0721607 0.06595934 0.06293723 -0.06804321
000310 b9 5a c5 3c 24 79 be 3d c2 9f b6 bc f3 ad 3d ba
       0.024091111 0.093004495 -0.022292975 -0.0007235698
000320 c7 39 45 bc da 5f 46 3d 97 93 4a 3d a3 83 c7 bb
       -0.012037701 0.048431255 0.04945716 -0.0060886904
000330 6c be f4 bc 80 99 05 3d e1 c4 78 3d d9 f5 26 bd
       -0.029875956 0.032617092 0.060734633 -0.040761802
000340 21 60 d7 bc 9b 19 dc 3d 08 94 c0 3c e4 71 59 3d
       -0.026290955 0.10747071 0.023508087 0.05308713
000350 9b 2b 16 bd ef 2c 20 3d 4a 7e 4c bd fb a0 22 3d
       -0.03666268 0.039105352 -0.049925126 0.039704304
000360 38 d8 0e 3c d8 41 87 bd 07 0a ad bd 05 3a d7 3b
       0.008718543 -0.066043556 -0.08449178 0.0065681958
000370 41 01 9a ba ea 6f 02 3c ca 01 7e bd 60 bb 95 3d
       -0.0011749641 0.007961253 -0.062013425 0.073111296
000380 dd 32 7c 3d dc aa 24 bd 0d dc ab bd ee 0e ef bc
       0.061571945 -0.040202007 -0.08391581 -0.029181924
000390 d9 be 56 3d 37 c4 25 bd 41 a5 aa bd be af 71 3c
       0.0524281 -0.04047033 -0.08332301 0.014751373
0003a0 a4 0c 93 bd ee 7f 93 bd c7 80 71 3c 8e 8e 85 bd
       -0.071801454 -0.07202135 0.014740176 -0.06521331
0003b0 05 f4 29 bd a7 2f c5 bb 41 90 d4 3c 2a 0f 9f 3c
       -0.04149248 -0.0060176435 0.025947692 0.01941641
0003c0 39 3f 89 bc 44 23 04 3c a5 6d d2 3a 07 a4 01 bd
       -0.01675378 0.008065049 0.0016054405 -0.03165057
0003d0 14 68 f9 bb 57 8f 15 bd ee 32 8e 3d a9 60 a7 3d
       -0.007611284 -0.036513653 0.06943308 0.08172733
0003e0 31 d5 52 3d f7 df 8a bd 9f 0f 37 bd 98 e9 30 3c
       0.051472846 -0.06780999 -0.04469263 0.010797881
0003f0 54 ab a2 bb 00 d5 37 bc ff 1d b6 3c 93 bb 3a 3d
       -0.0049642716 -0.011220217 0.0222311 0.04558904

mlp1.2.bias f4 [100]
000000 35 c0 d1 bd 25 f6 99 3d 62 4e 7d 3d 55 71 82 bc
       -0.10241739 0.075176515 0.06184233 -0.015923182
000010 35 b3 9e 3d 0d 88 a1 ba c1 26 e7 3d 54 a8 0f bd
       0.07749025 -0.0012323871 0.112866886 -0.03507264
000020 14 0d 22 3c 3a 82 35 3d ff 1e 48 bd 51 c0 cc bd
       0.009890813 0.044313647 -0.048857685 -0.09997619
000030 f9 8f 90 3d 6f 38 90 bd be 89 6d 3d 52 80 2b bd
       0.070587106 -0.07042014 0.05799269 -0.041870423
000040 df d4 97 3d f9 ca 00 3d e6 d3 a3 bc 10 a5 b3 3c
       0.07413649 0.03144357 -0.019998502 0.021929294
000050 7f 87 ef bc 99 53 bf 3d ea 6c 55 3d e8 da 60 bd
       -0.029239414 0.09342117 0.05210582 -0.054896265
000060 cc 17 af bc b8 30 92 3d b9 5f 97 bc ea 1d 15 3e
       -0.021373652 0.071381986 -0.018478261 0.14562193
000070 61 90 86 3d 5a 57 30 3d b1 b3 47 bd d3 24 4b 3d
       0.06570507 0.043052055 -0.04875535 0.049595665
000080 b3 9b 05 bd bf ad 8b 3d 46 5f aa 3d d2 a8 c0 3d
       -0.03261919 0.06820249 0.08318953 0.094072
000090 9d da da 3c e4 c5 78 bd eb 10 d6 bc d9 c4 3e 3d
       0.026715571 -0.0607356 -0.026131114 0.046574447
0000a0 35 52 b7 3d 2c 11 41 3d b8 1b 68 3d d9 99 fa 3c
       0.089512266 0.047135517 0.05666706 0.030590938
0000b0 ac 21 56 bd 78 73 f4 bc 5b 1d 42 3c a7 5b 5e bd
       -0.052278206 -0.029840216 0.011847819 -0.054286625
0000c0 3d 68 ef bc dd 92 a9 bc b2 ac 30 bd d2 3c b0 bd
       -0.02922451 -0.020699913 -0.043133445 -0.086053506
0000d0 c1 97 33 3d d6 74 64 bd c8 0d 7c bc a9 8d 55 3c
       0.043845896 -0.055775486 -0.015384145 0.013034263
0000e0 72 d2 f8 bc 6c 88 e0 bd 99 25 b4 bc 66 30 b8 bd
       -0.030373786 -0.109635204 -0.021990584 -0.08993606
0000f0 9f d0 67 3d af ff 7e bd 18 a3 29 3c 9b 33 d7 3d
       0.05659544 -0.062255558 0.010353826 0.1050789
000100 b5 c8 50 bd db c8 3e 3c 83 ca 48 3c 7a 94 29 bc
       -0.05097266 0.011644567 0.012255314 -0.010350341
000110 53 95 22 be b1 cb ec 3c 18 f2 b3 bc 84 f4 20 3d
       -0.15877275 0.028905721 -0.021966025 0.03929569
000120 44 2c 74 3d 5f f9 c3 3d 6c 3d f1 3d 45 91 a7 bd
       0.059612527 0.09569048 0.117792934 -0.08182005
000130 be a6 05 3d 09 be a3 bc fc 80 48 3b 55 d6 07 3d
       0.03262972 -0.019988077 0.0030594459 0.033163387
000140 f5 65 8b 3d 64 cf 04 3e 80 08 43 bc 4c 36 73 3c
       0.06806556 0.12969738 -0.011903882 0.014844488
000150 21 e9 8d bd 1a cb 25 3d b9 44 67 3d 8f b5 7e bd
       -0.069292314 0.040476896 0.056462023 -0.062184867
000160 c7 81 f7 ba 16 e1 c3 bd 99 3a 53 3c c9 07 2a 3c
       -0.0018883281 -0.09564416 0.012892389 0.010377833
000170 48 5d 79 3d 08 85 37 bc fa cc 9a 3d 00 3c 6b bd
       0.060879976 -0.011201151 0.075586274 -0.057430267
000180 2f 65 f4 bc d5 ab ac bd 75 87 3a bd 94 6f 6b bd
       -0.029833404 -0.08431212 -0.04553934 -0.057479456

mlp2.0.weight f4 [100, 100]
000000 a3 6f 94 3c ea 05 b0 3c 49 2e e4 bb d0 13 82 3c
       0.018119639 0.021487195 -0.0069635254 0.015878588
000010 cd 88 c3 3d c2 e6 b6 bd e8 1f 90 bd 81 24 b7 bd
       0.09547577 -0.08930732 -0.07037336 -0.089425094
000020 d8 dc e3 3d da eb 14 3e c0 b4 bb 3c 82 7d a6 3d
       0.11126107 0.14543095 0.022913337 0.081294075
000030 0a f7 8a 3c 86 17 ef bc 00 72 38 3d bd 8a bf bd
       0.0169635 -0.029186022 0.045030594 -0.09352634
000040 fe e4 96 bc 57 c7 a0 bd 29 ec 52 bd 36 3d 23 be
       -0.018419739 -0.07850521 -0.05149475 -0.15941319
000050 27 de 22 be 20 b4 ad bd 38 5d cc 3d 1b 5c 8a 3c
       -0.15905057 -0.08481622 0.099787176 0.016889622
000060 a3 37 9f 3d 9d 57 c9 bd e7 7b 9a bd 6d 9e c0 3d
       0.07774284 -0.09831164 -0.07543164 0.09405217
000070 f8 5e 07 3e 46 2d 0c bc fa c7 a0 bd 3a a2 c3 3d
       0.13219821 -0.008555716 -0.078506425 0.09552427
000080 40 51 e6 3b e1 80 b6 bd d6 2b 88 3b 9c 97 71 3b
       0.0070287287 -0.089113005 0.0041556163 0.0036864048
000090 76 f8 d3 3d ae 1a c3 3d b9 85 a3 3c ae 6b 89 bd
       0.103501245 0.09526573 0.019961225 -0.067099914
0000a0 fc 16 5f bd ed b6 8d 3d 75 4b a6 3d e6 58 8a bb
       -0.05446528 0.06919656 0.08119861 -0.0042220233
0000b0 46 d2 09 3c fa 48 e1 bc a1 20 30 bd 48 cb d7 bd
       0.0084119495 -0.027500618 -0.042999867 -0.1053682
0000c0 0f 1f 11 bd 62 3b 27 bd a3 04 f6 3c 85 c6 a7 bd
       -0.03543001 -0.040828116 0.030031508 -0.081921615
0000d0 15 df c0 3d 0d d9 6b 3d 4c a0 aa 3d 69 19 35 3d
       0.094175495 0.057580043 0.083313555 0.044213686
0000e0 66 4d 0e bc 40 bd 12 3c e5 7c e1 bc 40 4e af bc
       -0.008685445 0.0089562535 -0.027525375 -0.021399617
0000f0 dd 39 09 be e2 b1 99 bd 8f 70 fe 3c a0 bb 01 be
       -0.1340098 -0.075046316 0.031059531 -0.1266923
000100 8e 7d 8e 3d 74 e3 8e bc ff 64 36 bc 88 a3 3b bd
       0.069575414 -0.017442442 -0.011132478 -0.045810252
000110 84 51 1f be b6 4b bd bc ef 18 b8 bd b8 ba 4d 3d
       -0.1555844 -0.02310739 -0.08989131 0.050226897
000120 d7 61 b0 bc b0 99 9a bd 61 f2 e0 3d 75 c1 af bd
       -0.021531029 -0.07548845 0.1098373 -0.08581821
000130 7f 94 6b 3d 78 a2 75 3d e4 a6 71 3d 1e 0a d3 bc
       0.057514664 0.059969395 0.05899705 -0.02576166
000140 d1 1e d4 bc a9 c7 a8 3c 58 71 03 3d 11 b0 0f bd
       -0.0258936 0.020603018 0.032090515 -0.03508002
000150 96 63 a4 3d 15 a1 df 3d f5 52 71 3d 71 ff 8a 3d
       0.08026807 0.10919396 0.058917005 0.06787003
000160 ba d1 c0 3d e8 1b cc bd 71 a4 b3 3c 89 c0 2a 3d
       0.09415002 -0.0996626 0.021928998 0.041687522
000170 34 4e 47 3c 6b 7a 28 bd 76 fe fb 3d da fc 79 3d
       0.012164641 -0.041132372 0.12304394 0.061032154
000180 5e 23 90 bd f2 a3 f7 3c 1b 7a 35 bd d4 b2 fc bd
       -0.07037996 0.030229542 -0.044305902 -0.12338796
000190 78 01 90 bc b8 2c c5 3c a1 98 9c 3c 1c fc e6 bd
       -0.017578825 0.024069175 0.019115748 -0.11278555
0001a0 f1 95 5a 3d 02 5f 80 bd 90 99 ef 3d 47 3a c1 bd
       0.05336565 -0.06268121 0.116992116 -0.09434944
0001b0 a4 bf 59 bd bf 51 41 3d aa 1e 84 bc 53 9c 51 3d
       -0.05316128 0.0471971 -0.016127903 0.051174473
0001c0 02 8a 41 bd d4 55 7e bd b7 f4 57 bc fb 7e 5e bd
       -0.047250755 -0.06209357 -0.013180903 -0.054320317
0001d0 84 e4 89 3c 26 5b 21 3c cb 4e 2c bc 7c b5 19 be
       0.016832598 0.009848392 -0.010516833 -0.15010637
0001e0 11 ea 97 bd e5 c3 6e 3c 26 ba de ba 94 13 09 be
       -0.074176915 0.014573072 -0.0016992732 -0.13386375
0001f0 fe 6e 87 3d ca e4 eb 3d 19 50 b0 bc 44 f8 96 3d
       0.06612967 0.115182474 -0.021522569 0.07371572
000200 e2 82 e2 3d 10 ba 95 bd f1 5f b5 bc a2 c2 bc 3d
       0.1106012 -0.07310879 -0.022140475 0.09216811
000210 ff 56 b0 bc 5a c5 83 3d 8b 60 26 3e 46 f5 01 bd
       -0.021525858 0.06434126 0.16247766 -0.03172805
000220 ca c5 62 3d 5e 4e 65 bc cc c6 c7 bd aa 44 a5 3d
       0.055364408 -0.013995735 -0.09754714 0.08069737
000230 2b 8d 0e 3e 96 6c 93 bd 9e 98 04 3e 49 fc 9f 3d
       0.13921039 -0.071984455 0.12948844 0.078117914
000240 51 84 d7 3d a9 47 49 bc e2 39 c7 3d 3e ec be 3d
       0.10523284 -0.0122851515 0.09727837 0.09322403
000250 32 94 b6 3d 7f ba a0 3d 76 52 b5 bb a1 50 b8 bd
       0.08914985 0.07848071 -0.0055335118 -0.08999754
000260 e0 93 90 bd 77 f0 8f 3d dc d2 08 bd a8 38 67 3d
       -0.07059455 0.07028287 -0.033404216 0.056450516
000270 ff f3 05 3d ce 97 e0 bc 89 41 9f 3d 33 b1 42 bd
       0.032703396 -0.027416136 0.07776172 -0.04753227
000280 98 39 0a bd 43 b7 ec 3a b5 87 8a bc e4 ca 40 bd
       -0.033746332 0.0018059987 -0.016910413 -0.04706849
000290 5a fa 57 3d a0 f7 36 bd 01 61 c8 bd 61 c7 de 3d
       0.05272899 -0.044669747 -0.09784127 0.10877872
0002a0 ef 78 56 bd 5f 1c 67 3d f1 c5 3c bd 76 65 4b 3b
       -0.052361425 0.05642354 -0.04608721 0.0031035817
0002b0 24 7b c0 bd a8 4d 7a 3d e2 f6 ae 3d aa e7 ec 3c
       -0.09398487 0.061109215 0.08543183 0.02891906
0002c0 1c 5d 54 bd 41 c7 34 3d 93 da a1 3c dd 5f 17 bd
       -0.05184661 0.044135336 0.019757545 -0.036956657
0002d0 ed cf f6 3d a9 4d aa 3c 07 46 69 bc 8c aa 25 3c
       0.120513774 0.020788984 -0.014237887 0.010111462
0002e0 a2 00 86 3d cf c8 88 bd 0e 51 b4 3c de 64 1a bd
       0.065430894 -0.06678926 0.022011306 -0.03769385
0002f0 e3 4f 1f 3d 6a 87 e4 3c 14 d4 b9 bd 73 f5 eb 3d
       0.038894545 0.027896602 -0.09073654 0.11521425
000300 2f 8b f1 bd 43 24 85 3d 1d c0 9b bb 97 c1 81 bd
       -0.11794125 0.06501057 -0.0047531263 -0.063357525
000310 61 72 f4 3b 7e 69 f2 bd 26 bb 5d bd 55 e9 27 bd
       0.007459924 -0.11836527 -0.054133557 -0.040994007
000320 d7 ea bc 3b 21 93 b2 3d 16 64 23 3d d3 e5 8e bd
       0.0057653 0.08719469 0.03989037 -0.06977429
000330 fa 8c 12 3d 47 1e a6 bd f0 b9 46 bc 6e 71 46 bd
       0.035778977 -0.08111244 -0.012129292 -0.04844802
000340 96 a3 3d bd 33 d7 9e b9 e9 4a 8d 3d de e4 31 bd
       -0.046298586 -0.00030296444 0.068990536 -0.043431155
000350 c4 95 be 3d 9d 38 6a bd 9b d7 51 3c bc d4 8c bd
       0.09305909 -0.057182897 0.012807752 -0.06876513
000360 b6 ba b6 bd 43 5a 06 3d 4e f7 81 bc 0a 5a 44 3d
       -0.08922331 0.032800924 -0.015864994 0.04793743
000370 78 d0 92 3d 8e d2 53 bd fe 16 77 bd 58 36 8d 3d
       0.071686685 -0.051714472 -0.06032466 0.06895131
000380 7e b2 d0 3d 6e 77 8e bd fd 3b 11 bd 54 ee 75 3d
       0.10190295 -0.06956373 -0.0354576 0.06004174
000390 95 ac c8 3d ea a6 10 bd b8 db 26 3d 0b 2d 83 3d
       0.097985424 -0.03531543 0.040736884 0.06405076
0003a0 5f fb 81 bd ba 58 4f 3d c6 2f 3d 3d 0f d9 a8 3d
       -0.06346773 0.050621726 0.04618814 0.08244526
0003b0 09 f5 48 3b ee c0 5a bd 0e 9d bd bd 5d ea f6 bc
       0.003066363 -0.05340665 -0.092584714 -0.03014105
0003c0 d3 8d 61 3d ea ad b8 bd 07 bf d3 3d 3f e4 1d 3c
       0.055066895 -0.090175465 0.1033917 0.009636938
0003d0 43 6d ab 3b 8b a5 9c bb f5 42 af 3c 77 b0 a9 bd
       0.005231531 -0.0047804764 0.021394232 -0.08285611
0003e0 db ab 90 bd 52 86 56 bd 61 c9 dd bd 0e 73 03 3d
       -0.07064029 -0.05237419 -0.108294256 0.032092147
0003f0 71 8e 75 bd e8 5f 07 3d cc 56 74 bb 7f 11 87 3d
       -0.059950296 0.033050448 -0.003728318 0.06595134

mlp2.0.bias f4 [100]
000000 ee e3 d3 bc e5 6c d0 bc 23 c4 f0 3d e6 b8 f7 3d
       -0.025865521 -0.02544255 0.1175616 0.120958135
000010 59 4b f4 3c ad 71 93 3c df f8 d2 bd dd b1 9d bd
       0.029821085 0.01799854 -0.10301375 -0.0769994
000020 a4 63 1c 3d c0 38 9d 3d 86 38 0e bd a6 70 21 bd
       0.038180962 0.0767684 -0.034721874 -0.03941407
000030 22 18 85 3d 79 af 65 3d 06 98 a2 3d b4 ca a7 3c
       0.064987436 0.056075547 0.079391524 0.020482399
000040 e8 bb 96 3b 50 5c c4 bd e5 f4 87 bd 41 70 26 bc
       0.004600037 -0.0958792 -0.06638507 -0.010158599
000050 7b 07 a9 3d f6 27 d6 bc 17 1f 17 bd e0 18 c9 3c
       0.0825338 -0.026142102 -0.036894884 0.024547994
000060 4f 7c 6d 3d 34 ef ad bb 1d 35 a7 bd cb 73 46 3d
       0.057979878 -0.0053080563 -0.081644274 0.048450273
000070 c1 ad 07 3d 8e 97 7d bd 51 99 2a bd 38 88 b7 3d
       0.03312469 -0.061912112 -0.04165012 0.089615285
000080 f8 c1 40 3d c6 8a dd 3c 61 4f ca bd e1 18 0c 3d
       0.047059983 0.027043711 -0.098784216 0.034203414
000090 ed 37 74 bd 0a a8 2e bd 6f 88 ba bd f5 41 26 3d
       -0.059623647 -0.042640723 -0.09108054 0.040590245
0000a0 fd b7 37 bd 58 bc 88 bd c0 7c 28 3d a2 b4 dc 3b
       -0.0448532 -0.06676549 0.041134596 0.0067354003
0000b0 ed d0 7e 3d f3 66 ae 3c d8 18 d2 3d 03 d8 d3 bd
       0.062210966 0.021289324 0.10258645 -0.10343935
0000c0 8d aa a1 bc b0 fa 03 bd 46 53 91 bd df 29 07 bd
       -0.019734645 -0.032221496 -0.07095961 -0.032998916
0000d0 08 63 2a 3e 8e 82 99 bd 4f b6 61 bd 8c 72 34 bd
       0.1663934 -0.074956045 -0.055105504 -0.044054553
0000e0 13 4c 7a bd 51 7d bf 3d a7 2b 31 bd 0b d9 17 bd
       -0.061107706 0.09350074 -0.04325452 -0.037072223
0000f0 d8 47 cc bd cf e7 a8 bc 17 7a e8 3d 91 93 3e bd
       -0.099746406 -0.020618347 0.11351412 -0.04652745
000100 00 31 97 3d de ae 2d 3d 22 3f a8 3d d4 c9 03 3e
       0.07382393 0.042403094 0.08215167 0.1286996
000110 c0 09 1a 3d 2b 49 93 bd 00 a5 17 bc 03 86 89 3d
       0.037606955 -0.0719169 -0.009255648 0.06715014
000120 3e 22 ef 3c 49 f4 54 bd c1 c6 2a bd af ee 8d 3c
       0.029191133 -0.05199078 -0.041693453 0.017325727
000130 4e c0 eb 3d 50 c7 14 3d db e4 7d bd 7b 48 b3 3d
       0.115112886 0.03632289 -0.06198583 0.08754059
000140 95 ed ac bc 1c 19 f3 bb 37 f3 86 3d 78 5b ee 3c
       -0.021109382 -0.0074187648 0.06589358 0.02909635
000150 4d 6f 42 bd 46 97 10 3c 33 99 17 bd 00 d7 b5 bd
       -0.047469426 0.008825129 -0.037011337 -0.088788986
000160 7b 30 81 3d 82 6e 08 3e cc ec 14 bd ae 36 1c 3d
       0.06308075 0.13323405 -0.03635864 0.038138084
000170 d4 17 71 bd 03 20 b7 bc 19 b8 8d 3d 0e 45 72 3d
       -0.058860615 -0.022354132 0.069198795 0.059147887
000180 29 35 97 bb 7e 9f 5d 3d e2 9f 2a 3d 62 f5 84 3d
       -0.0046144915 0.05410718 0.041656382 0.064921156

mlp2.2.weight f4 [50, 100]
000000 45 c9 49 3d b2 bd 0f bd c3 5f 36 3c 0c 39 8c 3d
       0.04926421 -0.035093017 0.01113123 0.06846818
000010 07 23 36 bd dc d6 9d bd f1 b4 ab 3d 7e c8 92 3d
       -0.044467 -0.07706997 0.08384121 0.07167147
000020 1f 3d 5f bd 02 46 ad bd f9 a8 f3 bc bd ad 51 bd
       -0.05450165 -0.084606186 -0.029743658 -0.05119108
000030 58 c1 14 3d 61 40 75 bd 04 63 22 bd 85 61 71 bd
       0.0363172 -0.05987585 -0.03964521 -0.058930892
000040 9f 59 ba bb 8d 02 f5 bc 5f 4b 48 bd 07 84 a7 bc
       -0.005686953 -0.029908443 -0.048900004 -0.020448698
000050 eb 8f ba 3d 2f 75 06 3d 14 0c 43 3d fe 14 90 bd
       0.091094814 0.0328266 0.04761894 -0.07035254
000060 98 a1 77 3c a4 73 9b 3b 5a 5e 82 3d 9f 52 c1 bd
       0.015114211 0.00474401 0.063656524 -0.09439587
000070 b0 95 76 bd 0f f0 0e bd 3e 0a 09 bd b3 16 f4 bb
       -0.060201347 -0.034896906 -0.033457033 -0.007448995
000080 af 16 75 bd af 7d cc bc d4 f9 0c 3d d8 01 9d 3d
       -0.059836086 -0.024962274 0.034417942 0.07666367
000090 33 1e 86 bd 1b 5e b4 3c 42 58 b8 3a e3 32 15 3d
       -0.06548729 0.02201753 0.0014064389 0.036425482
0000a0 7a 89 2a bc f4 9a bd bd fd 54 e6 bb 6a ac d7 bc
       -0.0104087535 -0.092580706 -0.0070291744 -0.02632733
0000b0 6b 6c 2d bd 23 3b 0c 3d 2d 45 c1 bd 40 a5 cd 3c
       -0.042339724 0.034236085 -0.09437022 0.025103211
0000c0 5f 7b 21 bd fc 48 ca 3d a4 35 90 bd 6f 2a 4b 3d
       -0.039424296 0.09877202 -0.07041481 0.049601015
0000d0 6d 6b 1c be 36 60 89 3d 9b 1c b8 bc cc 53 c3 bd
       -0.15275355 0.06707804 -0.022474578 -0.09537467
0000e0 05 d3 aa 3d dd 99 6e bd 35 ed 91 3d a0 d0 0a bd
       0.0834103 -0.058252204 0.07125322 -0.033890367
0000f0 f5 1b 77 3d e8 1f 06 3b 57 c4 bf 3d 96 4f 7f bd
       0.060329396 0.0020465795 0.09363621 -0.06233176
000100 b6 03 22 3d e3 84 a9 3d 06 6c 7e 3d f9 85 6b 3d
       0.03955432 0.08277299 0.062114738 0.057500813
000110 4f e6 00 bd ee 56 43 3d b0 3d 3b 3c 4d 06 b2 bd
       -0.03146964 0.047690324 0.011428282 -0.08692608
000120 71 83 8e bd a8 f9 99 bd 07 e0 89 bc 7d 4a a1 3d
       -0.06958664 -0.07518321 -0.016830457 0.07875536
000130 65 0c ab bc b3 c4 73 3d 2c 74 7e 3d 94 59 64 3d
       -0.020879934 0.05951376 0.06212251 0.05574949
000140 e3 6f db 3c 82 28 b2 3d 9b b2 14 3d cf 3e 53 3d
       0.02678675 0.086991325 0.036303144 0.05157357
000150 3f 2a ac bd 8f 9c 27 bc 96 e5 4c 3d 30 4b 36 bd
       -0.08406495 -0.010230198 0.050023638 -0.0445053
000160 5b c1 ee bc e0 9e f0 bd ba a5 4f 3d ad af a5 bc
       -0.029144933 -0.11749053 0.05069516 -0.02022537
000170 b1 67 56 bd aa 91 68 bd a2 07 38 bd 4a fc a4 3d
       -0.05234498 -0.05677954 -0.044929154 0.08055933
000180 36 d0 04 3d 14 b6 2d 3c 83 6f ce 3d 51 05 bf bc
       0.032425128 0.010602493 0.10079863 -0.023317965
000190 dc d3 fa 3d 8d bd 6d bd 06 a9 4c 3d ec d0 c0 3d
       0.1224744 -0.058042098 0.04996588 0.09414849
0001a0 83 e1 bd bc 3b ed 8b bd 63 ce 45 3d 81 37 5e bd
       -0.023178821 -0.068323575 0.04829253 -0.05425215
0001b0 fd bf aa 3b df c2 ab 3d e2 7c 98 3d 8a 2c ca 3d
       0.005210875 0.08386778 0.074456945 0.098717764
0001c0 64 4f df bd 3b f0 9e 39 70 5e bd bd 78 c5 7f bd
       -0.109038144 0.00030315094 -0.09246528 -0.06244418
0001d0 ea 5f bd 3d 47 88 cc bd 2e 64 9f 3d a2 e8 25 3d
       0.0924681 -0.0998693 0.0778278 0.04050506
0001e0 8c 4a 1d 3b 03 b2 c3 3d 63 27 18 bd ee 8d e8 bd
       0.0024000732 0.095554374 -0.037146937 -0.11355196
0001f0 d2 1c 52 bd 0e 0d 9e bd 64 72 21 bd 19 03 f8 bc
       -0.051297016 -0.07717334 -0.039415732 -0.030274915
000200 eb af 62 3d 47 b0 22 3d 6c d7 47 bd 3a 17 88 bc
       0.05534355 0.039718892 -0.048789427 -0.016612638
000210 32 5e 86 bd 6f f6 1a 3e 93 f1 99 3d f5 67 1f bd
       -0.06560935 0.1513307 0.0751678 -0.0389175
000220 6e dd e2 bd 31 91 17 3d ba 12 8e 3d f5 d1 a4 3d
       -0.110773906 0.0370037 0.069371656 0.080478586
000230 ec 73 af b9 59 42 42 3d ce 57 7e bb 82 bd db bd
       -0.0003346497 0.047426555 -0.003880966 -0.10729505
000240 ca ab ae 3c d0 74 1b be ed d2 c5 3d 1e e9 a1 bc
       0.02132215 -0.15181279 0.096593715 -0.01976448
000250 71 2e 8d 3d df a8 ec bc 00 32 8a 3d c2 2f 08 3d
       0.068936236 -0.028889118 0.06747818 0.03324867
000260 07 39 f3 3d b5 b8 bf bd 8d 6d 0c bd 0e 3d e4 bc
       0.118761115 -0.09361402 -0.034284163 -0.027861144
000270 d2 f1 c4 bd 02 91 e2 bc 86 f0 15 3e e6 0e ff bb
       -0.09616436 -0.027657036 0.14642534 -0.0077837585
000280 6d 76 fa bd 9a 82 a1 3c c0 42 73 3d e7 84 7a bd
       -0.12229619 0.019715596 0.05938983 -0.0611619
000290 92 2e 9a 3c 3e b8 70 3d c7 c9 99 bd d2 b6 11 be
       0.018821035 0.058769457 -0.07509189 -0.14229897
0002a0 d6 9a 06 bc 90 da 2a bc 69 c1 a5 3d e1 96 5e 3d
       -0.008215627 -0.010428086 0.08093531 0.054343108
0002b0 bf ec 80 bd b2 b3 de bd 43 51 a7 3d 76 e6 05 bd
       -0.06295156 -0.10874118 0.08169796 -0.032690488
0002c0 9a 2b ed bd 75 4b c4 3d 2e 07 b9 bd 65 ac f2 3c
       -0.11580582 0.09584705 -0.090345725 0.02962322
0002d0 29 7a 9d 3d 7c 31 10 be af 0b c3 bd af c9 06 3c
       0.07689316 -0.14081377 -0.09523713 0.008226796
0002e0 6b 21 6c bd 46 48 eb 3c 0e 54 aa bd 4a 1d ad 3d
       -0.057649057 0.028720986 -0.083168134 0.08452852
0002f0 90 6a e7 bd 37 e5 6a bd 2b ef 25 be c2 5e c7 3d
       -0.11299622 -0.057347503 -0.16204517 0.097348705
000300 28 24 95 bd 6e 71 d0 bd 17 1b ff bd 66 90 7f 3d
       -0.07282287 -0.10177885 -0.12456339 0.06239357
000310 38 e2 3a bd aa 09 94 bd 40 89 55 bd 4a fe bf bc
       -0.045625895 -0.07228406 -0.052132845 -0.023436684
000320 fe 8f 7e 3d 8f f4 a5 3d 15 f7 a6 3c df bc 13 3e
       0.06214904 0.081032865 0.02038149 0.14427517
000330 19 f7 df bd 35 d0 92 3c 31 28 ab bc ce 91 24 3d
       -0.10935802 0.017921546 -0.020893188 0.040178113
000340 6e 33 5e bd a4 13 3a be 24 5d 2e 3c ab 95 8a 3d
       -0.054248266 -0.18171555 0.010642324 0.06766828
000350 d3 84 e6 bc 3f f4 9e 3d 59 61 1e bd 0e 92 2a 3d
       -0.028139507 0.0776143 -0.038667057 0.041643195
000360 56 ac 9c 3d 70 c7 2c bd fe d2 3b 3c 27 35 7a bd
       0.07650058 -0.042182386 0.011463879 -0.061085846
000370 88 93 96 3d d2 4e 3d 3c 6b 17 ad bd 83 f7 2c bd
       0.07352358 0.011554437 -0.08451732 -0.042228233
000380 5c 78 c8 ba 94 28 d5 3d ca 85 9f bd 4a 40 c7 3d
       -0.0015294659 0.1040813 -0.0778919 0.09729059
000390 54 ff 13 bc 10 c6 31 3d 25 0e 02 3d fe 38 50 bc
       -0.009033043 0.043401778 0.03175177 -0.0127089005
0003a0 a3 14 96 bd bb f9 27 3d 8c b8 de 3d b9 0e 91 3d
       -0.07328155 0.041009646 0.10875043 0.07082886
0003b0 de c0 d5 bd 00 da 7f 3c f2 34 db ba 9d b7 a8 3d
       -0.10437177 0.01561594 -0.0016724153 0.082381465
0003c0 5a 69 64 3c 47 c8 28 3a 07 50 0b 3d 22 59 db 3d
       0.013941133 0.0006438535 0.034011867 0.1071036
0003d0 5a 06 64 bd c5 3a ca bd 98 a8 b2 3d fd 14 66 bd
       -0.05567012 -0.09874491 0.08723563 -0.05617236
0003e0 fe 38 f1 bb 41 6f 03 bd ba e0 94 bc cf ec 01 be
       -0.0073615303 -0.032088522 -0.018173564 -0.12687992
0003f0 66 18 98 bd bb 1f 0a 3d ca 7b 17 3d 1c 86 c3 bd
       -0.07426529 0.033721667 0.03698329 -0.09547064

mlp2.2.bias f4 [50]
000000 4c cb ec 3c 68 87 c6 3d c6 62 b8 3d bf b2 86 3d
       0.028905533 0.096937954 0.090032145 0.06577062
000010 5a 71 b4 3c eb 3c e0 3d 3f 14 a3 bd 98 5c e1 ba
       0.022026706 0.10949119 -0.07962846 -0.0017193733
000020 20 d5 44 bd 95 fc dd bd 99 69 9c 3c c3 e0 67 bd
       -0.048054814 -0.10839192 0.019093322 -0.056610834
000030 1d f3 93 3d 27 03 c3 bd a5 56 e4 3c 8a b1 d3 3d
       0.072241046 -0.09522086 0.027873347 0.10336597
000040 e0 ff ca 3c 9b 64 13 bd 58 a9 4d 3d c9 12 f5 bc
       0.024780214 -0.035984617 0.050210327 -0.029916184
000050 1f a6 83 bd b1 01 9d bd 23 36 ef 3d 0b 4d ab 3c
       -0.064281695 -0.07666338 0.11680248 0.02091076
000060 64 0e b9 bc 63 0e 64 bd 3c de f4 bd c7 c2 43 bd
       -0.02258987 -0.055677783 -0.1195645 -0.047793176
000070 c8 eb f7 3d e6 ea 18 bb 7a 3f 8d 3d d8 3b e1 bd
       0.121055186 -0.002333337 0.06896873 -0.109977424
000080 01 f2 a0 3d 51 76 a1 3d b7 b0 93 3c 1f 42 ba 3d
       0.078586586 0.07883895 0.0180286 0.09094643
000090 d0 39 b7 3d 6c 39 53 3c 80 53 3a 3d 9d fb 16 bd
       0.08946574 0.012892108 0.045489788 -0.03686105
0000a0 58 72 7e 3d ec dc 80 3d 3f 2f 16 bd 54 13 9a bd
       0.062120765 0.062921375 -0.03666615 -0.07523218
0000b0 35 ff 48 3d 2d a9 bd bc 54 c9 c4 bc 00 74 b5 bc
       0.04907151 -0.023151958 -0.024021782 -0.02215004
0000c0 94 38 b1 bd 63 12 a3 bd
       -0.086533695 -0.07962491

attention.0.weight f4 [100, 100]
000000 ef 0d b1 bc 64 97 05 3d 0e e9 92 3d a5 52 5a 3c
       -0.02161309 0.03261508 0.07173358 0.013325368
000010 d5 11 6c bd b9 f5 32 bc e0 3d a6 bd 43 36 7b 3d
       -0.057634193 -0.010922843 -0.081172705 0.061331045
000020 98 65 c1 bd 23 e7 87 bc 20 17 3d bd d1 ed 4a bd
       -0.094432056 -0.016589707 -0.04616463 -0.049543206
000030 90 d1 84 bd 83 0e 4e bd 40 2d 92 3c 08 e9 5e bb
       -0.064852834 -0.05030681 0.017843843 -0.003401341
000040 e2 8b 6f 3d 18 d4 36 bd 60 1a dd bc 6a 34 47 bd
       0.058483012 -0.044635862 -0.026990116 -0.04863397
000050 97 37 78 3d 3b bd c8 3d 3a 68 f5 bb f9 1e 81 3d
       0.06059989 0.09801718 -0.0074892314 0.06304736
000060 f3 13 4e 3d 15 11 57 bd 66 c5 3f 3d 73 6e c4 3d
       0.050311994 -0.052506525 0.046819113 0.09591379
000070 25 e2 40 bb ea 61 ad bd 06 7a b3 3a 06 12 89 bd
       -0.0029431668 -0.08465941 0.0013692982 -0.06692891
000080 89 5d 81 bd 08 1f bd 3d 66 e1 b8 bd 38 f3 00 bd
       -0.063166685 0.09234434 -0.09027366 -0.03148195
000090 f5 3a 18 bd 00 2d 90 38 00 1f 5d bb 0a 77 0b bd
       -0.0371656 6.874837e-05 -0.0033740401 -0.03404907
0000a0 a5 0e 85 bc 30 a0 ba bd bb 71 99 bd 59 c3 21 bd
       -0.016242335 -0.091125846 -0.074923955 -0.03949294
0000b0 45 19 59 bd 91 8b c9 bd c5 9b 0a bb 29 86 bb bd
       -0.053002615 -0.09841073 -0.0021149975 -0.091564484
0000c0 c0 40 81 bd ea a2 fe bc 6b b9 cb 3d fe 6e a0 3d
       -0.06311178 -0.031083543 0.09947475 0.0783367
0000d0 85 12 b2 3d fb c3 48 bd 61 fa 88 3d 18 e5 f1 bc
       0.086949386 -0.049015027 0.06688381 -0.029528186
0000e0 8c 77 0c 3b 0b 5b a8 3d 09 bf 95 bd ec e7 51 bd
       0.002143356 0.0822049 -0.07311828 -0.05124657
0000f0 ed 4a 3d 3d 0f 37 0d bc 65 96 c1 3c b3 39 1e bd
       0.046214033 -0.008619084 0.023631284 -0.038629245
000100 ad 61 97 3d 36 76 9b 3d ef 2f fb bc 2b 1c 62 bd
       0.07391677 0.07590906 -0.030662505 -0.055202644
000110 d8 c6 ef bb 4c cf 4a bd c6 1f 01 3d 48 77 a5 bd
       -0.007317405 -0.0495141 0.031524442 -0.08079392
000120 b2 37 b7 bd b3 a2 88 bc 90 94 5f 3d c1 58 b6 bd
       -0.0894617 -0.016679144 0.05458504 -0.08903647
000130 53 8f 37 bc 28 e9 2a 3d a4 2d d3 3c 2e c6 c7 bc
       -0.011203605 0.04172626 0.0257786 -0.024386492
000140 bf 52 66 bd 90 78 cb 3d ed d4 99 3d c2 9d 81 3d
       -0.056231257 0.09935105 0.075113155 0.06328918
000150 47 4d 8f bd c7 f9 ac 3c 9d bb ca bd 03 73 f7 3b
       -0.06997161 0.021115197 -0.09899066 0.0075515523
000160 61 5f fa 3c 98 67 be 3d df 76 e4 b9 5d 7d 89 3c
       0.030563058 0.09297103 -0.00043576115 0.01678341
000170 09 05 ac 3d bc 0d 35 3d 11 ad 22 bc 11 04 5b 3d
       0.08399398 0.04420255 -0.009928958 0.053470675
000180 81 b8 26 bd ce b5 a8 3d 91 98 9d 3d ae f6 f4 3c
       -0.0407033 0.082378015 0.07695115 0.029902782
000190 2d 52 29 bd 1d 3f 84 bc 6a a2 c5 3d cf dd 63 3d
       -0.041338135 -0.016143376 0.09650119 0.055631455
0001a0 63 87 c2 bd e6 f0 1f 3c dd 04 93 bd 7e e0 7e 3d
       -0.09498479 0.0097620245 -0.07178662 0.06222581
0001b0 76 e5 5e bb d2 dc 63 bd 1c 25 be bb 77 f0 9d 3d
       -0.003401128 -0.055630513 -0.0058027636 0.07711881
0001c0 8f bf c9 bd 39 90 2f 3b 3a af 3f 3d 4a 36 95 3d
       -0.0985099 0.0026788844 0.04679797 0.072857454
0001d0 85 3d b5 bd 93 7e 69 bd 14 58 8f 3d f6 98 20 3c
       -0.088496245 -0.057005476 0.069992214 0.009802094
0001e0 48 c0 7e 3c 4b eb 61 3d 18 01 b2 bd 49 a8 d0 bd
       0.015548773 0.055156033 -0.08691615 -0.10188348
0001f0 69 cd 3d bc 3b 90 a4 3a bc 6b 7d bd 82 ed a1 bd
       -0.011584618 0.0012555191 -0.06187032 -0.07906629
000200 dc a8 9e 3c bc 05 48 bb 2e 12 bb 3d 67 29 7b b9
       0.019367628 -0.0030520996 0.09134327 -0.00023952649
000210 f4 cb 06 b9 69 63 18 bc 57 c1 95 3d 14 21 aa 3d
       -0.00012855214 -0.009301045 0.07312267 0.083070904
000220 f2 4a ee 3c 15 92 9a 3d 29 07 ad bd 5c ac d9 bc
       0.029088471 0.07547394 -0.08448631 -0.026571445
000230 7a 7d 97 bc c3 ec bc 3d 25 84 35 bd 0a ad cc bc
       -0.01849245 0.09224846 -0.044315476 -0.024984855
000240 e2 de 68 bd 01 d3 ba 3d ff ec 05 3d 33 9f 96 3d
       -0.056853183 0.09122277 0.03269672 0.073545836
000250 1e f0 ac 3d a4 64 b3 3d a6 cf 0d bd cc 9b 30 3d
       0.08444236 0.0875943 -0.034621857 0.04311733
000260 aa 61 9d bd 45 a6 a8 bc f8 56 00 bc c4 f0 2a bd
       -0.076846436 -0.020587096 -0.007833235 -0.04173352
000270 34 e9 04 3d 98 a4 b0 3c 18 07 aa 3d 37 d1 95 3c
       0.032448962 0.02156286 0.08302134 0.018288238
000280 71 1e 58 3c 59 f1 0b bd 65 5e 14 3d 41 3a d1 3c
       0.013190852 -0.034165714 0.036222834 0.025540473
000290 4e 67 54 bd 96 68 90 3d b7 50 a4 3c c1 76 15 3d
       -0.05185633 0.07051198 0.02005802 0.036490206
0002a0 4b a9 fe bb be cb 89 bd 28 e1 0a 3d 59 40 88 bd
       -0.007771646 -0.06728314 0.033906132 -0.06652898
0002b0 14 00 9d bd bb bb de bc d4 59 e5 3c 12 ec 32 3d
       -0.076660305 -0.027189126 0.027996935 0.043682165
0002c0 86 c1 73 3d f5 2e 29 bd c2 70 25 3d b9 50 cb bd
       0.05951073 -0.041304547 0.040390737 -0.09927506
0002d0 08 b2 c8 3d 71 e6 f8 3c a6 98 a5 bd 69 f1 ae 3d
       0.09799582 0.03038332 -0.08085756 0.08542139
0002e0 68 ce 71 3d fa 82 9d bd 4b 3c 40 bc 53 1a 7e bb
       0.059034735 -0.076909974 -0.011733125 -0.0038773015
0002f0 46 cc 33 bd ab 3c 7b 3c d9 0d a1 bd aa 46 6a 3b
       -0.043895982 0.015334289 -0.07863969 0.0035747685
000300 2f a3 4b bd 5b d9 96 bd 0d af ff 3c a4 c0 cc bd
       -0.04971617 -0.07365676 0.0312114 -0.09997681
000310 5d 37 b3 3d 53 74 81 bd 27 36 8e bd 47 27 a5 bc
       0.08750794 -0.06321015 -0.069439225 -0.02016033
000320 a7 54 cb bb 37 2a 3b 3d c2 3b 9a 3d a7 4e bb bb
       -0.0062051597 0.045694556 0.07530929 -0.005716163
000330 38 f2 53 ba 35 ba 6d bd 91 9e 4a 3d c9 ba 88 bd
       -0.00080851046 -0.05803891 0.049467627 -0.066762514
000340 88 95 23 bd b9 6f 8e bd 86 2c 0d 3d d7 68 6c 3c
       -0.039937526 -0.06954903 0.03446629 0.014429293
000350 b4 81 8b bd 36 e8 dd bc 17 bb cb 3d fd d6 86 3d
       -0.06811848 -0.027088266 0.09947794 0.065839745
000360 47 d3 4a bd 02 6d 67 bd a0 ac be bd d6 cc 09 bd
       -0.049517896 -0.056500442 -0.09310269 -0.033642612
000370 40 23 c0 3c 07 6c 2e 3d 38 d8 9b bc ae 4a bd 3c
       0.023454309 0.04258349 -0.019024 0.0231069
000380 94 81 87 bc 92 eb 28 bd 54 58 b4 3d 3c fb ae bd
       -0.01654128 -0.041240282 0.0880591 -0.08544013
000390 6f 6c 00 bd 4d 94 60 3d 4e 05 67 3d 19 f1 f2 bb
       -0.03135341 0.05482893 0.056401543 -0.007413995
0003a0 19 16 26 3d e6 50 b7 3c 02 1c ca 3d e9 5b 89 bd
       0.040548418 0.022377443 0.09868623 -0.067069836
0003b0 16 57 f3 bc 3c 18 99 3d 50 ca 46 bd 11 96 80 bc
       -0.029704612 0.074753255 -0.048532784 -0.015696557
0003c0 68 d9 5e bd 09 dd 2b 3d 29 d1 92 3d f6 47 ef 3c
       -0.054406554 0.041958842 0.071688004 0.029209118
0003d0 cb 5b a4 3d fa 83 18 bd 9a c8 69 bd a6 7f a3 bc
       0.080253206 -0.037235238 -0.057076074 -0.019958328
0003e0 8d 58 b2 bd d0 22 36 bd be 67 71 bb 11 15 c5 bc
       -0.08708296 -0.044466794 -0.0036835517 -0.024057897
0003f0 5a 5a bc 3d 68 5e 79 bd 6e c0 14 3d d4 80 9a 3d
       0.09196921 -0.06088105 0.036316328 0.07544103

attention.0.bias f4 [100]
000000 6d 90 b7 bd ed 1f a2 3c e3 19 b8 bd 9e 3b 9e 3b
       -0.08963094 0.019790614 -0.089893125 0.0048288843
000010 f0 2b 69 bd 8e ed 32 3d 77 91 1d bd 82 56 c9 b8
       -0.056926668 0.04368358 -0.038468804 -9.60054e-05
000020 9b be 0a 3d 1a 1b af bc b3 40 2a 3d 1a 88 2b 3d
       0.03387318 -0.021375228 0.04156561 0.041877843
000030 5b 40 c9 3d ce bc 50 bd e5 c4 94 bc f1 7a 22 bd
       0.09826728 -0.05096131 -0.018160293 -0.039668027
000040 5e 61 7f 3d 55 aa 1a bd 23 13 9c bd 95 e0 62 bc
       0.062348716 -0.037760098 -0.076208375 -0.01384749
000050 cc 93 30 bc 09 93 e3 bd 43 82 38 bd 50 6c 96 3d
       -0.010777425 -0.11112029 -0.045046102 0.07344878
000060 38 f8 1e bb b3 e8 1d bc 49 59 c4 bd e3 b3 99 3d
       -0.0024256837 -0.009637999 -0.09587342 0.07505014
000070 ce a9 81 bd 49 e7 1b 3d 7e 5b c1 3d 0a 0c 4d 3d
       -0.06331216 0.038062368 0.09441279 0.05006031
000080 52 59 ae 3c 5b ac 7d bd 33 35 b3 3c 5e 69 7d bc
       0.021282826 -0.06193195 0.021875953 -0.015467016
000090 1b 88 a4 bc 0a 58 98 bb 3e 32 72 3d e8 e4 8a bb
       -0.020084431 -0.004649167 0.059129946 -0.0042387135
0000a0 65 c7 81 bd 0f 5b 64 bd c9 dc 80 bd 63 c4 a5 3d
       -0.063368596 -0.055750903 -0.062921114 0.080940984
0000b0 63 e4 40 3d 2d 31 5a bd 77 8f 55 3d 9b 51 96 bb
       0.047092807 -0.053269554 0.05213877 -0.004587365
0000c0 c2 60 cb bb 35 bb 73 3b 50 5c 18 3d b0 a1 d5 bb
       -0.006206603 0.0037190442 0.03719741 -0.006519519
0000d0 53 ea aa bc 72 3f 6c bd fa 5c e5 3c be 05 be bc
       -0.020863688 -0.057677694 0.027998436 -0.023196097
0000e0 70 91 09 3e 0f 22 d0 3d 1c d6 d5 3d 83 6f 08 3d
       0.13434386 0.10162746 0.10441229 0.03330947
0000f0 2c 9d 2a 3d 79 3b bd 3d 7c aa b3 bc 39 bd 61 3d
       0.041653797 0.09239859 -0.02193188 0.055112097
000100 d3 49 a7 bd 3a 83 92 3d 7c 69 3b 3c 52 b9 91 bc
       -0.08168378 0.07153936 0.011438724 -0.017788563
000110 da b4 28 3d 36 13 bf b9 41 62 43 3d b8 a4 af 3d
       0.0411881 -0.00036444672 0.047701124 0.085763395
000120 79 9a a4 bc 24 7c 84 3d d4 a0 e6 bb 5b 4a af bd
       -0.02009319 0.064689904 -0.007038215 -0.08559104
000130 23 4f 2a bc c4 20 89 bd a6 d8 c6 3d 87 7d 87 3c
       -0.010394844 -0.06695703 0.09709291 0.016539348
000140 23 b6 d2 bc 25 0a cc bd 89 08 94 3d 28 6a 67 bd
       -0.025721615 -0.099628724 0.072281905 -0.056497723
000150 65 4b 73 3b aa e9 5e 3c 0d 2c 99 3c fd fc b6 bd
       0.0037123796 0.013605515 0.018697763 -0.089349724
000160 31 a7 d1 3d c7 c6 a9 bd 6b 3e 8b 3a 76 24 0c 3d
       0.10236967 -0.08289867 0.001062346 0.03421446
000170 03 a0 fe bc 03 a2 2d bd c4 bc 02 3b 8c dc 8e bd
       -0.031082159 -0.042390835 0.001994894 -0.0697566
000180 4a 54 82 bd fb 51 73 bd 80 8b a3 bd 28 ac a7 bc
       -0.06363733 -0.059404355 -0.07985592 -0.020467833
